output/models/fcnn_without_constraints_model.pth (torch, 191773 bytes, 12 tensors)

lin1.weight f4 [256, 7]
0	0xbe83f55f	-0.2577314
1	0xbe91fd78	-0.28513694
2	0xbc026e53	-0.007960874
3	0x3c8db201	0.017296793
4	0xbebc3b84	-0.36764157
5	0xbdbe076e	-0.09278761
6	0x3c9f647a	0.01945709
7	0xbec77e5d	-0.38963595
8	0xbeeedd96	-0.46653432
9	0xbf109f53	-0.5649311
10	0x3cff5184	0.0311668
11	0xbe6018d6	-0.21884474
12	0xbc98eae0	-0.018666685
13	0x3c950b94	0.018193997
14	0xbd492c9b	-0.049114805
15	0x3e217b31	0.1576965
16	0x3d56e710	0.052466452
17	0x3e331d93	0.1749175
18	0xbd8035c2	-0.062602535
19	0xbdc5ad4b	-0.09652194
20	0x3e140d2e	0.14458153
21	0x3e23a577	0.15981089
22	0x3eb576d8	0.35442233
23	0x3e725bbe	0.2366781
24	0xbebb5dee	-0.365951
25	0xbe274763	-0.16335826
26	0xbd912c11	-0.07088483
27	0xbebc9978	-0.36835837
28	0x3e191ccf	0.14952396
29	0xbdfda26c	-0.12384495
30	0x3e503f09	0.20336546
31	0xbe686e02	-0.22698215
32	0xbb8924dc	-0.004185302
33	0xbdc11c92	-0.094292775
34	0x3e581142	0.21100333
35	0xbdaaff71	-0.08349503
36	0x3de83622	0.1133845
37	0xbe08e5fd	-0.13368984
38	0xbe65fdf9	-0.22460164
39	0xbc665970	-0.0140594095
40	0xbe78fe36	-0.24315724
41	0x3e86c240	0.26320076
42	0xc002151a	-2.032538
43	0xbfe8313f	-1.8140029
44	0xbffab66e	-1.9586923
45	0xbebfa29d	-0.37428752
46	0x3fd38e4c	1.65278
47	0xbe8a86e7	-0.27056047
48	0x401b6262	2.4278798
49	0x3f8200ab	1.0156454
50	0x3fd06bbe	1.628288
51	0x3fa9357d	1.3219448
52	0x3c2a5790	0.010396853
53	0xbe7fa7c1	-0.24966337
54	0xbf828251	-1.019602
55	0x3ea76a19	0.32698134
56	0xbe8851b0	-0.26624823
57	0xbe2f9f56	-0.17150626
58	0x3d920044	0.07128957
59	0xbe8e212a	-0.27759677
60	0x3e8d0c1c	0.275483
61	0xbf84eca8	-1.0384722
62	0xbd549f7f	-0.05190992
63	0xbede8d4e	-0.43467182
64	0x3d99e033	0.07513466
65	0x3e3d3a20	0.18479204
66	0x3efa5715	0.48894563
67	0xbfbac857	-1.4592389
68	0xbf411d2c	-0.7543514
69	0xbe2616e0	-0.16219664
70	0xbf950a66	-1.1643798
71	0x403d2581	2.955414
72	0x3f347de4	0.70504594
73	0xbf19a850	-0.6002245
74	0x40780102	3.8750615
75	0x3e062ad2	0.13102272
76	0xc001358b	-2.018893
77	0xbea99add	-0.33125964
78	0xbebad1c5	-0.36488166
79	0x3cc537ed	0.024074519
80	0x3e270511	0.16310526
81	0xbe81c2f0	-0.25344038
82	0xbea177b6	-0.31536645
83	0xbd393a25	-0.045221467
84	0xbee1dc27	-0.44113275
85	0xbee6a5c7	-0.45048353
86	0xbf20fcd7	-0.62885803
87	0x3e994e73	0.29942665
88	0xbedc4e5b	-0.4302853
89	0xbbd271ad	-0.0064222426
90	0xbedc3402	-0.4300843
91	0xbdaf1a3b	-0.08549925
92	0x3daa79e1	0.08324028
93	0xbe1c2182	-0.15247157
94	0x3e7331bc	0.23749441
95	0xbebe547a	-0.37173826
96	0xbeda8464	-0.4267913
97	0xbead7efc	-0.33885944
98	0xbde709e9	-0.11281187
99	0x3eb079f3	0.3446804
100	0xbdacb789	-0.08433444
101	0x3de746a5	0.11292771
102	0xbe929dcd	-0.28636017
103	0xbe697188	-0.22797215
104	0x3e878cc5	0.26474586
105	0x3e242742	0.160306
106	0xbe8e02b0	-0.27736425
107	0xbe3265cd	-0.17421646
108	0x3e8f5b5e	0.27999395
109	0xbe5c0034	-0.21484452
110	0xbea44146	-0.3208105
111	0xbecbd503	-0.39810953
112	0x3caff28a	0.021477956
113	0xbf06b7bf	-0.52624124
114	0xbe7239e0	-0.2365489
115	0xbe8e2b3c	-0.2776736
116	0xbeaeb1d8	-0.3412006
117	0xbda99970	-0.08281219
118	0xbf13eec2	-0.5778619
119	0xc0793ecb	-3.8944576
120	0x3fd89b40	1.6922379
121	0xc06346f5	-3.5512059
122	0xc090368f	-4.50666
123	0x4030a8a2	2.7602925
124	0x3e890b32	0.26766354
125	0xc00742ed	-2.1134598
126	0x3e1bc9b9	0.1521367
127	0xbcd4dc45	-0.025983939
128	0x3d63c929	0.055611763
129	0xbebc799c	-0.3681153
130	0x3dce0fa6	0.100615785
131	0xbe61c856	-0.22049078
132	0xbdae46e1	-0.08509613
133	0xbf085626	-0.5325645
134	0xbe9985d8	-0.29984927
135	0x3cdcb4b4	0.026941635
136	0xbe9419b6	-0.28925866
137	0x3ce63c5c	0.028104953
138	0xbc2431f8	-0.010021679
139	0xbed663ab	-0.41872916
140	0x3e3b18ac	0.1827113
141	0x40071663	2.1107414
142	0xbfdc0af8	-1.7190847
143	0xbeee22e8	-0.46511006
144	0x402fb370	2.745327
145	0xbe0c0605	-0.13674171
146	0x3f53fa0a	0.82803404
147	0xbe2b7a63	-0.16745906
148	0x3e8f772e	0.28020614
149	0xbea39b32	-0.31954342
150	0xbe450936	-0.19241795
151	0xbcc0aaf2	-0.023519013
152	0xbea02201	-0.31275943
153	0xbe4be040	-0.19909763
154	0x3ea9ccdf	0.33164117
155	0x3b9b71d0	0.004743792
156	0xbe1189b5	-0.14212687
157	0x3ddd516b	0.10806545
158	0xbe1a324f	-0.15058254
159	0xbcd53ac4	-0.026028998
160	0xbedd4aea	-0.43221217
161	0xbe0d3c3c	-0.13792509
162	0xbea7f792	-0.3280607
163	0x3e6da8bd	0.232089
164	0x3d13b17d	0.036057938
165	0x3e32d1aa	0.17462793
166	0xbea5fafc	-0.32418048
167	0xbeaacd4b	-0.3335975
168	0x3cda0767	0.026614858
169	0xbd5120eb	-0.051056784
170	0x3d1fb6d0	0.038992703
171	0x3d16917d	0.036759842
172	0x3b8098fe	0.003924488
173	0xbcf76551	-0.030199679
174	0xbe4d3131	-0.20038296
175	0x3e9e232a	0.30886203
176	0x3e1bfbc6	0.15232763
177	0x3e2aff0c	0.16698855
178	0x3f1a4468	0.6026063
179	0xbf4c6858	-0.79846716
180	0x3e3bd3e9	0.18342556
181	0xbf8c5048	-1.0962
182	0x3ffd23a0	1.9776497
183	0x3f4cdbb0	0.80022717
184	0x3f3a4d08	0.7277379
185	0xbfc6f81c	-1.5544467
186	0xbf6ec824	-0.9327414
187	0x3dbd357c	0.09238717
188	0x3fba90ac	1.45754
189	0xbe8f808e	-0.28027767
190	0x3e09aa00	0.13443756
191	0xbbff7ed1	-0.0077971
192	0xbef8a187	-0.48560736
193	0xbeb34ed5	-0.35021082
194	0xbc9a6dd0	-0.01885119
195	0xbe273e92	-0.16332462
196	0xbe78ff30	-0.24316096
197	0x3e4a10f9	0.19733037
198	0xbe74b010	-0.23895288
199	0x3db6951e	0.089151606
200	0x3e64482b	0.22293155
201	0xbd8be39d	-0.06830523
202	0xbe96a742	-0.29424483
203	0xbf2dc583	-0.67879504
204	0xbeef3102	-0.46717077
205	0x3e9d88ee	0.30768532
206	0xbf4479da	-0.7674843
207	0x3dbee79d	0.093215205
208	0xbe1c9156	-0.15289816
209	0x3b538b60	0.003227912
210	0xbee46b5c	-0.4461316
211	0xbe825093	-0.25452098
212	0x3eb80830	0.35943747
213	0x3d66ac6a	0.05631677
214	0xbe786ca6	-0.24260196
215	0xbca4038c	-0.020021223
216	0xbdc2b476	-0.095070764
217	0xbea8b1f2	-0.32948261
218	0xbecaef78	-0.39635825
219	0xbebd541e	-0.3697824
220	0xbf021e5c	-0.50827575
221	0xbed4e144	-0.41578114
222	0xbe02ac6c	-0.12761086
223	0x3d37e0de	0.044892184
224	0xbde3f3c0	-0.11130476
225	0x3e40ca3e	0.1882715
226	0x3e306082	0.17224315
227	0xbf0f4cff	-0.5597686
228	0xbe556636	-0.20839772
229	0xbe55aaa8	-0.20865881
230	0xbe2e6b7e	-0.17033193
231	0x3cda4b94	0.026647367
232	0xbeb8d03c	-0.3609637
233	0xbe0c49d6	-0.13700041
234	0xbe11154e	-0.14168283
235	0x3dee44aa	0.116341904
236	0xbe4c077e	-0.19924733
237	0xbea78c49	-0.32724217
238	0xbf0b45c2	-0.54403317
239	0xbf1a27b6	-0.60216844
240	0xc03609f7	-2.8443582
241	0xc0933bb3	-4.6010375
242	0x402385c5	2.5550396
243	0xbe29bba0	-0.1657548
244	0x3f3e4fe2	0.7434064
245	0xbe8c9460	-0.2745695
246	0xbe8449b4	-0.2583748
247	0xbd8042ee	-0.06262766
248	0xbe2477dc	-0.16061348
249	0x3cb8ece6	0.0225739
250	0xbe4e8c49	-0.20170702
251	0xbdf99219	-0.12186069
252	0xbcd6fc72	-0.026243422
253	0xbe86c099	-0.26318815
254	0x3df3ef93	0.119109295
255	0x3e044544	0.12917048

lin1.bias f4 [256]
0	0xbe08f524	-0.13374764
1	0xbddc1911	-0.107469685
2	0xbecb25b4	-0.39677203
3	0xbe529abb	-0.20566837
4	0xbeb75dff	-0.358139
5	0xbec2f8e3	-0.3808051
6	0x3f5d0f04	0.8635104
7	0xbe58cfa9	-0.21172966
8	0x3d358b26	0.044322155
9	0x3e9e7e01	0.30955508
10	0x400573a1	2.0851824
11	0xbddfbea6	-0.10925035
12	0xbd14bb17	-0.036311235
13	0x3e70e7ca	0.2352592
14	0xbe7f84b7	-0.2495297
15	0x3dd0f106	0.102022216
16	0xbea81fc5	-0.32836738
17	0x3ef0f61d	0.4706277
18	0xbe944e2f	-0.289659
19	0xbe3b7b82	-0.18308833
20	0x3ff8d71a	1.9440644
21	0xbd81ff8f	-0.06347572
22	0xbe95f89b	-0.29291233
23	0xbd883657	-0.066509895
24	0xbe87b4df	-0.2650518
25	0xbe89b389	-0.26894787
26	0xbfbf9e74	-1.4970231
27	0xbe978d39	-0.29599932
28	0xbe996635	-0.2996079
29	0xbf16227c	-0.5864637
30	0xbec50948	-0.38483644
31	0xbe1e43ea	-0.15455595
32	0x3db23ce4	0.0870302
33	0xbd8221ac	-0.06354079
34	0x3f5e1e52	0.86765015
35	0x3d8bb31e	0.06821273
36	0x3d457870	0.04821056
37	0xbdb335c1	-0.08750487
38	0xbe416334	-0.18885499
39	0xbe4ef4fc	-0.20210642
40	0xbe43ad1e	-0.19109008
41	0xbe80948c	-0.25113332
42	0xbded6ff7	-0.11593621
43	0xbe7a1fb4	-0.24426156
44	0xbe46a7bc	-0.19399923
45	0x3e2ead9e	0.17058417
46	0xbc288838	-0.010286383
47	0xbe2f18be	-0.17099282
48	0xbdcf3e5d	-0.10119317
49	0xbea70050	-0.32617426
50	0xbed60280	-0.41798782
51	0xbbee2b0a	-0.0072683142
52	0xbea0efd9	-0.3143299
53	0xbe0330fa	-0.12811652
54	0x3e911e2d	0.28343335
55	0xbe5c65a4	-0.21523148
56	0x3e0d8b6e	0.1382272
57	0x3df18701	0.11793328
58	0xbe10d8ed	-0.1414525
59	0xbea207dc	-0.3164662
60	0xbe8bb895	-0.27289262
61	0xbe18e1fe	-0.14929959
62	0xbe4e80b8	-0.2016629
63	0x3eb2176f	0.34783503
64	0xbe2b00f7	-0.16699587
65	0x3dff15af	0.12455308
66	0xbebd529d	-0.3697709
67	0xbf8447ec	-1.0334449
68	0xbeb1b6a0	-0.34709644
69	0x3eb70f00	0.35753632
70	0xbea78bb2	-0.32723767
71	0x3eef7c82	0.4677468
72	0x3dc2f99e	0.09520267
73	0xbe78968d	-0.2427618
74	0xbf013da1	-0.50484663
75	0x3cf526fc	0.029925816
76	0xbe62a476	-0.2213305
77	0x3d6cae2d	0.057783294
78	0xbf0fb932	-0.5614196
79	0xbe614ffd	-0.2200317
80	0x40022e74	2.0340853
81	0x40178648	2.3675709
82	0xbe305beb	-0.17222564
83	0xbe30fdfc	-0.17284387
84	0xbe04aca2	-0.12956479
85	0xbe34ba84	-0.17649275
86	0xbe83430a	-0.25637084
87	0x3e6f4d3c	0.23369306
88	0xbe565db6	-0.20934185
89	0xbe5c12fb	-0.21491615
90	0xbd646354	-0.05575879
91	0xbee3a5ba	-0.44462377
92	0xbf1dc32d	-0.6162594
93	0x3e400c06	0.18754587
94	0x3dfe8f8d	0.12429724
95	0xbea03097	-0.3128707
96	0xbe2b9d7c	-0.16759294
97	0xbe83ba06	-0.25727862
98	0x3d63a6b8	0.055578917
99	0xbda1dd87	-0.07903581
100	0xbee83ad7	-0.4535739
101	0x4012ef01	2.2958376
102	0xbce6e650	-0.028185993
103	0x3e93b718	0.28850627
104	0x3e88bf17	0.2670829
105	0x3e23cd9e	0.15996405
106	0x3e297b76	0.16551003
107	0x3e1792dc	0.14802116
108	0x3e27b8b4	0.16379052
109	0xbec28c57	-0.37997696
110	0x3fe48ca0	1.7855415
111	0x3d67f88c	0.056633517
112	0xbdc4952c	-0.09598765
113	0x3e78b5a1	0.24288036
114	0xc03348e9	-2.801325
115	0xbe811db7	-0.25217983
116	0x3d39c1fa	0.045351006
117	0x3d7aaae6	0.061198138
118	0xbf0686d7	-0.525495
119	0xbe55a65f	-0.20864247
120	0xbe6c87f8	-0.23098743
121	0xc035293c	-2.8306417
122	0x3dbfbf27	0.09362631
123	0xbe91e6e5	-0.2849647
124	0xbe53dadb	-0.20688955
125	0x3d82960c	0.063762754
126	0xbed7a1f3	-0.42115745
127	0x4019e147	2.4043748
128	0x3e600c52	0.218797
129	0xbeb0a7d7	-0.34503052
130	0xbf569b97	-0.8383116
131	0xbec59a8e	-0.38594478
132	0xbe669b7e	-0.22520253
133	0xbe6c5331	-0.2307861
134	0x3dcdb06d	0.10043416
135	0x3b507106	0.0031805648
136	0x3d848e72	0.06472482
137	0xbe425d13	-0.18980817
138	0x3ecc3c6b	0.39889845
139	0x3e999b7f	0.30001447
140	0xbc8fc6f4	-0.017550923
141	0xbb0a74c0	-0.0021126717
142	0x3dc55d50	0.096369386
143	0x3d2f1328	0.04274288
144	0xbd81bbde	-0.06334661
145	0x3f15f837	0.5858187
146	0xbdff8ee0	-0.12478423
147	0x3eb67dc3	0.35642824
148	0x3ca86782	0.020557169
149	0x3d867f26	0.065672204
150	0xbf00fb18	-0.5038314
151	0x3e2fc119	0.17163505
152	0xc031eab6	-2.7799506
153	0x3e281658	0.16414773
154	0xbda03597	-0.078227215
155	0x3b67b741	0.003535703
156	0x3e8de9a3	0.27717313
157	0x3d4c97ef	0.049949583
158	0xc0614b7b	-3.520232
159	0xbe5302d3	-0.20606546
160	0xbdbc33f5	-0.091895975
161	0xbef2b75c	-0.47405517
162	0xbd63747e	-0.055531017
163	0x3fe7b10c	1.8100905
164	0x3d5afd5d	0.053464282
165	0xbe018894	-0.12649757
166	0xbd6f31a5	-0.058396954
167	0xbeaa5ab1	-0.33272317
168	0xbefa2b94	-0.48861372
169	0x3c909af3	0.01765201
170	0xbeb53481	-0.3539162
171	0x3c92b091	0.017906459
172	0xbeb74546	-0.3579504
173	0xbe87cbc7	-0.26522657
174	0xbe81e1d8	-0.25367618
175	0x3d066ebb	0.032820445
176	0xbe293434	-0.1652382
177	0x3c909044	0.017646916
178	0xbe8a4c25	-0.2701122
179	0x3e795ac0	0.24351025
180	0x3d6d852d	0.057988334
181	0xbe845174	-0.25843394
182	0x3d85bf04	0.06530574
183	0x3d060be2	0.032726176
184	0x3e148198	0.14502561
185	0xbdaca9d6	-0.08430831
186	0xbeab5f83	-0.33471307
187	0xbecc050b	-0.39847597
188	0x3dd7724d	0.10519848
189	0xbea35083	-0.31897363
190	0x3c854168	0.01626654
191	0xbef9c5fd	-0.48783866
192	0x3e4e990c	0.2017557
193	0x3cb60dc0	0.022223353
194	0xc0431d12	-3.0486493
195	0xc0047a3a	-2.06996
196	0xbe941054	-0.28918707
197	0xbf07b8ce	-0.53016365
198	0xbe1e52f8	-0.15461338
199	0xbe119a38	-0.14218986
200	0xbe463c35	-0.19358905
201	0xbf107e16	-0.5644239
202	0xbe96cb8c	-0.2945217
203	0xbd9468ba	-0.072465375
204	0xbe94b37f	-0.29043195
205	0xbd737004	-0.059433
206	0x3e7f4fb5	0.2493275
207	0xc021660d	-2.5218537
208	0xbdc01861	-0.0937965
209	0xbeab489b	-0.3345383
210	0xbe6d52c2	-0.23176101
211	0xbf86835f	-1.0508841
212	0xbfa5e647	-1.29609
213	0xbebc158e	-0.36735195
214	0x3e549ce7	0.20762978
215	0x3c3a9879	0.011388891
216	0xbea877fa	-0.32904035
217	0x3e1174de	0.14204738
218	0xbdadc82d	-0.08485446
219	0xbeae2a35	-0.34016576
220	0xbf927e61	-1.1444818
221	0xbdd04cc3	-0.10170891
222	0x3c971ade	0.018445428
223	0xbe006d24	-0.12541634
224	0xbe1c361b	-0.15255015
225	0xbf0f25c5	-0.55917007
226	0xbc720183	-0.014770868
227	0xbe94ef2c	-0.29088724
228	0xbd0fddf0	-0.035123765
229	0x4022d68d	2.5443451
230	0x3e691724	0.22762734
231	0x3d27f76f	0.041007455
232	0xbee3e54c	-0.44510877
233	0x3f34ceeb	0.7062823
234	0x3d4fa945	0.050698537
235	0xbed15d47	-0.40891477
236	0xbd5e5cc0	-0.054287672
237	0xbef21506	-0.47281665
238	0x3e856cda	0.2605961
239	0xbe37223b	-0.17884152
240	0xbd6d4760	-0.057929397
241	0x3ea7fc15	0.3280951
242	0xbed55d0a	-0.41672546
243	0x3e39a6fa	0.18130103
244	0x3d673894	0.05645044
245	0x3daf9be3	0.08574655
246	0x3d6adbc0	0.057338476
247	0x3e8b420c	0.27198827
248	0xc058195c	-3.3765478
249	0x3e2873c7	0.16450416
250	0xbefc05a6	-0.4922306
251	0xbe8251ee	-0.25453132
252	0xbe693a8f	-0.22776245
253	0xbe937075	-0.28796735
254	0x3d442902	0.04789067
255	0xbea999bc	-0.33125103

lin1c.weight f4 [128, 256]
0	0xbd2c1128	-0.04200855
1	0x3c1e1fb8	0.009651117
2	0x3de26b6c	0.11055645
3	0x3c656ff8	0.014003746
4	0x3e09c44c	0.13453788
5	0xbd05093e	-0.032479517
6	0xc059c4b8	-3.4026318
7	0x3fef9931	1.8718625
8	0x3cbecc39	0.02329074
9	0x3d5b238a	0.05350069
10	0x3f83b262	1.0288813
11	0x3c3ac048	0.0113983825
12	0x3d34ac5d	0.04410969
13	0x3e16feff	0.14745711
14	0x3ce674a8	0.028131798
15	0xbda3a17f	-0.07989787
16	0x3cc23cb0	0.023710579
17	0xbf62d378	-0.88603926
18	0x3d44ea32	0.04807491
19	0x3d6f582c	0.058433697
20	0xbf8ae081	-1.0849763
21	0xbd4e345e	-0.05034291
22	0x3dee756e	0.11643492
23	0x3cfffdc8	0.031248942
24	0xbd050587	-0.032475974
25	0xc087c0d9	-4.242291
26	0xc034a2ee	-2.8224444
27	0x3b02d272	0.001996186
28	0xba20bf80	-0.00061320513
29	0x3d5b3b2f	0.05352324
30	0x3cd0fd48	0.025511399
31	0xbd27ce3e	-0.040968172
32	0xbe2ad756	-0.16683707
33	0x3e1b2d50	0.15154004
34	0xbfa0b084	-1.2553868
35	0x3cc0d3e0	0.02353853
36	0xbd55dcee	-0.052212648
37	0xbd3a1e08	-0.045438796
38	0x3d4cdde2	0.05001629
39	0x3e1a665a	0.15078107
40	0x3c44e5b8	0.01201766
41	0x3ce6b62c	0.028163038
42	0xbe72b83a	-0.2370309
43	0xbd6a6530	-0.057225406
44	0x3ce899d4	0.028393663
45	0x3d55a242	0.052156694
46	0xbac0da25	-0.001471345
47	0xbc8834c8	-0.01662673
48	0xbd7704d4	-0.06030734
49	0xbcc098d9	-0.023510383
50	0xbdc95f3c	-0.09832618
51	0x3b96e0a4	0.004604416
52	0x3c9e4e55	0.019324461
53	0xbd6d775e	-0.057975166
54	0xbc89bb77	-0.016813023
55	0x3d450706	0.0481024
56	0xbd575beb	-0.052577894
57	0xbcc7162c	-0.024302565
58	0xbbf3247a	-0.00742012
59	0xbcf0afec	-0.029380761
60	0x3d42ecd1	0.047589127
61	0xbdbbbbac	-0.09166655
62	0x3d777a0e	0.060419135
63	0x3e766226	0.24060878
64	0x3bd44088	0.0064774193
65	0x3cd31dfe	0.025771137
66	0x3cff5920	0.031170428
67	0x3e80b667	0.25139162
68	0xbf0c7db4	-0.5487931
69	0x3d52100c	0.051284835
70	0xbba40cd2	-0.005006411
71	0xbf397894	-0.7244961
72	0xbd863ba3	-0.065543436
73	0xbcd9a02c	-0.026565634
74	0xbc5b5d80	-0.013388991
75	0x3c832188	0.0160072
76	0x3d55621c	0.052095518
77	0x3cc09382	0.023507837
78	0x3f6fc7ae	0.9366406
79	0x3c1047f8	0.008806221
80	0xbfa21b08	-1.2664499
81	0x3fa3e998	1.2805662
82	0xbe3ed886	-0.18637285
83	0xba690eb0	-0.0008890433
84	0xbd056f08	-0.03257659
85	0xbe8c35d2	-0.27384812
86	0x3c7192c8	0.014744468
87	0x3dee024e	0.11621533
88	0x3d59e5cb	0.053197663
89	0x3d7e84fe	0.06213855
90	0xbd2605b8	-0.040532798
91	0x3b9027d0	0.0043992773
92	0x3cbae8e8	0.022816136
93	0x3d2a34ce	0.041554265
94	0xbd373738	-0.044730395
95	0x3da17173	0.07882967
96	0xbf08b1fc	-0.5339658
97	0x3d914777	0.07093709
98	0xbe93495a	-0.287669
99	0x3e661e4f	0.224725
100	0xbdc0dc53	-0.094170235
101	0x3fba4684	1.455277
102	0x3c8cbf90	0.017181188
103	0xbc7dfa1d	-0.015501526
104	0x3c59f978	0.013304107
105	0x3c5a7b26	0.013335025
106	0x3ae8fb00	0.0017774999
107	0xbc544958	-0.01295694
108	0x3db876b1	0.090070136
109	0x3d313e56	0.04327234
110	0x3e29f894	0.16598731
111	0x3cdf63b4	0.027269222
112	0x3a810a00	0.0009844899
113	0xbe8cb50b	-0.27481875
114	0xbf82d010	-1.0219746
115	0xbebfe27f	-0.3747749
116	0x3d3de840	0.04636407
117	0x3e0f5618	0.13997686
118	0xbd1417cf	-0.03615552
119	0xbe2557d7	-0.1614679
120	0xbda77580	-0.08176708
121	0x3ea7e48e	0.3279156
122	0xbd016b20	-0.031596303
123	0xbda75f7b	-0.08172508
124	0xbcca7d8c	-0.024718069
125	0xbd586848	-0.052833825
126	0x3b4c5502	0.0031178598
127	0x3e6f4742	0.23367026
128	0x3e01f8e4	0.126926
129	0xbd4b5616	-0.049642645
130	0x3f9407f7	1.1564931
131	0x3d9f2c69	0.077721424
132	0x3d4e9768	0.05043736
133	0xb90c7800	-0.00013396144
134	0xbbd546f4	-0.0065087024
135	0xbbae1150	-0.0053121224
136	0xbe1c4834	-0.15261918
137	0x3c109ef8	0.008826964
138	0x4019d71b	2.403754
139	0xbe1b39f0	-0.1515882
140	0x3dc43cbb	0.09581896
141	0xbc597c10	-0.013274208
142	0xbd2d7d0f	-0.042355593
143	0x3cf8198a	0.030285615
144	0x3cdb1e69	0.0267479
145	0xbf817a79	-1.0115501
146	0xbe0ae5de	-0.1356425
147	0x3fd80cd0	1.687891
148	0xbe2bfe6d	-0.16796274
149	0x3d09609e	0.033539407
150	0x3c34e2af	0.011040374
151	0x3d73d674	0.05953069
152	0xbf1f7441	-0.62286764
153	0xbc558ffd	-0.013034818
154	0xbd8956f4	-0.06706038
155	0x3c8efea0	0.017455399
156	0xbd64e9be	-0.055886976
157	0xbe92db1b	-0.2868279
158	0xbf01d5da	-0.50716937
159	0x3c0cfa58	0.0086046085
160	0x3defa2a0	0.1170094
161	0xbd71f7bc	-0.05907415
162	0xbe5797d0	-0.21054006
163	0xc00d6226	-2.2091155
164	0x3d5033d9	0.050830696
165	0x3c0db198	0.008648299
166	0xbcaf5d60	-0.02140683
167	0xbe31e41d	-0.17372175
168	0xbc9afbd9	-0.018918918
169	0xbd196c68	-0.0374569
170	0xbcf8d3b0	-0.030374378
171	0x3c624fb8	0.013812952
172	0xbd271f66	-0.04080143
173	0xbd01128a	-0.03151182
174	0x3de9a7e6	0.11408977
175	0xbd73917b	-0.059464913
176	0x3d774d50	0.060376465
177	0xbcf51c82	-0.02992082
178	0x3cc96660	0.024584949
179	0x3d0fd6de	0.035117023
180	0x3ceb9e54	0.02876202
181	0xbd0679f7	-0.03283116
182	0x3b496440	0.003072992
183	0xbd2e8f4e	-0.042617135
184	0xbd4039c3	-0.046930086
185	0xbbfe80b0	-0.0077668056
186	0x3d5ce044	0.053924814
187	0x3d058e58	0.032606453
188	0xbce270dc	-0.027641706
189	0x3d73091e	0.059334867
190	0xbd69d148	-0.05708435
191	0xbd30a762	-0.04312838
192	0x3d33ab56	0.04386457
193	0xbc0d19b8	-0.008612089
194	0xc001cdf8	-2.0281963
195	0xbf39b290	-0.7253809
196	0xbd25d13a	-0.040482737
197	0xbcb37dfb	-0.021910658
198	0x3bd45270	0.006479554
199	0x3d1ffc3a	0.0390589
200	0xbccf86ef	-0.025332896
201	0x3c93f59b	0.01806145
202	0xbb943a10	-0.004523523
203	0xbd295840	-0.041343927
204	0xbd389cf2	-0.04507155
205	0xbd2587aa	-0.040412582
206	0x3dcf4860	0.10121226
207	0x3f13af9e	0.57689846
208	0x3e158ab3	0.14603691
209	0x3e103384	0.14082152
210	0x3eadafc2	0.33923155
211	0xbff47d54	-1.9100747
212	0x3f1296d8	0.5726142
213	0x3c13e9e0	0.009027928
214	0xbdef5c9a	-0.11687584
215	0x3d25a6ac	0.040442154
216	0xbe7c2a07	-0.24625407
217	0xbd70637a	-0.05868862
218	0x3da55a17	0.08073824
219	0x3cc13828	0.023586348
220	0xbef947e8	-0.48687673
221	0xbd049e8e	-0.032377772
222	0x3d406d98	0.046979517
223	0x3d47068a	0.04859022
224	0xbd2fe1a0	-0.042939782
225	0xbddff567	-0.10935479
226	0xbd6e0489	-0.058109794
227	0xbce5ca90	-0.02805069
228	0x3d9d3f8a	0.07678135
229	0x3fa4fd62	1.2889826
230	0x3d49c336	0.049258433
231	0xbd0328d8	-0.032021374
232	0xbe147f42	-0.1450167
233	0x3f945296	1.1587703
234	0x3ccc2388	0.024919286
235	0xbcd58258	-0.02606313
236	0xbb9e16f0	-0.0048245117
237	0x3e18e7c4	0.14932162
238	0xbf5dac64	-0.8659117
239	0xbd4e17e0	-0.050315738
240	0x3caa0ca4	0.02075798
241	0xbd63ec38	-0.055645198
242	0xbcd5470e	-0.026034858
243	0x3d4d7026	0.05015578
244	0x3cc3dab8	0.023908004
245	0xba07af59	-0.000517597
246	0xbe054205	-0.13013466
247	0xbd1351a3	-0.035966527
248	0xbf8b50ec	-1.088407
249	0x3d7ec0b8	0.06219551
250	0x3c977380	0.018487692
251	0xbd2fc315	-0.042910654
252	0x3d311622	0.043233998
253	0xbdfd0f8e	-0.123564824
254	0xbe4e375a	-0.20138302
255	0x3d5f918c	0.054582164

lin1c.bias f4 [128]
0	0xbf81533f	-1.010353
1	0xbde99b3c	-0.11406562
2	0xbe01e0ca	-0.12683406
3	0xbe1fac65	-0.15593107
4	0xbe4464c7	-0.19179069
5	0xbdba01f6	-0.09082405
6	0xbdd80f06	-0.105497405
7	0xbd8ef560	-0.06980395
8	0xbe0143e9	-0.12623562
9	0x4085dea2	4.183427
10	0xbd78d79e	-0.060752504
11	0xbd8e2b35	-0.06941835
12	0x403a89ae	2.9146533
13	0x40628b28	3.5397434
14	0xbf87dc96	-1.0614192
15	0xbdaddec6	-0.08489756
16	0x3eeac726	0.45855063
17	0x401ba23a	2.4317765
18	0xbe49775a	-0.19674435
19	0x4046ccfc	3.1062613
20	0xbe2bedfc	-0.16790003
21	0xbd6ae318	-0.05734548
22	0xbf146f62	-0.57982457
23	0x3f9bb73a	1.2165291
24	0x3f5f3f90	0.87206364
25	0x401760a2	2.365273
26	0xbe740cb2	-0.23832968
27	0xbf80bedf	-1.0058249
28	0x3f9fb5f6	1.2477405
29	0xbd8df4f0	-0.06931484
30	0xbee3cd84	-0.44492733
31	0xbe95fb3b	-0.29293236
32	0xbe4fcb34	-0.2029236
33	0x3ef0c305	0.47023788
34	0xbe624458	-0.22096384
35	0xbeae996c	-0.34101427
36	0xbd2c3238	-0.04204008
37	0xbe130968	-0.14359057
38	0xc02f2e50	-2.7372017
39	0xbf14b143	-0.5808298
40	0xbd3ac552	-0.045598336
41	0xbe0c5962	-0.13705972
42	0xbe3a1bb6	-0.18174633
43	0xbe15f582	-0.14644435
44	0xbe0f89a7	-0.14017354
45	0x3effe64f	0.499804
46	0xbe4a2061	-0.19738914
47	0xbdcb0d18	-0.09914607
48	0xbd91155c	-0.07084152
49	0xbd7ef56e	-0.06224578
50	0xbd68d6ce	-0.05684548
51	0xbd8c7b68	-0.068594754
52	0xc0a69f2a	-5.206929
53	0xbf943d94	-1.1581292
54	0xbe7f8a35	-0.24955066
55	0xbe563a4f	-0.2092068
56	0xbe8661de	-0.26246542
57	0xbee8cbb7	-0.45467922
58	0xc00e463b	-2.2230365
59	0xbdda82d6	-0.10669486
60	0xbe1bad95	-0.15202935
61	0x3eb20c2a	0.34774905
62	0xbda33131	-0.07968367
63	0xbd2fc15e	-0.04290902
64	0xbdbe238b	-0.09284123
65	0xbea90712	-0.33013207
66	0xbe048c52	-0.12944153
67	0xbd42ab18	-0.04752645
68	0xbeac8294	-0.33693373
69	0xbdc15234	-0.09439507
70	0xbd8a8506	-0.067636535
71	0xbe213313	-0.1574214
72	0x40301052	2.750996
73	0xbe778bb7	-0.2417439
74	0x3f1c1c86	0.60981023
75	0xbe5388a7	-0.20657597
76	0x3fc8818d	1.5664536
77	0x3e6970d6	0.2279695
78	0x4007893f	2.1177518
79	0xbe2ee9b0	-0.17081332
80	0x3f141feb	0.578612
81	0xbe6a56c8	-0.22884667
82	0xbdba147b	-0.090859376
83	0x3f973ec4	1.181603
84	0xbe2a38e6	-0.16623268
85	0xbe5ec8a1	-0.21756221
86	0xbe8b4bcd	-0.2720627
87	0xbe0ff0f9	-0.14056768
88	0x401e95b3	2.477887
89	0xbe175f8b	-0.1478254
90	0xbeae0710	-0.33989763
91	0x3ffea0dc	1.989284
92	0xbd9d78b8	-0.07689041
93	0xbe2210cc	-0.1582672
94	0xbda6e55e	-0.08149217
95	0xbeaade14	-0.33372557
96	0xbef13b15	-0.4711539
97	0x3f633e7c	0.8876722
98	0x3f89d573	1.0768265
99	0xbe287b42	-0.16453269
100	0xbdeda2c5	-0.116033114
101	0x3fb48ac2	1.4104846
102	0xbeb10431	-0.3457351
103	0xbe3ba6fc	-0.18325418
104	0xbf783cfa	-0.9696804
105	0x3f3ca3db	0.73687524
106	0xbf940a6a	-1.1565678
107	0x4055a15b	3.3379734
108	0xbf710cc8	-0.9416013
109	0xbef53d95	-0.47898546
110	0x3ed93533	0.424234
111	0xbe16fc9a	-0.14744797
112	0xc01a625c	-2.4122534
113	0x3fcbd6f6	1.5924976
114	0xbe476916	-0.19473681
115	0xbe0e7224	-0.13910729
116	0xbe0d154e	-0.13777658
117	0xbe3a313a	-0.18182841
118	0xbde13d73	-0.10998049
119	0xbd9f973a	-0.07792516
120	0xbe4f39e2	-0.20236924
121	0xbd4ab4c4	-0.049488798
122	0xbe0ab02c	-0.13543767
123	0xbe29fd20	-0.16600466
124	0xbd8920be	-0.06695698
125	0xbe2b2721	-0.16714145
126	0x3fbc2cd4	1.470118
127	0xbd95992d	-0.073046066

lin2.weight f4 [64, 128]
0	0x3f2d86a9	0.677836
1	0x3e2801e2	0.16406968
2	0x3dc9df04	0.0985699
3	0x3cd2abc4	0.02571667
4	0x3ce89ef8	0.028396115
5	0xbd25156e	-0.04030364
6	0xbf19606c	-0.59912753
7	0xbddaba18	-0.10680026
8	0x3d407b0a	0.04699234
9	0xc03f25c6	-2.9866805
10	0x3d5ad453	0.053425144
11	0xbe230a3e	-0.15921876
12	0xc017f35f	-2.3742292
13	0x3f411426	0.7542137
14	0x3de4537c	0.11148736
15	0xbde3a498	-0.11115378
16	0x3e3f6c25	0.18693598
17	0x3f63a2fa	0.8892056
18	0x3cfd70fc	0.030937664
19	0x401f0d0b	2.485171
20	0xbe3ad5b6	-0.18245587
21	0x3d05752e	0.032582454
22	0xbf95462f	-1.1662043
23	0x3fe1b0e0	1.7632103
24	0x3fda4a81	1.7053987
25	0xbf3737df	-0.7156963
26	0xbfcf1845	-1.6179281
27	0xbf3f900c	-0.74829173
28	0xbe47fd00	-0.19530106
29	0x3dc3dd0e	0.09563647
30	0xb95e1c00	-0.00021182
31	0x3e08de65	0.13366087
32	0x3d237e8a	0.0399156
33	0xbf464c8e	-0.77460563
34	0x3dd20d0e	0.10256396
35	0xbde01467	-0.109413914
36	0x3c84fc84	0.01623369
37	0x3e2d8000	0.1694336
38	0xc013875d	-2.305137
39	0x3fcf704c	1.6206145
40	0x3d99b314	0.075048596
41	0x3cfe3644	0.031031735
42	0x3e3658e2	0.17807344
43	0x3e2fdf6f	0.17175077
44	0xbcfd4f2c	-0.030921541
45	0xbf105d35	-0.5639222
46	0xbe2e40fe	-0.1701698
47	0x3e3ed9c1	0.18637754
48	0x3de706f3	0.11280622
49	0x3f96707a	1.1753075
50	0x3e190e5e	0.14946887
51	0xbe016e53	-0.12639742
52	0x3e20c832	0.15701368
53	0xbe1c453b	-0.15260784
54	0x3d9e703b	0.0773625
55	0x3d67e110	0.05661112
56	0x3da8bcfe	0.082391724
57	0xbe40f614	-0.18843871
58	0x3f6d58eb	0.92713803
59	0x3cf3b0e4	0.029747434
60	0x3e449061	0.19195701
61	0x3f2e39b8	0.6805682
62	0x3dd02e81	0.1016512
63	0xbdf92041	-0.12164355
64	0xbd5cdcca	-0.0539215
65	0xbd832c09	-0.064048834
66	0x3ddebf2c	0.10876307
67	0xbd919364	-0.07108191
68	0x3dbd2dbb	0.09237238
69	0x3e34a079	0.1763934
70	0x3d9c8e9a	0.076443866
71	0x3da7ccc3	0.08193352
72	0x3ed916e4	0.42400277
73	0x3d16ce4c	0.036817834
74	0xbf4797fa	-0.7796627
75	0x3e133f78	0.1437968
76	0xbfa1f2bc	-1.2652202
77	0xbfd434e0	-1.6578636
78	0xbc0d4680	-0.008622766
79	0x3d83a5b3	0.06428089
80	0xbf14ecd1	-0.58173853
81	0x3d2d123e	0.042253725
82	0x3cdb428c	0.02676513
83	0xbff91e41	-1.9462358
84	0x3e0551ac	0.13019437
85	0xbdf20701	-0.11817742
86	0x3d41e033	0.047332954
87	0x4002c5d8	2.0433254
88	0x3ee022bc	0.437765
89	0xbd975eb0	-0.07391107
90	0x3f089954	0.5335896
91	0xbecc985f	-0.3996
92	0xbd5d4ff9	-0.054031346
93	0xbe36616c	-0.17810601
94	0xbd046768	-0.03232518
95	0xbf28f7c3	-0.66003054
96	0x3e05a5e9	0.13051571
97	0xbfc7b16f	-1.5601023
98	0xbfb69034	-1.4262757
99	0x3d82a2ad	0.06378684
100	0xbcd46558	-0.02592723
101	0x3f897270	1.0738049
102	0xbf3f8879	-0.74817616
103	0x3e9b7451	0.3036218
104	0x3f175a2c	0.59121966
105	0x3eb5e011	0.35522512
106	0xbfd526cb	-1.6652464
107	0x3e202127	0.15637647
108	0xbf589e23	-0.846163
109	0x40057a43	2.0855873
110	0x3fc77f59	1.5585738
111	0x3d9a7ace	0.075429544
112	0xbd9a79a6	-0.07542734
113	0x3f655db3	0.895961
114	0x3dbdb42f	0.09262883
115	0xbc42339c	-0.011853125
116	0x3da4d782	0.08048917
117	0x3d253681	0.040335182
118	0xbc50887e	-0.012727855
119	0xbbdc821a	-0.0067293765
120	0xbc2a5b5c	-0.010397758
121	0x3f9dce4a	1.232858
122	0x3c44f2ce	0.01202078
123	0x3c8af7f8	0.016963944
124	0x3e2e7b56	0.17039236
125	0x3d65b82b	0.05608384
126	0xbf93432d	-1.1504875
127	0x3dce3f58	0.100706756
128	0xbcc32d98	-0.023825452
129	0xbc9d3616	-0.01919083
130	0xbdd13c8c	-0.102166265
131	0xbd912513	-0.070871495
132	0xbd4088e3	-0.047005545
133	0xbd948a48	-0.072529376
134	0xbe2c97a8	-0.16854727
135	0xbd21f0dd	-0.039536346
136	0xbc149b00	-0.009070158
137	0xbd5aee58	-0.05344996
138	0xbe347c9e	-0.17625663
139	0xbbe63c2d	-0.0070262165
140	0xbe0c68ef	-0.13711904
141	0xbd3bc15a	-0.04583869
142	0xbc35d4a9	-0.011098065
143	0xbc52e1e1	-0.012871237
144	0x3d5908ed	0.052987028
145	0xbe0f02fe	-0.13965985
146	0xbdece0d5	-0.11566321
147	0xbdf22e49	-0.118252344
148	0xbcbdbef1	-0.023162337
149	0xbdf8e442	-0.12152912
150	0xbdaeecd6	-0.085412666
151	0xbda198ef	-0.07890498
152	0xbcfc4ac0	-0.030797362
153	0xbe103bb2	-0.14085272
154	0xbca5bd2a	-0.020231802
155	0xbdb466d7	-0.08808678
156	0xbd67116c	-0.0564131
157	0xbcd352a4	-0.025796242
158	0xbdb5662a	-0.08857377
159	0xbe13ee22	-0.14446309
160	0xbd774f61	-0.060378436
161	0xbd84a45a	-0.0647666
162	0xbdf321be	-0.1187167
163	0xbe1d1bd0	-0.15342641
164	0xbdb9e7dd	-0.090774275
165	0xbd94c310	-0.07263768
166	0xbda87950	-0.082262635
167	0xbd9156c0	-0.070966244
168	0xbda45ea2	-0.08025862
169	0xbdfbc509	-0.12293441
170	0xbda59bd8	-0.080863655
171	0xbdd5c3b8	-0.10437721
172	0xbd42a5ae	-0.047521286
173	0xbe5e68b4	-0.21719629
174	0xbabae0b9	-0.0014257646
175	0xbcce9dfc	-0.025221817
176	0xbddd16a4	-0.10795334
177	0xbd08aab0	-0.033365905
178	0x3bd9c610	0.0066459253
179	0x3d4b9f67	0.049712565
180	0xbe655bcb	-0.22398297
181	0xbc46c420	-0.012131721
182	0xbdee8b5b	-0.11647674
183	0xbe1263f4	-0.14295942
184	0xbd3d4c53	-0.046215367
185	0x3c9fbc4b	0.019498965
186	0xbe0cc6b8	-0.1374768
187	0xbdf49217	-0.11941927
188	0xbc6b8938	-0.014375977
189	0xbe0e72c4	-0.13910967
190	0xbd9177de	-0.07102941
191	0x3ca95f91	0.020675452
192	0xbded9b3a	-0.11601873
193	0xbdb43d43	-0.08800747
194	0xbdd1b6b9	-0.1023993
195	0xbd86cd53	-0.06582131
196	0xbd9a696e	-0.0753964
197	0xba8adc06	-0.0010594137
198	0xbdb820d7	-0.08990639
199	0xbe3915f4	-0.1807478
200	0x3cdca9d5	0.026936451
201	0xbdb45209	-0.088047095
202	0xbd333639	-0.043752883
203	0xbe2a8e24	-0.16655785
204	0x3d953da7	0.0728715
205	0xbd20401d	-0.039123643
206	0xbd03566c	-0.03206484
207	0x3d932dd0	0.071864724
208	0xbe2bf49e	-0.16792533
209	0xbdd7d7a1	-0.10539175
210	0xbdcc37ad	-0.09971557
211	0xbce59128	-0.028023317
212	0xbe354692	-0.17702702
213	0x3d0d0e2d	0.034437347
214	0x3c9eb4d5	0.019373337
215	0xbd656282	-0.056002147
216	0x3d669092	0.056290217
217	0xbd916f52	-0.07101311
218	0xbdae7164	-0.08517721
219	0xbd849c1e	-0.064750895
220	0xbce6bbc4	-0.028165706
221	0xbd4b8962	-0.049691565
222	0xbd5b5e39	-0.053556655
223	0xbe221e44	-0.15831858
224	0xbc696423	-0.014245066
225	0xbe1431ac	-0.14472073
226	0xbdb814b4	-0.08988324
227	0xbcd8b8a8	-0.026455238
228	0xbda6792a	-0.08128579
229	0xbe24463e	-0.1604242
230	0x3da13e51	0.07873214
231	0xbd90154c	-0.07035312
232	0xbcd5a7b8	-0.026080951
233	0xbca850e8	-0.020546392
234	0xbdce063e	-0.10059784
235	0xbc746cc0	-0.014918506
236	0xbd06b90b	-0.032891314
237	0xbd0f5bbe	-0.0349996
238	0xbe333492	-0.17500523
239	0x3cd3ae74	0.025840022
240	0xbdef22bd	-0.11676548
241	0xbe170a26	-0.14749965
242	0x3c9bba43	0.019009715
243	0xbde897b6	-0.113570616
244	0xbc328a16	-0.01089718
245	0xbdebe810	-0.11518872
246	0xbd4c1772	-0.049827047
247	0x3d9f4ded	0.07778535
248	0xbd3c025b	-0.045900684
249	0xbe1a5115	-0.15069993
250	0xbde85922	-0.11345126
251	0xbe05a427	-0.130509
252	0xbc3cb730	-0.011518285
253	0xbcd6dbea	-0.02622791
254	0xbe26adaf	-0.16277193
255	0xbde2d3f4	-0.11075583

lin2.bias f4 [64]
0	0xbf660b98	-0.8986144
1	0xbec45278	-0.3834417
2	0xbe5fa6d7	-0.21840988
3	0x3ec2b177	0.3802602
4	0x3f851db6	1.0399692
5	0x3fa83ea0	1.3144112
6	0xc06fdfea	-3.7480416
7	0x4046e7df	3.1079023
8	0x3faa6ff0	1.3315411
9	0xbf7f0036	-0.99609697
10	0xbe905f45	-0.28197685
11	0xbec45c15	-0.38351503
12	0xbeb09a6a	-0.3449281
13	0xbf5adf12	-0.8549663
14	0xbfbd87dd	-1.4807087
15	0xc04f5c7b	-3.2400196
16	0xc0af2d90	-5.474312
17	0xbe74fe76	-0.23925194
18	0xbe1a7d0c	-0.15086764
19	0x3f8d2a8d	1.102861
20	0xbfacd4b0	-1.3502407
21	0xbdd13ed0	-0.10217059
22	0x3f984439	1.189582
23	0xbde82e62	-0.11336972
24	0x3f07877a	0.52941096
25	0xbed21fd4	-0.41039908
26	0xbe87c33e	-0.26516145
27	0x3f43b5d0	0.764493
28	0x406dc6c5	3.715257
29	0x3f50f3ee	0.8162221
30	0xbe879153	-0.2647806
31	0xbffe8b9e	-1.9886358
32	0x4038e9f0	2.8892784
33	0x3fb5e2e9	1.4209872
34	0xbfe2e647	-1.7726525
35	0x3f9b6422	1.2139933
36	0x3e7f35d0	0.24922872
37	0xbee1ac31	-0.44076684
38	0xc0156a11	-2.3345988
39	0xbe8be057	-0.27319595
40	0x4020ed17	2.5144708
41	0xbeb010ac	-0.3438772
42	0x3e8956dc	0.2682408
43	0x4051482b	3.2700298
44	0xbe576c7c	-0.21037477
45	0x3fcba0d0	1.5908451
46	0x3f1ebca8	0.62006617
47	0xbf2f5298	-0.68485403
48	0x3edcc128	0.43116117
49	0xbf0ff420	-0.5623188
50	0x3ecf1c72	0.4045139
51	0xbeb56669	-0.35429695
52	0x3f81e7ce	1.0148866
53	0xc0079bda	-2.1188874
54	0x3fe90af6	1.820647
55	0x3cb62133	0.022232627
56	0x401d0987	2.4537065
57	0x3e2869ae	0.16446564
58	0xbe99801a	-0.29980546
59	0xbec0526d	-0.37562886
60	0x3eae89e6	0.34089583
61	0xbfb7dcb0	-1.4364223
62	0x3d8f5214	0.06998077
63	0xbe929f4a	-0.28637153

lin3.weight f4 [32, 64]
0	0x3fb54361	1.4161187
1	0xbde1e610	-0.11030209
2	0x3c989180	0.018624067
3	0x3caed54b	0.02134194
4	0xbf745464	-0.9544127
5	0x3fd64195	1.6738764
6	0xbe2f9b56	-0.171491
7	0x3ef9318c	0.48670614
8	0xbfe77658	-1.8082991
9	0xc016ae0d	-2.3543732
10	0xbd540290	-0.051760256
11	0x3e28864f	0.16457485
12	0xbd0e0186	-0.03466942
13	0xbfb4a082	-1.4111483
14	0x3f26a968	0.65102243
15	0x3f4325ea	0.7622973
16	0x3e48dac3	0.19614701
17	0x3cb1d4a4	0.02170784
18	0xbd933cf6	-0.07189362
19	0x3f7f041c	0.99615645
20	0xc01a63ce	-2.4123416
21	0xbddacd0a	-0.10683639
22	0x3fb6bac5	1.4275748
23	0xbc820c08	-0.015874878
24	0x40027c69	2.0388434
25	0x3d1c0de0	0.03809917
26	0xbe312420	-0.17298937
27	0xbea0a5ad	-0.313764
28	0xbfbd2582	-1.4777071
29	0xbe2a0280	-0.16602516
30	0xbc535dd0	-0.012900785
31	0xbecd23c0	-0.40066338
32	0x3e825363	0.25454244
33	0xc05648a3	-3.3481834
34	0xbe0826a6	-0.13295993
35	0xbf758608	-0.9590764
36	0x3fd33356	1.6500041
37	0xbff8b3ae	-1.9429834
38	0x3fbab83d	1.4587475
39	0xbe409ad6	-0.18809065
40	0xbf6da9e4	-0.9283736
41	0x3ddbb95f	0.10728716
42	0xc01226d2	-2.2836194
43	0x3f8e7504	1.112946
44	0xbe44b0bc	-0.19208044
45	0xbf035e16	-0.5131544
46	0x3f5621da	0.83645403
47	0x3fad75d4	1.3551583
48	0x3fdd143e	1.7271802
49	0x3f6124a7	0.8794655
50	0x3e6323c3	0.22181611
51	0xbdb5c3d2	-0.088752404
52	0x3800a700	3.067311e-05
53	0xc0493f8c	-3.1445036
54	0xbee63014	-0.44958556
55	0xc034c3d4	-2.8244524
56	0xbfa1605c	-1.2607532
57	0x3f84c1d8	1.0371656
58	0xbd098494	-0.033573702
59	0x3f5883ec	0.84576297
60	0x3f278414	0.6543591
61	0xbfda1572	-1.7037795
62	0x3f12238d	0.57085496
63	0xbe3c5747	-0.18392669
64	0xbed219ac	-0.4103521
65	0x3d60cb7c	0.054881558
66	0x3d245a14	0.040124968
67	0x3fda2b7a	1.7044518
68	0x3f38786b	0.72058743
69	0x3ff887bf	1.9416426
70	0x3f11c28f	0.569375
71	0x3f5a6210	0.8530588
72	0xc0958995	-4.6730447
73	0x3f7b782b	0.98230237
74	0x3be51160	0.0069905967
75	0x3d05df39	0.032683585
76	0x3e19095a	0.14944974
77	0xbe37bc8a	-0.17943016
78	0xbf69fe44	-0.91403604
79	0xc0a71b77	-5.2221026
80	0xc055f9d4	-3.3433733
81	0xbc82fcbc	-0.015989654
82	0xbd37dc59	-0.044887874
83	0xc061899d	-3.5240242
84	0xbf846f48	-1.034646
85	0xbdc3a175	-0.0955228
86	0xbfb0b256	-1.3804424
87	0x3d6ce4e8	0.05783549
88	0xc01fbb89	-2.4958212
89	0xbe7a84ae	-0.24464676
90	0x3e576a74	0.21036702
91	0xbf1f9c77	-0.6234812
92	0x3fcacdd4	1.5844064
93	0xbf2af83e	-0.6678504
94	0xbdf3573c	-0.11881873
95	0xbed2e130	-0.4118743
96	0xbf157624	-0.58383393
97	0xc05c41a5	-3.4415066
98	0xbef68cba	-0.4815424
99	0x3f75ffdc	0.96093535
100	0x3ec55394	0.38540328
101	0xbf4145d2	-0.7549716
102	0xbf5dc6b2	-0.8663131
103	0x3d49e710	0.049292624
104	0xbf14ac44	-0.58075356
105	0x3d88686a	0.066605404
106	0xbe8049af	-0.25056216
107	0x3e992075	0.29907575
108	0xbdc8a252	-0.09796585
109	0x3eac7c43	0.33688554
110	0xbe31f7fa	-0.17379752
111	0xbe4508a6	-0.1924158
112	0x3e16f55e	0.14742038
113	0xbf6773e9	-0.9041124
114	0xbf043fd5	-0.516599
115	0xbe52a692	-0.20571354
116	0xbfe6cebe	-1.8031843
117	0xbd45866f	-0.04822391
118	0x3fc1b0b7	1.5132054
119	0x3ec6467a	0.38725644
120	0x3f17e9ae	0.5934094
121	0xbfed3baf	-1.8533839
122	0xbdc910c1	-0.09817649
123	0xc009ae92	-2.15128
124	0xbdde0bb2	-0.108420745
125	0xc02fb3a6	-2.7453399
126	0xbf8d7577	-1.1051472
127	0x3e117c46	0.14207563
128	0xbeeae473	-0.45877418
129	0xbd01bb90	-0.031673014
130	0x3c84d3c8	0.016214266
131	0xbfc94b36	-1.5726078
132	0xbfc3bf83	-1.529282
133	0xbb1d8eb0	-0.0024041347
134	0xc0019e28	-2.025278
135	0x3f2d43bd	0.67681485
136	0x3e8a9dc6	0.27073497
137	0xbf2bf649	-0.67172676
138	0xbcba2e20	-0.022727072
139	0x3d1a77d8	0.03771195
140	0xbdef1172	-0.11673249
141	0xc00d0c83	-2.2038887
142	0x3d6e7d54	0.05822499
143	0xbf104a28	-0.56363153
144	0xc015c6fc	-2.34027
145	0xbc755968	-0.014974929
146	0x3cf4b568	0.029871657
147	0x3f5a0e67	0.85178226
148	0xc00a3719	-2.159613
149	0xbdd62ebe	-0.10458134
150	0xbdf32e40	-0.11874056
151	0xbd7e2ff0	-0.062057436
152	0xbf5b544e	-0.85675514
153	0x3da1e591	0.079051144
154	0x3d2d4104	0.04229833
155	0xbfe7ebbd	-1.8118817
156	0x3ede3748	0.4340155
157	0xbf965267	-1.1743897
158	0x3ce59110	0.028023273
159	0xbfb6353d	-1.4234997
160	0x3f68980c	0.90857005
161	0x3fb02511	1.3761312
162	0x3ff114dd	1.8834492
163	0xbfe12a26	-1.7590988
164	0xbf3ab077	-0.72925514
165	0xbea601c6	-0.32423228
166	0x3f664672	0.8995124
167	0xbdd4cecc	-0.10391006
168	0xc02cca3c	-2.6998434
169	0xbddc9db6	-0.107722685
170	0xbf9f8d4d	-1.2464997
171	0x3f23a651	0.63925654
172	0xbcfee79c	-0.0311163
173	0x3fe1f0ee	1.7651651
174	0xbeb1554b	-0.34635386
175	0xbfb0b037	-1.3803777
176	0xbe3a5f67	-0.18200456
177	0x3ee75ba2	0.45187098
178	0x3fa4961e	1.2858312
179	0xbd08df58	-0.033416122
180	0xc0036d0e	-2.0535312
181	0xbf80efca	-1.0073178
182	0xbebe9f20	-0.37230778
183	0xbf52f441	-0.8240395
184	0x3f89103b	1.0708078
185	0x3eae10f0	0.33997297
186	0xbde0c5f6	-0.10975258
187	0xbf798887	-0.9747395
188	0xbef3e66b	-0.47636732
189	0xbfc2c6e5	-1.5216948
190	0xbfc97db6	-1.5741489
191	0x3daac40e	0.08338176
192	0x3e612c0e	0.21989462
193	0xbca9ad0e	-0.020712402
194	0xbe11dcb8	-0.14244354
195	0xbe9ea918	-0.30988383
196	0x3f515c16	0.81781137
197	0x4016cfc5	2.3564312
198	0xc009a95f	-2.1509626
199	0xbfc1f8c8	-1.5154047
200	0xbee1cf4f	-0.44103476
201	0x3eca89b9	0.395582
202	0x3e18702b	0.14886539
203	0xbb0ec080	-0.002178222
204	0xbe4666e2	-0.19375184
205	0x3ec3ac05	0.38217178
206	0xbf48b141	-0.7839547
207	0xbfa87f5d	-1.3163868
208	0xbd27f7d2	-0.041007824
209	0xbd24a0a6	-0.04019227
210	0xbddd5c36	-0.108086035
211	0xbf98d878	-1.1941061
212	0xc032f9e9	-2.7965033
213	0x3caa1778	0.020763144
214	0x3e96afa8	0.2943089
215	0x3aad6700	0.0013229549
216	0xc0157864	-2.335473
217	0x3e0ef14a	0.13959232
218	0x3c544048	0.012954779
219	0x3f45b71e	0.7723254
220	0xbf4885f2	-0.78329384
221	0x3ec1d1fc	0.37855518
222	0xbdb5e4de	-0.088815436
223	0xbef2b7c6	-0.47405833
224	0x3f8e382a	1.111089
225	0xc03bf198	-2.9366207
226	0x3f6a4b5c	0.9152124
227	0x3e777f97	0.24169765
228	0x3e684103	0.2268105
229	0x3f9cff67	1.2265443
230	0x3fd0044f	1.6251315
231	0xbe48ccc6	-0.19609365
232	0xc0810680	-4.0320435
233	0xbd582aca	-0.05277518
234	0xbec675a6	-0.38761634
235	0x4020adcf	2.5106084
236	0xbe68b4e6	-0.22725257
237	0xbe28f210	-0.1649859
238	0x3dee9d44	0.1165109
239	0xbf769b0d	-0.9633034
240	0xbed1c9ea	-0.4097436
241	0x3fc73fbd	1.5566326
242	0x3f2eb9d5	0.6825231
243	0xbcc5113c	-0.02405607
244	0xbfd43531	-1.6578733
245	0xbf81baf3	-1.0135177
246	0x4049c283	3.152497
247	0x3f30fa24	0.69131684
248	0x3fd278a6	1.6443069
249	0xbf71196f	-0.94179434
250	0xbe1ff9db	-0.15622656
251	0x3f6bd7ff	0.9212646
252	0xbe96df85	-0.29467407
253	0xbfaa3677	-1.3297871
254	0xbfba3bf5	-1.4549547
255	0x3de7662c	0.112987846

lin3.bias f4 [32]
0	0xbfe7ac9d	-1.8099552
1	0xbfc51524	-1.5397077
2	0xc02a47b6	-2.660627
3	0x4070fde5	3.7654965
4	0x3fc86102	1.5654604
5	0xbe40de8d	-0.18834896
6	0x40262791	2.596165
7	0xbf10db38	-0.565845
8	0x403e77cb	2.9760616
9	0x4033f790	2.811985
10	0x408004d4	4.0005894
11	0x402c7caf	2.69511
12	0xbee8aa16	-0.45442265
13	0xbf8840b5	-1.0644747
14	0xc00f0771	-2.2348292
15	0x3fb9fbbc	1.4529948
16	0x4018fd75	2.3904698
17	0x4000c7b9	2.01219
18	0xbfe2bff1	-1.7714826
19	0x40622e94	3.534093
20	0xc09e0151	-4.9376607
21	0xbd877f7e	-0.06616114
22	0x3f1509de	0.5821818
23	0x402e0acd	2.7194092
24	0x40867012	4.2011805
25	0x40462cb6	3.096479
26	0x3ffa2c49	1.9544765
27	0x3f4f2f2f	0.8093137
28	0x4048a334	3.1349611
29	0xc09406b8	-4.62582
30	0x401a97c3	2.4155128
31	0x400931a7	2.1436555

lin4.weight f4 [16, 32]
0	0x3e8a2fb8	0.26989532
1	0xbebe7ddd	-0.372054
2	0x3f84ba53	1.0369362
3	0x3fc5b4e2	1.5445826
4	0xbe4f1804	-0.20224005
5	0xbf47a3ff	-0.77984613
6	0x3ee9956e	0.45621818
7	0x3d9c6245	0.07635931
8	0xbd4cb0bd	-0.04997324
9	0x3b9b05d0	0.0047309175
10	0x3f8e1da8	1.11028
11	0x3ee2cb9c	0.44295967
12	0xbd8aa1d2	-0.06769146
13	0x3e0efad6	0.13962874
14	0x3f55a779	0.8345867
15	0x3f8c48b7	1.0959691
16	0x3f0e1e5c	0.55515075
17	0xbf84084e	-1.0315034
18	0x3d9611e1	0.07327629
19	0x3d649de6	0.055814646
20	0xbe94a2cc	-0.29030454
21	0x3fd3d154	1.6548257
22	0xbea82287	-0.32838842
23	0x3ecfd3b6	0.4059121
24	0xbe971c8b	-0.29513964
25	0x3ed5bba2	0.41744715
26	0xbfad5ade	-1.3543355
27	0xbf01db8d	-0.5072563
28	0x3ebcf222	0.36903483
29	0xbe9b8309	-0.3037341
30	0xbeda837c	-0.4267844
31	0xbe8569c2	-0.2605725
32	0x3d81fa8b	0.063466154
33	0x3e796e2f	0.24358438
34	0x3f1fa1e2	0.6235639
35	0x3f910cb1	1.1331998
36	0xbf596eea	-0.84934866
37	0x3fc8c1c8	1.5684137
38	0x40150497	2.3284051
39	0xbf529805	-0.82263213
40	0xbca1a3e1	-0.019731464
41	0xc02e08f2	-2.719296
42	0x3e85d472	0.26138645
43	0xbf187e13	-0.59567374
44	0x3d9664ec	0.07343468
45	0xbe46c1df	-0.19409893
46	0x3ff5c4d7	1.9200696
47	0x3ccd1f86	0.025039446
48	0xbfd18d0f	-1.6371173
49	0x3df0a146	0.117495105
50	0x3f66fdb2	0.9023086
51	0xbe1a48d6	-0.15066847
52	0xbe861f99	-0.26195982
53	0x3ca7e1c6	0.0204934
54	0x3e0fcfc7	0.14044105
55	0xbfd97369	-1.6988345
56	0x3fb5c02e	1.4199274
57	0xbefaf598	-0.49015498
58	0xbf4a292b	-0.7896907
59	0x402c5c7b	2.6931446
60	0xbe337381	-0.1752453
61	0xbf996798	-1.1984739
62	0x3fbcd89f	1.4753608
63	0xbec3d68e	-0.3824963
64	0xbf20a861	-0.62756926
65	0x3e046706	0.12929925
66	0xbf88cd1b	-1.0687593
67	0x3e6f21b6	0.23352703
68	0x3c96d058	0.018409893
69	0x3edd6ed9	0.43248633
70	0x3f1f8a90	0.62320805
71	0x3e0e6f4c	0.13909644
72	0x3b88221a	0.004154456
73	0x3f0c228c	0.54740214
74	0x3d82e22b	0.06390794
75	0x3c2e479d	0.010637191
76	0xbdf66230	-0.120304465
77	0xbcf804dd	-0.030275756
78	0x3eaedd28	0.34153104
79	0x3eb5150a	0.35367614
80	0x3f8461a0	1.0342293
81	0xbfa5b509	-1.2945873
82	0xc01f456e	-2.4886127
83	0x3ce1212b	0.027481636
84	0xc000537a	-2.005095
85	0xc0011a8f	-2.017246
86	0x3f28eda4	0.6598761
87	0x3e9cba55	0.3061091
88	0x3fadd2c2	1.3579943
89	0x3db84a1e	0.08998512
90	0x3f4f6010	0.81005955
91	0xc0051a23	-2.0797203
92	0xbe9b59d2	-0.30341965
93	0xbebc339a	-0.3675812
94	0xbf586bda	-0.8453957
95	0xbe71c35a	-0.23609677
96	0xbf31e4da	-0.69489825
97	0x3e25c94c	0.1619007
98	0xc03dbc9f	-2.9646375
99	0xbf00ac7b	-0.50263184
100	0x3f407d6d	0.75191385
101	0x3f99d95e	1.201946
102	0xc03cb3a7	-2.948465
103	0xbf20f6d4	-0.6287663
104	0xbe1ae2bc	-0.15125555
105	0x3f1fd49e	0.62433803
106	0x3f836521	1.0265237
107	0xbf7131bd	-0.9421652
108	0xbcf436c8	-0.029811278
109	0xbdb7c0b0	-0.08972299
110	0x408206b8	4.06332
111	0xbcfd52ce	-0.030923273
112	0xbe60ef4e	-0.21966287
113	0x3fe73034	1.8061585
114	0x3f564354	0.83696485
115	0xbdc11456	-0.09427707
116	0x3f1b07c9	0.60558754
117	0xbff22ea9	-1.892049
118	0x3fb76dc6	1.4330375
119	0xbf0df05e	-0.55444896
120	0x3fc9fe47	1.5780724
121	0x3f145117	0.57936233
122	0xbe8830b6	-0.26599663
123	0xbf8d1a01	-1.1023561
124	0x3fcf2f25	1.6186262
125	0xbf963df4	-1.1737657
126	0x3ede6e1a	0.43443376
127	0x3dd70ba6	0.10500269
128	0xbe7c2ed4	-0.24627239
129	0xbed07266	-0.4071228
130	0x3fe28db6	1.7699497
131	0x3f522716	0.8209089
132	0xbf58d6b6	-0.8470262
133	0x3d8edb80	0.0697546
134	0x3f5d1c7e	0.863716
135	0xbf520a5d	-0.82047063
136	0xbf11e84b	-0.56995076
137	0x3da692a9	0.08133442
138	0x3f42be72	0.76071846
139	0x3ee8ff43	0.4550725
140	0xbe05c870	-0.13064742
141	0x3e2f8fb8	0.17144668
142	0xbfc4cf38	-1.5375738
143	0xbf288eb7	-0.65842766
144	0x3e9dd66b	0.3082765
145	0x3fde1b00	1.735199
146	0xbf35b8d5	-0.70985156
147	0xbfdc28b7	-1.7199925
148	0x3e428dce	0.18999407
149	0x3e83bd0f	0.25730178
150	0x3f3f32fe	0.7468718
151	0xbf9700c4	-1.1797109
152	0x3febe3dc	1.8428912
153	0xbe494492	-0.19655064
154	0x3f64989c	0.89295363
155	0x3fdb9f39	1.7157966
156	0x3fb3e86a	1.4055302
157	0xc07961bf	-3.896591
158	0x3eb0c618	0.34526134
159	0x3ca57332	0.020196531
160	0xbfb6d8ea	-1.4284947
161	0x3dd9d242	0.106358066
162	0xbf96e396	-1.1788204
163	0x3ee7448e	0.4516949
164	0x3f3348b6	0.70032823
165	0x3f61a2e5	0.8813918
166	0x3de11c42	0.10991718
167	0x3f852fe1	1.0405236
168	0xbc9be4ca	-0.019029994
169	0x3f542d08	0.8288121
170	0xbf1a6dad	-0.603236
171	0x3f3fecf2	0.74970925
172	0x3e34d04a	0.17657581
173	0xbe6086f5	-0.21926482
174	0xbfbfa89b	-1.4973329
175	0x401d17e6	2.4545836
176	0xbe9b6f10	-0.3035817
177	0xbf36648b	-0.71247166
178	0xc053f06c	-3.3115492
179	0x3d5b24b0	0.053501785
180	0xbf0a5108	-0.54029894
181	0x3f765055	0.96216327
182	0xbfc7c575	-1.5607134
183	0x3fd5adb7	1.6693639
184	0xbf1c0cf3	-0.6095726
185	0xc002c24b	-2.0431087
186	0xbfd0bd1f	-1.6307715
187	0x3fc338aa	1.5251667
188	0x3f0c0d90	0.54708195
189	0xbfc7ea98	-1.5618467
190	0xbf80ebdb	-1.0071977
191	0x3e805e61	0.25072005
192	0x3f5be14b	0.85890645
193	0x3e1d9292	0.15387943
194	0xbf3b099e	-0.7306155
195	0x40097743	2.1479042
196	0x3e8c31ef	0.27381846
197	0x3fdb0dac	1.7113547
198	0x3fd97a32	1.6990416
199	0x3fd5c2ce	1.6700075
200	0x3e40b7cc	0.18820113
201	0x3fd0cdde	1.6312826
202	0x3ff6248a	1.9229901
203	0x3fef4316	1.8692348
204	0xbe0c3980	-0.1369381
205	0xbd3b34f2	-0.04570479
206	0x3f0436ba	0.51646006
207	0xbf4f722c	-0.8103359
208	0x3f4530ce	0.77027595
209	0xbdbf2984	-0.0933409
210	0xbed8124e	-0.42201465
211	0x3e072da2	0.13201001
212	0xbf972a72	-1.1809828
213	0xbe346c2e	-0.17619392
214	0x402d3b96	2.7067618
215	0x3f14a939	0.58070713
216	0x400638f3	2.097226
217	0x3f7e9d1b	0.99458474
218	0x3eb92127	0.36158106
219	0x3e492f09	0.19646849
220	0x4037d7a3	2.8725364
221	0xbf3f0bcc	-0.74627376
222	0x3f44d4d8	0.76887274
223	0x3f4c27e6	0.7974838
224	0x3f44cc44	0.76874185
225	0x3d94ca6e	0.07265173
226	0xbfed47bc	-1.8537517
227	0x3e398cdc	0.1812014
228	0x3f134ff3	0.5754387
229	0x3f31c0d3	0.6943485
230	0xbe821aec	-0.25411165
231	0x40151d40	2.3299103
232	0xbfc9f6ab	-1.5778402
233	0xbe1f9e67	-0.1558777
234	0x3f64c0fc	0.8935697
235	0xbe94fa46	-0.29097193
236	0x3cfde040	0.03099072
237	0xbe293ef9	-0.16527928
238	0x3f40199e	0.7503909
239	0x3f8525f8	1.0402212
240	0x3f61d0ff	0.8820953
241	0xc05041e7	-3.2540224
242	0x3e0b31cf	0.13593219
243	0x3cab9660	0.020945728
244	0xbf929f62	-1.145489
245	0xbf02a90e	-0.51039207
246	0xbeef5838	-0.46746993
247	0x3f682043	0.9067423
248	0x3fb011ba	1.375541
249	0xbfa031b3	-1.2515167
250	0xbf87aeed	-1.0600258
251	0x3e82b9fa	0.25532514
252	0x3f3bf57b	0.7342145
253	0xbe0e9d54	-0.13927203
254	0x4020de96	2.5135856
255	0xbed56685	-0.4167978

lin4.bias f4 [16]
0	0xbf7a76f2	-0.97837746
1	0xbfe4b9b7	-1.7869176
2	0xc071a0aa	-3.7754312
3	0xbf904458	-1.1270857
4	0xc0487342	-3.1320348
5	0x3f47c92f	0.78041357
6	0x4083d997	4.1203113
7	0xc08b42e2	-4.3519144
8	0xc0b7a142	-5.738435
9	0xc0565947	-3.349199
10	0xc0108903	-2.2583625
11	0xc09af7c3	-4.8427444
12	0xc02cddde	-2.7010417
13	0xc0e10213	-7.031503
14	0xbe36d49d	-0.17854543
15	0xbde48a58	-0.111591995
