output/models/fcnn_with_constraints_model.pth (torch, 188455 bytes, 12 tensors)

lin1.weight f4 [256, 7]
0	0x3e6ded33	0.23235016
1	0x3e4bda31	0.19907452
2	0x3e366b4e	0.17814371
3	0xbd14f5b6	-0.03636714
4	0x3dc7c973	0.0975522
5	0xbee33ade	-0.4438085
6	0xbeb88d26	-0.36045188
7	0xbe29df7b	-0.16589157
8	0x3d9ccffd	0.07656858
9	0xbe81d863	-0.25360402
10	0xbe8b9ca5	-0.27267948
11	0x3daaf55d	0.083475806
12	0xbc7f07de	-0.0155658405
13	0x3d1f74cf	0.038929757
14	0xbddc4afc	-0.1075649
15	0xbeba06de	-0.36333364
16	0x3da70e75	0.08157054
17	0x3c0f5b40	0.008749783
18	0xbe676d5a	-0.22600308
19	0xbdab0c70	-0.08351982
20	0xbec99a69	-0.39375618
21	0x3c8474af	0.01616892
22	0x3dc08554	0.0940043
23	0x3cd28f32	0.025703046
24	0x3e1e14f8	0.15437686
25	0xbf076dde	-0.5290202
26	0x3a4c8400	0.0007801652
27	0x3d8111ea	0.06302245
28	0x3d0c3300	0.034228325
29	0xbf0ebbc6	-0.5575527
30	0xbd2e65d2	-0.042577572
31	0xbed4f15c	-0.41590393
32	0xbde8a438	-0.11359447
33	0x3c4d3718	0.012525342
34	0xbf03f992	-0.5155269
35	0xbe522dee	-0.20525333
36	0x3e356a1a	0.17716256
37	0xbd2696ad	-0.04067104
38	0xbe0fab6b	-0.14030235
39	0x3dc75bb2	0.09734286
40	0xbe76ce74	-0.24102193
41	0xbd9d8bdf	-0.07692694
42	0xbde883f0	-0.1135329
43	0x3d8aee80	0.067837715
44	0xbd83a27a	-0.06427474
45	0xba660380	-0.0008774325
46	0xbe9425a2	-0.28934962
47	0xbdb4391a	-0.08799954
48	0x3e264554	0.16237384
49	0x3e3c3f9d	0.18383642
50	0xbe2e8a0d	-0.1704485
51	0xbdf62b93	-0.1202003
52	0xbeab186d	-0.33417073
53	0x3c585b4a	0.013205359
54	0xbe007fcb	-0.12548749
55	0xbd93bf60	-0.07214236
56	0xbdf00016	-0.117187664
57	0x3e9fde2a	0.31224185
58	0xbe9a740a	-0.30166656
59	0xbb95ba22	-0.004569308
60	0xbdc95ad1	-0.09831775
61	0xbe9db5bf	-0.30802724
62	0xbe2c93e0	-0.16853285
63	0xbf833136	-1.0249393
64	0xbfcedd6d	-1.6161324
65	0x3e2fbf8c	0.17162913
66	0xbfa798f3	-1.3093551
67	0x4081e68f	4.0593944
68	0xbbecbe44	-0.00722483
69	0x3ee5678d	0.44805565
70	0x40312116	2.7676444
71	0x3f27d6ee	0.6556233
72	0x3f2ecf16	0.6828474
73	0x3e0eeb25	0.13956888
74	0xc005a81c	-2.0883856
75	0x3f210098	0.6289153
76	0xc02120de	-2.517631
77	0x3e67c0b2	0.22632101
78	0x3c3cf5e8	0.011533238
79	0x3ddf5cb0	0.109063506
80	0xbebf29c2	-0.37336546
81	0xbf093b2a	-0.536059
82	0xbe4a52ee	-0.19758198
83	0x3e31ff2a	0.17382494
84	0x3e209556	0.15681967
85	0xbdeb701c	-0.114959925
86	0x3e80db4f	0.2516732
87	0xbdd03f48	-0.1016832
88	0xbe85f102	-0.26160437
89	0xbde54531	-0.11194838
90	0xbe259031	-0.16168286
91	0xbe0ba5fe	-0.1363754
92	0xbeba7b0d	-0.36422005
93	0x3eaec0d8	0.34131503
94	0xbed82449	-0.42215183
95	0x3dd38d3c	0.10329673
96	0xbe5e9632	-0.21736982
97	0x3e2454cc	0.16047972
98	0x3c919f34	0.01777611
99	0xbe8b7c22	-0.27243143
100	0x3dbb25d5	0.09138075
101	0x3e06d365	0.13166578
102	0xbe93ca37	-0.28865215
103	0xbe20e364	-0.15711743
104	0xbda4af81	-0.08041287
105	0x3e9cbe64	0.30614007
106	0x3ea6cb1a	0.3257683
107	0xbda818b8	-0.0820784
108	0xbea6b5e8	-0.32560658
109	0xbea449e1	-0.32087615
110	0xbea49566	-0.32145232
111	0xbdcd31e1	-0.10019279
112	0x3f22362b	0.63363904
113	0x3f2c76de	0.67368877
114	0xbfe225bb	-1.7667764
115	0x3e8cb902	0.274849
116	0x3f136904	0.57582116
117	0xbf9f3005	-1.2436529
118	0xbf839dfa	-1.0282586
119	0xbe36a27d	-0.17835422
120	0x3e3438cd	0.17599793
121	0x3c9c674a	0.01909222
122	0x3e37c09b	0.17944567
123	0xbe7a39f3	-0.24436168
124	0xbe5fbad8	-0.21848619
125	0xbd8a6f52	-0.06759514
126	0xbe23a7d0	-0.15981984
127	0x3e88d16a	0.2672227
128	0xbc364840	-0.011125624
129	0xbea17d3a	-0.31540853
130	0xbd3856d6	-0.04500469
131	0xbe89b0ae	-0.26892608
132	0x3e6429c8	0.22281563
133	0x3e0faf24	0.14031655
134	0x3d9edc55	0.07756869
135	0x3e6200b4	0.2207058
136	0xbd58e762	-0.05295504
137	0xbec784e8	-0.38968587
138	0xbd595dd1	-0.053067986
139	0xbde3255f	-0.11091112
140	0x3e24f907	0.16110621
141	0x3e1a70f6	0.15082154
142	0x3e5880e6	0.21142921
143	0xbecfadae	-0.40562195
144	0x3e31fd52	0.1738179
145	0xbead9943	-0.33905992
146	0x3dd46d65	0.10372428
147	0xbe67ec1c	-0.22648662
148	0xbe80bf6c	-0.25146043
149	0xbe3a3ad2	-0.181865
150	0x3e38bcc0	0.18040752
151	0x3eacd124	0.33753312
152	0xbea500bb	-0.3222712
153	0xbe4c58dc	-0.19955772
154	0x3e788ebc	0.24273199
155	0xbe36f661	-0.17867424
156	0xbd275cc8	-0.040859967
157	0x3eb0ada6	0.34507483
158	0x3d30ff58	0.043212265
159	0xbda356ae	-0.07975517
160	0xbe0b5705	-0.13607414
161	0xbe8713a2	-0.26382166
162	0x3e4db378	0.20087993
163	0xbe2e96bc	-0.17049688
164	0xbcb3b2ec	-0.021935903
165	0xbe9a317c	-0.3011588
166	0xbe1b2e54	-0.15154392
167	0x3e8a62f9	0.27028635
168	0xbe693313	-0.2277339
169	0xbec07e31	-0.37596276
170	0xbe219a68	-0.15781558
171	0xbe905e18	-0.28196788
172	0xbdf58446	-0.1198812
173	0xbea2bdcc	-0.3178543
174	0x3e3a89f0	0.18216681
175	0xbd02310c	-0.031785056
176	0xbe99c004	-0.3002931
177	0x3d14ff16	0.03637608
178	0x3ae27bc0	0.0017279312
179	0xbd601142	-0.05470396
180	0xbe473f52	-0.19457749
181	0xbe2cb0d7	-0.16864334
182	0xbec34d89	-0.38145092
183	0xbee2a9bf	-0.4427013
184	0xbf1bd85f	-0.6087703
185	0xc0a307e7	-5.0947146
186	0x3febb8a5	1.8415724
187	0xbdd06ce1	-0.10177017
188	0x3f8ab82a	1.0837452
189	0xbdf14259	-0.11780233
190	0x3d15ae83	0.03654338
191	0xbe5bda0d	-0.21469899
192	0xbeb366e3	-0.35039434
193	0xbcd6dd43	-0.026228553
194	0xbe67866d	-0.22609873
195	0xbe07fb1e	-0.13279387
196	0xbeaf1d7e	-0.34202188
197	0xbe339d50	-0.17540479
198	0x3e4328fc	0.19058603
199	0x3d7a7310	0.06114489
200	0xbeb70e30	-0.35753012
201	0xbc1acb88	-0.00944794
202	0xbf3048bf	-0.68861
203	0xbe471dee	-0.19445011
204	0xbddc3437	-0.10752147
205	0xbe9fcbdc	-0.3121022
206	0xbed6b3f1	-0.4193416
207	0x3eeba9e7	0.46028063
208	0xbe5b89ea	-0.21439329
209	0xbeaceb7a	-0.33773404
210	0xbe5cf054	-0.21576053
211	0x3d2eb557	0.042653408
212	0x3e88e32f	0.26735827
213	0xbe0b1acc	-0.13584441
214	0x3e6922d2	0.22767189
215	0xbe4ad621	-0.19808246
216	0xbe2d09b5	-0.16898234
217	0xbd29d8c9	-0.041466508
218	0xbead4ad3	-0.3384615
219	0x3d45309a	0.048142053
220	0x3dc623b0	0.096747756
221	0x3e0c2c47	0.13688765
222	0xbe6aa6d1	-0.22915198
223	0xbed7e54d	-0.4216713
224	0x3dce0ee9	0.10061438
225	0xbe871b09	-0.26387814
226	0xbe66fb72	-0.22556856
227	0xbe633c31	-0.2219093
228	0xbd4f7308	-0.05064681
229	0x3c3b5aa8	0.011435188
230	0xbdfe9fd0	-0.124328256
231	0xbe761e55	-0.24035008
232	0xbed0345c	-0.40664947
233	0xbf03ab1c	-0.5143297
234	0xbcde0a0a	-0.027104396
235	0xbe5f7983	-0.21823697
236	0xbdc1cdd6	-0.09463088
237	0x3e234e85	0.15947922
238	0xbecebf5e	-0.40380377
239	0x3dd4bc6e	0.103875026
240	0xbe12efb5	-0.14349253
241	0xbead8a3e	-0.33894533
242	0x3d1d5bba	0.038417555
243	0xbb91b8c0	-0.0044470727
244	0xbecca222	-0.39967448
245	0xbc8d4661	-0.017245473
246	0x3e8aed48	0.27134156
247	0xbe4643ae	-0.19361755
248	0xbec344e0	-0.38138485
249	0x3dcb221f	0.099186175
250	0xbebb6d37	-0.36606762
251	0x3c998ac5	0.018742928
252	0x3e872ac5	0.26399818
253	0xbe542d02	-0.20720294
254	0xbeeb2ccc	-0.45932615
255	0x3ea08e0e	0.3135838

lin1.bias f4 [256]
0	0x3e0bcbcc	0.13651961
1	0xbf0b1673	-0.5433113
2	0x3df0394a	0.11729677
3	0xbecf023c	-0.40431392
4	0xbee9d0c5	-0.4566709
5	0x3dc8ff33	0.098143004
6	0xbe558fb6	-0.20855603
7	0x3db66e48	0.08907753
8	0xbe942e07	-0.28941366
9	0x3ffdf552	1.9840491
10	0xbf9ad0b5	-1.2094942
11	0x3db51f84	0.08843902
12	0x3d3fa51f	0.04678833
13	0xbe3cee8c	-0.18450373
14	0xbc1ac058	-0.009445272
15	0xbe06ca56	-0.13163123
16	0x3f1947cb	0.5987517
17	0x3d5d62af	0.05404919
18	0xbd9481d2	-0.07251324
19	0xbdc6e054	-0.09710756
20	0xbe1757e7	-0.14779626
21	0xbda80b18	-0.08205241
22	0xbea15568	-0.31510472
23	0xbe51b532	-0.20479277
24	0x3c913fb7	0.017730577
25	0x3df0df15	0.117612995
26	0xbeb732e9	-0.3578103
27	0xbe0d430d	-0.13795109
28	0xbec9d6c6	-0.39421672
29	0x3e8c50aa	0.27405292
30	0xbdcbb5be	-0.09946774
31	0x3ded2341	0.1157899
32	0xbf0fb762	-0.56139195
33	0xbd180cfc	-0.037121758
34	0x3cbf0124	0.023315974
35	0x3de80039	0.113281675
36	0xbc6470ef	-0.013942941
37	0xbe29e969	-0.16592945
38	0xbd056185	-0.032563705
39	0xbdcf20f0	-0.10113704
40	0xbe4912cc	-0.19636077
41	0xbe4a8ef1	-0.1978109
42	0xbecdd9ce	-0.40205234
43	0x3e0e78dd	0.13913293
44	0xbd2e78b2	-0.042595573
45	0x3e402444	0.18763834
46	0xbeea39b7	-0.45747158
47	0xbe8e403b	-0.2778338
48	0xbdf360f3	-0.11883726
49	0xbe3d1b70	-0.18467498
50	0xbebfd99a	-0.37470704
51	0x3f78d8ca	0.97205794
52	0x3e78fcae	0.2431514
53	0xbe8c8a8a	-0.27449447
54	0xbe732f78	-0.23748577
55	0xbd8d8c28	-0.06911498
56	0xbea4b783	-0.32171258
57	0xbe856e82	-0.26060873
58	0x3fcf094f	1.6174716
59	0xbe2625ba	-0.16225329
60	0xbea28192	-0.3173948
61	0x3ce37058	0.02776353
62	0x3d8acba6	0.06777124
63	0xbfadebe8	-1.3587618
64	0xbcfde2b2	-0.030991886
65	0x3e4c6956	0.19962057
66	0x3e4e2ce1	0.20134307
67	0xbf00fd6a	-0.5038668
68	0xbeb0850b	-0.34476504
69	0x3e1fd40f	0.15608238
70	0x3d841d05	0.064508475
71	0x3e7178f4	0.23581296
72	0x3e5d3cb6	0.2160519
73	0xbdc939a7	-0.098254494
74	0x3d95f2db	0.07321712
75	0xbd46b3d6	-0.04851135
76	0x3ea5de38	0.32396102
77	0xbdecec5a	-0.11568518
78	0xbf0170de	-0.50562847
79	0xbeb3c420	-0.3511057
80	0xbeb0246d	-0.3440279
81	0xbe0a83a3	-0.13526778
82	0xbd6f6839	-0.058449004
83	0xbf08fb56	-0.5350851
84	0xbe447e7a	-0.19188872
85	0xbe226efa	-0.15862647
86	0xbfd9e27d	-1.7022244
87	0x3f479df1	0.77975374
88	0xbe81c05d	-0.25342074
89	0xbdc0db5c	-0.094168395
90	0xbfe70c22	-1.8050578
91	0x3e119bf0	0.14219642
92	0xbe8d3de3	-0.27586278
93	0xbdc8b00c	-0.09799203
94	0xbe550843	-0.20803933
95	0xbea3ae38	-0.31968856
96	0x3cef8d24	0.029242106
97	0xbea10103	-0.31446084
98	0x3d05c722	0.03266061
99	0x3e08d292	0.13361576
100	0xbf59ffb0	-0.85155773
101	0x3df599c3	0.11992218
102	0xbe7b1b30	-0.2452209
103	0xbf23a913	-0.6392986
104	0xbea08bba	-0.31356603
105	0x3dcd0efc	0.10012624
106	0x3e311500	0.17293167
107	0x3c7d25ca	0.015450904
108	0x3cab3235	0.020897964
109	0x401696a0	2.3529434
110	0x3f864237	1.0488957
111	0x3eb3f223	0.35145673
112	0xbe140255	-0.14454015
113	0x3d4673c8	0.04845026
114	0xbf95a86c	-1.1692023
115	0x3d471dac	0.04861228
116	0x3e49f70f	0.19723152
117	0x3e6aacd0	0.22917485
118	0xbea2db7a	-0.31808072
119	0x3e0c16ca	0.13680568
120	0xbe78121c	-0.24225658
121	0x3f519df1	0.81881624
122	0xbb337656	-0.0027383766
123	0xbf1c8ed6	-0.6115545
124	0x3f795c92	0.97406876
125	0xbe69060c	-0.22756213
126	0xbe3a8b38	-0.1821717
127	0x3e27c838	0.16384971
128	0xbeacc251	-0.33742002
129	0x3e006f58	0.12542474
130	0x3d97bb60	0.07408786
131	0xbefc95d2	-0.49333054
132	0xbd1777c6	-0.03697946
133	0xbe637039	-0.22210778
134	0xbeff1cf6	-0.49826783
135	0x3e86227f	0.26198193
136	0x3c384cce	0.01124878
137	0xbe2bef16	-0.16790423
138	0xbe3d8080	-0.1850605
139	0xbea5dce6	-0.32395095
140	0xbdb8e880	-0.09028721
141	0x3e41bc6e	0.18919536
142	0xbdea3042	-0.11434986
143	0xbdc29212	-0.09500517
144	0xbe7a01fc	-0.2441482
145	0xbe8e0fbd	-0.27746382
146	0xbfa31a4a	-1.2742398
147	0xbe80c0e4	-0.25147164
148	0xbecfd8cc	-0.4059509
149	0x3c2a379b	0.010389234
150	0xbe9554cf	-0.29166266
151	0xbe704ab6	-0.23466
152	0xbea2a00c	-0.3176273
153	0x3dc9fb22	0.09862353
154	0xbee6fa13	-0.45112666
155	0xbcd44742	-0.025912885
156	0x3e412a35	0.18863757
157	0xbe3dca20	-0.18534136
158	0x3deb76ab	0.114972435
159	0x3e126ac2	0.14298537
160	0x3e962dea	0.29331905
161	0xbdbeb893	-0.093125485
162	0xbdad359a	-0.08457489
163	0x3dd1070d	0.10206423
164	0xbeffcdb7	-0.49961635
165	0x3d8164af	0.06318032
166	0x3dd05b38	0.101736486
167	0xbc707590	-0.014676467
168	0xbe7aed0a	-0.24504486
169	0x3dce3d37	0.100702696
170	0x3e914808	0.28375268
171	0x3e920a51	0.28523496
172	0xbe1a964b	-0.15096395
173	0xbe6a9edd	-0.22912164
174	0x3e0d9069	0.1382462
175	0xbe56adbd	-0.20964713
176	0xbc7b3d68	-0.015334465
177	0xbecb0bc6	-0.3965742
178	0xbe244ee2	-0.16045716
179	0xbd3a7f40	-0.04553151
180	0x3e2abd1c	0.16673702
181	0xbf0be171	-0.5464087
182	0x3d892a1f	0.06697487
183	0xbeabf1a1	-0.33582786
184	0x3e39b33e	0.18134782
185	0x3d8b2fc7	0.06796222
186	0x3d6ac9bb	0.05732129
187	0xbcfaa5cd	-0.030596638
188	0x3e157b74	0.14597875
189	0x3c926d62	0.017874423
190	0xbed98301	-0.4248276
191	0xbd200535	-0.039067466
192	0xbeadaa9f	-0.33919236
193	0x3eade744	0.33965504
194	0xbe503afd	-0.20335002
195	0xbe15a2e0	-0.14612913
196	0xbeb9fab0	-0.36324072
197	0x3e32d443	0.17463784
198	0xbe9a1827	-0.30096552
199	0xbd0d3a8b	-0.03447966
200	0xbe34eee0	-0.17669249
201	0x3e194bc4	0.14970309
202	0xbeaa541e	-0.332673
203	0xbe99d224	-0.30043137
204	0x4014f144	2.3272257
205	0xbf1eef55	-0.6208394
206	0xbe3932ce	-0.18085787
207	0x3e13e55f	0.14442967
208	0x3e95cbf0	0.29257154
209	0x3e82e3bd	0.25564376
210	0x3dbc6455	0.09198824
211	0x3eb86746	0.3601629
212	0x3e1ce8b0	0.15323138
213	0xbe832d4e	-0.25620502
214	0x3e92f7c4	0.28704655
215	0x3ddfdae1	0.1093042
216	0xbec4bc21	-0.3842478
217	0xbe9ce2e6	-0.3064186
218	0xbc63a7c0	-0.013894975
219	0x3ce63b50	0.028104454
220	0x3da1237e	0.07868098
221	0xbe3da72a	-0.185208
222	0xbdad1273	-0.084507845
223	0x3dcf696b	0.10127529
224	0xbea5302f	-0.32263324
225	0xbe31a442	-0.17347816
226	0xbefd13db	-0.4942921
227	0xbeae74c7	-0.3407347
228	0xbd43aea0	-0.047773957
229	0xbd612856	-0.054970108
230	0xbedf2bf6	-0.43588227
231	0x3e00833a	0.12550059
232	0x3e51386a	0.20431677
233	0x3e090f66	0.1338478
234	0xbf040b2c	-0.51579547
235	0xbe470102	-0.19433978
236	0x3e6fe57c	0.23427385
237	0x3e32d74d	0.17464943
238	0xbe6a573a	-0.22884837
239	0x3dcec675	0.100964464
240	0x3d093072	0.033493467
241	0xbe82e316	-0.25563878
242	0x3d875817	0.06608599
243	0xbeb99ff9	-0.36254862
244	0x3f912f80	1.1342621
245	0xbeb7614c	-0.3581642
246	0xbe192e32	-0.14959028
247	0x3d78a693	0.060705733
248	0x3cd069b8	0.025441036
249	0x3e7f0d00	0.24907303
250	0xbe21646b	-0.15760963
251	0xbf1c3def	-0.61032003
252	0xbf0ee2cb	-0.5581481
253	0xbe4f9623	-0.20272116
254	0xbe355490	-0.1770804
255	0xbebe576c	-0.37176073

lin1c.weight f4 [128, 256]
0	0xbd6fadbe	-0.058515303
1	0x3c46cc98	0.01213374
2	0xbd2b6310	-0.04184252
3	0xbc1c91f8	-0.009556286
4	0xbd0f3e16	-0.03497132
5	0xbe6faa39	-0.23404779
6	0x3d17eb4e	0.03708964
7	0x3c631458	0.013859831
8	0x3d082aa0	0.033243775
9	0x3e67df13	0.2264369
10	0x3fe0991b	1.7546724
11	0xbe290b90	-0.16508317
12	0xbcad5c24	-0.0211621
13	0x3d3920ee	0.04519742
14	0x3cdf1e00	0.027235985
15	0x3cd7ad3c	0.026327722
16	0x3f079ee5	0.5297683
17	0xbd7a7a38	-0.061151713
18	0xbe064a94	-0.13114387
19	0x3c06ad90	0.008220091
20	0xbd76f000	-0.060287476
21	0xbdee341b	-0.11631032
22	0xbd9a54ac	-0.07535681
23	0x3dfd64cf	0.12372743
24	0xbde5a823	-0.1121371
25	0x3c697278	0.014248483
26	0xbf224cf2	-0.6339866
27	0x3ad87740	0.0016515031
28	0xbdaaf6f8	-0.08347887
29	0xbdf4bbac	-0.11949858
30	0x3c12aae0	0.008951873
31	0xbe40e034	-0.18835527
32	0x3d3415fa	0.04396627
33	0xbd568384	-0.052371517
34	0x3d9c5d80	0.07635021
35	0xbdc06ae1	-0.093953855
36	0xbe31c01d	-0.17358442
37	0x3d11e25e	0.03561627
38	0xbe038303	-0.12842946
39	0x3a1e2e00	0.0006034076
40	0xbdc6e587	-0.097117476
41	0x3c3157d0	0.010824159
42	0xbcebf588	-0.028803602
43	0x3d26d772	0.04073281
44	0x3b9e4140	0.0048295557
45	0xbd1408af	-0.036141094
46	0xbc000c4c	-0.007815432
47	0xbe2ae4dc	-0.16688865
48	0x3dabb78f	0.083846204
49	0xbd01283e	-0.03153252
50	0xbdd05f24	-0.10174397
51	0xbf41aa36	-0.75650346
52	0x3d20a36a	0.039218344
53	0xbd8904d2	-0.066903725
54	0x3d5c6e26	0.053815983
55	0x3be39350	0.0069450513
56	0x3d3809f8	0.044931382
57	0xbd2a1c0e	-0.04153066
58	0xbfd3d0ee	-1.6548135
59	0xbdec50bd	-0.11538837
60	0xbdda98d3	-0.1067368
61	0x3cb36eb0	0.021903366
62	0xbe4aabbd	-0.19792075
63	0x3dc66a0a	0.09688194
64	0x3d63371e	0.055472486
65	0xbd391bd1	-0.045192543
66	0xbdd59c1d	-0.10430167
67	0xbbdd8e82	-0.006761373
68	0x3cd575f8	0.026057228
69	0xbda19fc5	-0.07891802
70	0xbe46568a	-0.1936895
71	0xbd665df8	-0.05624196
72	0x3d6efd34	0.058346942
73	0xbdf56995	-0.11983029
74	0xbe1ee413	-0.15516691
75	0x3d4d8392	0.050174303
76	0x3d4f1e0e	0.05056577
77	0xbd515dc5	-0.051114816
78	0xbd592850	-0.05301696
79	0xbd12b2bf	-0.035814997
80	0xbd77b5aa	-0.060475983
81	0x3f8bb267	1.0913819
82	0xbdbc204b	-0.09185847
83	0x3c881d6c	0.016615592
84	0x3d1c5084	0.038162723
85	0xbb214fe0	-0.002461426
86	0xbf7572b6	-0.9587816
87	0x3fbd5360	1.4791069
88	0xbc36b6f1	-0.011152015
89	0x3e1dfe17	0.15428959
90	0x3f6e254a	0.9302565
91	0xbd666088	-0.056244403
92	0x3d701f62	0.05862368
93	0x3d65a292	0.056063242
94	0xbc00f3f8	-0.007870667
95	0x3d785842	0.060631044
96	0xbe7539f6	-0.23947892
97	0x3f10c18c	0.5654533
98	0x3cbb8944	0.022892602
99	0xbd367448	-0.04454449
100	0xbef94fda	-0.48693734
101	0x3d227869	0.039665613
102	0x3d9aea78	0.075642526
103	0x3ca8c270	0.020600528
104	0xbba6a060	-0.005085036
105	0xbc85e0a2	-0.016342465
106	0x3d72fc20	0.059322476
107	0xbc7355d8	-0.01485201
108	0xbc536e88	-0.012904771
109	0xbfa06a8a	-1.2532513
110	0xbe902ad9	-0.2815769
111	0xbeff10ee	-0.49817604
112	0x3de7574d	0.11295948
113	0xbc6205e0	-0.013795346
114	0xbf520b04	-0.8204806
115	0xbd89a3b0	-0.06720674
116	0x3c2c80e0	0.010528773
117	0xbd686754	-0.056739166
118	0xbd17b73e	-0.037039988
119	0x3d6e8925	0.05823626
120	0x3cd93544	0.026514657
121	0x3f36c999	0.71401364
122	0xbd1a3cdc	-0.037655696
123	0xbd96a48a	-0.07355602
124	0x3e5ecb60	0.21757269
125	0xbd4a3ce4	-0.049374476
126	0xbcf06868	-0.02934666
127	0x3d3fa9e0	0.046792865
128	0x3b04fc40	0.0020291954
129	0xbd871a1a	-0.06596775
130	0xbc6f0ed0	-0.014590934
131	0xbf01868a	-0.50595915
132	0xbe34eeb6	-0.17669186
133	0x3d32a78c	0.043616816
134	0xbe43b5c9	-0.19112314
135	0xbd752948	-0.059853822
136	0xbe701d1a	-0.23448601
137	0xbdae55a5	-0.08512429
138	0xbd1ea43c	-0.038730845
139	0xbc25c8b8	-0.010118656
140	0xbe4fc3e6	-0.20289573
141	0x3d6f0f3e	0.058364145
142	0xbda7b3c0	-0.081885815
143	0x3d52256e	0.051305227
144	0x3d7ca5b8	0.06168148
145	0x3c2b7348	0.010464497
146	0x3dccb047	0.0999456
147	0xbe32bfce	-0.1745598
148	0x3d4c0cb2	0.049816795
149	0x3d68c34a	0.056826867
150	0xbd255e6a	-0.040373243
151	0xbe617b32	-0.22019652
152	0xbd12dfa8	-0.035857826
153	0xbe2b1ea5	-0.16710909
154	0xbe254744	-0.16140467
155	0xbc8a84f8	-0.016909108
156	0xbd81bab2	-0.063344374
157	0xbdbab546	-0.091166064
158	0x3cbb2750	0.022845894
159	0x3c89ad3c	0.016806237
160	0xbd1e01a2	-0.038575776
161	0xbce673de	-0.028131422
162	0xbe38886a	-0.18020788
163	0x3cf5ac44	0.02998937
164	0xbd28a720	-0.041175008
165	0xbd741926	-0.059594296
166	0x3b000e00	0.0019539595
167	0x3d23e0c6	0.040009283
168	0xbc69b940	-0.014265358
169	0x3c9c3850	0.01906982
170	0xbe0d70f8	-0.13812625
171	0xbdfd6de7	-0.12374478
172	0x3d15bbe2	0.036556132
173	0x3cd5694c	0.026051186
174	0x3bb951a0	0.0056554824
175	0x3ca82450	0.020525128
176	0xbd4cdc76	-0.050014935
177	0xbe038995	-0.12845452
178	0x3d8f7e4d	0.07006512
179	0xbd4b0602	-0.049566276
180	0xbed41ded	-0.41429082
181	0xbda99089	-0.08279521
182	0xbe0faa7c	-0.14029878
183	0xbdd8e0a0	-0.10589719
184	0xbd3d8c0c	-0.046276137
185	0xbf055132	-0.5207702
186	0xbd9c798e	-0.07640372
187	0x3d40326c	0.046923086
188	0xbe041a08	-0.12900555
189	0xbdcc02e9	-0.099614926
190	0xbd2fe946	-0.042947076
191	0xbcc620d8	-0.024185583
192	0xbbdadd00	-0.0066791773
193	0x3d572b8d	0.052531768
194	0xbe09a4ce	-0.13441774
195	0xbd316278	-0.043306798
196	0xbefc644e	-0.49295276
197	0xbd67baaa	-0.0565745
198	0xbe023c42	-0.12718299
199	0xba8b44c4	-0.0010625352
200	0xbd6bfbae	-0.057613067
201	0xbbcb5950	-0.0062057152
202	0xbd6033b6	-0.054736815
203	0xbd6b6ce6	-0.0574769
204	0xbf45ff68	-0.77342844
205	0xbd2b02e1	-0.041750792
206	0xbc6397d6	-0.013891181
207	0xbe67ff80	-0.2265606
208	0x3e9da0fc	0.30786884
209	0x3cab43a8	0.020906284
210	0x3c746f00	0.014919043
211	0x3d66be88	0.05633405
212	0xbef631c0	-0.4808483
213	0x3c46f418	0.012143157
214	0xbd875073	-0.06607141
215	0xbcccea97	-0.025014205
216	0xbcdc1974	-0.026867606
217	0xbcb32e30	-0.02187261
218	0x3d63e76a	0.055640616
219	0xbdb1ff9f	-0.08691334
220	0xbca02a34	-0.019551374
221	0x3e21f3c6	0.15815648
222	0x3d533842	0.051567324
223	0x3ebc52f4	0.36782038
224	0xbac64ac0	-0.0015128478
225	0xbe5dc7dc	-0.21658272
226	0xbc176790	-0.009241
227	0x3d429c7e	0.047512524
228	0xbe03e6b8	-0.12880981
229	0x3c65ec20	0.014033347
230	0xbd8e9688	-0.06962305
231	0x3e2acfca	0.16680828
232	0x3d545216	0.051836096
233	0xbc4018a8	-0.0117246285
234	0xbc6d96ae	-0.014501257
235	0x3d934626	0.07191114
236	0x3fb0515b	1.3774828
237	0xbe8220a1	-0.2541552
238	0xbea81288	-0.32826638
239	0xbe178c1c	-0.14799541
240	0x3ce1df48	0.02757229
241	0xbd9145a5	-0.07093362
242	0xbc7002a0	-0.014649063
243	0xbdbd3d60	-0.09240222
244	0xc08a535d	-4.322676
245	0xbe21ccb0	-0.15800738
246	0xbd81c099	-0.06335563
247	0xbd3fc602	-0.046819694
248	0xbe684158	-0.22681177
249	0xbdcfc1fd	-0.10144422
250	0xbd1e72a2	-0.03868354
251	0x3e552a9e	0.20817038
252	0xbd9796c0	-0.074018
253	0x3d426f52	0.047469445
254	0xbb923110	-0.004461415
255	0xbe0a1a69	-0.13486637

lin1c.bias f4 [128]
0	0xbf0f3045	-0.5593303
1	0xbdca02ba	-0.09863801
2	0xbe0f1f3e	-0.13976762
3	0xbe441718	-0.19149435
4	0xbe8d56f9	-0.27605417
5	0x3f853cb8	1.0409155
6	0xbdc568a8	-0.09639102
7	0xbe61eb0a	-0.22062317
8	0xbe07df06	-0.1326867
9	0xbe21b606	-0.15792093
10	0x3e47c18f	0.1950743
11	0xbd3621c0	-0.04446578
12	0xbf04bbee	-0.5184926
13	0xbe15ac15	-0.14616425
14	0xbe95528a	-0.29164535
15	0x3feebf71	1.8652173
16	0xbd8a9a14	-0.06767669
17	0xbdb4658a	-0.088084295
18	0xbd8d2b16	-0.068929836
19	0xbe76bbda	-0.24095097
20	0xbe52bcc8	-0.20579827
21	0xbf73ee58	-0.9528556
22	0xbf0fe43b	-0.5620763
23	0xbe080424	-0.1328283
24	0xbbaa3cfc	-0.005195258
25	0xbe950576	-0.2910573
26	0xc008b6d2	-2.1361585
27	0xbe2566a6	-0.16152439
28	0xbd987af0	-0.074453235
29	0xbd97627e	-0.07391833
30	0x3fe1ee9e	1.7650945
31	0xbe1658b4	-0.14682275
32	0xbf1030b9	-0.56324345
33	0xbed6bbce	-0.4194016
34	0xbe3994a5	-0.1812311
35	0xbe1d3416	-0.153519
36	0xbe0e3bd4	-0.1389001
37	0xbe1be960	-0.15225744
38	0xbe11dd74	-0.14244634
39	0xbdb0df8e	-0.0863639
40	0xbeb5e394	-0.3552519
41	0xbdb223a5	-0.08698205
42	0xbe21400e	-0.15747091
43	0xbe765df6	-0.24059281
44	0xbe95ccdc	-0.29257858
45	0xbf072143	-0.5278513
46	0xbe793862	-0.24337915
47	0xbd343318	-0.04399404
48	0xbd25ae91	-0.040449683
49	0xbe975de8	-0.29563832
50	0xbee366e0	-0.44414425
51	0xbe986738	-0.2976625
52	0xbdb4a20d	-0.08819971
53	0xbe1da0f4	-0.1539343
54	0xbdb9ef4e	-0.09078847
55	0xbf19d538	-0.6009097
56	0xbea1635d	-0.3152112
57	0xbe177c9a	-0.14793625
58	0xbeb39a26	-0.35078543
59	0xbdc3e655	-0.09565417
60	0xbe006ba8	-0.12541068
61	0xbdfcfd6f	-0.12353026
62	0xbdf253fe	-0.118324265
63	0xbc34fb9c	-0.0110463165
64	0xbe740006	-0.23828134
65	0xbe58d6ac	-0.21175641
66	0xbee1bc28	-0.44088864
67	0xbed9fe3c	-0.42576778
68	0x3f5b385c	0.8563287
69	0x3f4bf53c	0.7967107
70	0xbe58c6ed	-0.21169634
71	0x3ca293b0	0.019845814
72	0x3fae3949	1.3611232
73	0x3fe02052	1.7509863
74	0xbdfe467f	-0.1241579
75	0xbe334df2	-0.17510203
76	0xbdcd0067	-0.10009842
77	0xbdcbf331	-0.099584945
78	0xbe9f393d	-0.31098357
79	0x3f8b9761	1.0905572
80	0xbe857ab4	-0.26070178
81	0xbd8ed68c	-0.06974515
82	0xbe0ee8c6	-0.13955984
83	0x3f754082	0.95801556
84	0xbe01c948	-0.12674439
85	0xbe227907	-0.15866481
86	0xbdd6935b	-0.104773246
87	0xbe92a756	-0.28643292
88	0xbe077e83	-0.13231854
89	0xbe68c1fb	-0.22730248
90	0xbdf5e224	-0.120060235
91	0xbe10700a	-0.1410524
92	0xbe25f0c0	-0.1620512
93	0xbd57f01f	-0.05271923
94	0xbe1be06a	-0.15222326
95	0xbe822b34	-0.25423586
96	0xbe38d6b8	-0.18050659
97	0xbd591dde	-0.053007
98	0xbec8aa84	-0.39192593
99	0xbdb963ff	-0.09052276
100	0xbf651208	-0.8948064
101	0x3e48dd57	0.19615684
102	0xbc914600	-0.017733574
103	0xbed7e42b	-0.42166266
104	0xbee9fb48	-0.45699525
105	0xbf4b4cae	-0.7941388
106	0xbc9a6d70	-0.018851012
107	0xbd2e0048	-0.042480737
108	0xbe1d62c4	-0.15369707
109	0xbe3bec1c	-0.18351787
110	0xbecf1bcd	-0.40450898
111	0xbe4415f8	-0.19149005
112	0xbd928e4f	-0.071560495
113	0xbe110b2d	-0.1416442
114	0xbdc7eb0f	-0.09761631
115	0xbdbc5396	-0.0919563
116	0xbe8b5519	-0.27213362
117	0xbd675988	-0.056481868
118	0xbe721f9a	-0.23644868
119	0xbe13f5f8	-0.14449298
120	0xbece80a4	-0.4033252
121	0xbe5c8d8c	-0.21538371
122	0xbe50672d	-0.20351858
123	0xbe85108d	-0.2598919
124	0xbd88f42a	-0.066871956
125	0xbdb25a58	-0.08708638
126	0xbe4e2c26	-0.20134029
127	0xbe21cd5e	-0.15800998

lin2.weight f4 [64, 128]
0	0xbe8b6284	-0.272236
1	0x3e07bef0	0.1325643
2	0xbe06ac60	-0.13151693
3	0x3dbec07a	0.09314056
4	0x3ece506b	0.4029573
5	0xbdbe104a	-0.09280451
6	0x3da355ba	0.079753354
7	0x3e04d16b	0.12970512
8	0x3e248ae3	0.16068606
9	0xbd9e7aa2	-0.07738234
10	0x3e8fe58e	0.28104824
11	0x3e1ecfa4	0.15508896
12	0x3e4ad4e2	0.19807771
13	0x3d97da63	0.07414701
14	0x3c464ada	0.012102807
15	0xbf499f7e	-0.7875899
16	0xbd247960	-0.040154815
17	0xbd0a0d68	-0.03370419
18	0x3e34bb35	0.17649539
19	0xbd76ebe1	-0.060283545
20	0xbd5387c5	-0.05164315
21	0x3e04421c	0.12915844
22	0xbdf657e1	-0.1202848
23	0xbd91c5b3	-0.07117786
24	0xbf12a87e	-0.5728835
25	0x3cafd12c	0.021462046
26	0xbf8dbf4f	-1.1074008
27	0xbe222805	-0.15835579
28	0x3de9ca74	0.11415568
29	0xbc28e846	-0.010309285
30	0xbf860591	-1.0470449
31	0x3a095e8a	0.00052402227
32	0xbf04f0d7	-0.5192999
33	0xbf4d2b06	-0.80143774
34	0xbda1e61e	-0.079052195
35	0x3c40e4d0	0.011773303
36	0xbda90e02	-0.08254625
37	0xbd1e8de6	-0.038709544
38	0xbe585cd0	-0.21129155
39	0x3e3d4504	0.18483359
40	0x3d8ebc97	0.069695644
41	0x3e025412	0.12727383
42	0x3dd78680	0.10523701
43	0x3da4bc0d	0.0804368
44	0xbd38a52d	-0.0450794
45	0x3da8c3d5	0.08240477
46	0x3e4c5833	0.1995552
47	0x3cec9aac	0.028882347
48	0x3d89448f	0.0670253
49	0x3e1fe722	0.15615514
50	0xbe3f1016	-0.1865848
51	0x3c1df947	0.009641952
52	0x3d8561ed	0.065128185
53	0xbd1d89a4	-0.038461342
54	0xbd81058e	-0.062998876
55	0xbf10fdf1	-0.56637484
56	0xbde4066e	-0.11134039
57	0x3e34f1f8	0.17670429
58	0xbe807364	-0.25088036
59	0xbd30f8a2	-0.043205865
60	0xbcf3766c	-0.029719554
61	0xbcd4ac34	-0.02596102
62	0x3dec912f	0.11551129
63	0xbda80228	-0.08203536
64	0x3bafccc0	0.0053649843
65	0xbc3e72b8	-0.011624031
66	0x3d22e55f	0.039769527
67	0x3eb3181a	0.34979326
68	0x3e35a46e	0.17738506
69	0xbd0aee01	-0.033918384
70	0xbe0c9728	-0.13729537
71	0x3e297904	0.1655007
72	0xbea16254	-0.3152033
73	0xbdb77268	-0.08957368
74	0xbdbdb5d9	-0.092632
75	0xbd5db396	-0.054126345
76	0x3d94e2af	0.07269799
77	0x3d5ec341	0.054385427
78	0x3e796bc9	0.24357523
79	0x3e88ce92	0.267201
80	0xbd95301c	-0.07284567
81	0x3dbd8fe6	0.09255962
82	0xbc83d440	-0.01609242
83	0x3e0ab9b9	0.1354741
84	0xbd90f807	-0.070785575
85	0x3d60b434	0.054859355
86	0x3cee0e5d	0.029059583
87	0x3e0717e5	0.13192709
88	0xbde851c6	-0.11343722
89	0xbd26c71e	-0.040717237
90	0x3c68b4bb	0.014203246
91	0xbe1fecca	-0.15617672
92	0x3dc52691	0.096264966
93	0x3e2006b7	0.15627562
94	0xbda231c9	-0.07919652
95	0x3d2d899a	0.042367555
96	0xbdbabfe6	-0.09118633
97	0x3c40dd7e	0.011771558
98	0x3dc2979c	0.095015734
99	0xbd64e4fa	-0.05588243
100	0xbdf5c0df	-0.11999678
101	0x3dca1ec8	0.09869152
102	0x3c481e5b	0.012214269
103	0xbf273fc5	-0.6533168
104	0x3e9e6ca2	0.30942255
105	0x3d40597f	0.04696035
106	0xbcbf6df4	-0.02336786
107	0x3de36708	0.11103636
108	0x3ddc0b37	0.107443266
109	0xbd0b31ea	-0.03398315
110	0x3c8dbb65	0.01730127
111	0xbb5fed20	-0.0034168437
112	0x3c9049a5	0.017613241
113	0xbd76daaf	-0.060267147
114	0x3e2cc3ca	0.16871563
115	0x3d7b4e34	0.061353877
116	0xbd8cbe2b	-0.06872209
117	0x3e0ebda7	0.13939534
118	0x3c603c30	0.013686225
119	0x3e08b3ab	0.13349788
120	0xbe56e178	-0.20984447
121	0x3d341bd7	0.043971863
122	0x3d11effe	0.035629265
123	0x3d846b4d	0.064657785
124	0xbe144490	-0.1447928
125	0xbe323cae	-0.1740596
126	0xbf072d4b	-0.52803487
127	0x3dbaa397	0.091132335
128	0x3eb942bc	0.36183727
129	0x3dbac5b5	0.09119741
130	0xbe23ede2	-0.16008714
131	0xbd4963ea	-0.04916755
132	0xbea714bd	-0.3263301
133	0x3ee01dd2	0.4377275
134	0x3c522816	0.01282694
135	0x3ddf1438	0.10892528
136	0x3d0ec1fc	0.034852967
137	0xbd781710	-0.06056887
138	0xbef8ef41	-0.48620036
139	0x3de64237	0.11243098
140	0x3f1bbfc5	0.6083949
141	0x3e0d3ae0	0.1379199
142	0x3de4b398	0.11167067
143	0xbffd60ba	-1.9795144
144	0xbe388c2f	-0.18022226
145	0x3d92ee5a	0.07174368
146	0x3e1ab76a	0.1510903
147	0xbdf710ad	-0.120637275
148	0xbe24c575	-0.16090949
149	0xbf26f2fa	-0.652145
150	0xbdfda920	-0.12385774
151	0x3d084e58	0.03327784
152	0xbf03efdb	-0.51537865
153	0x3e8492da	0.2589329
154	0xbf0ceb1b	-0.5504624
155	0xbe0f11c4	-0.13971621
156	0x3d5e9f7e	0.054351322
157	0x3d322c92	0.043499537
158	0xbe5af4c4	-0.21382433
159	0x3d7a51fe	0.06111335
160	0x3ed74316	0.4204337
161	0xbf055883	-0.52088183
162	0xbe2308be	-0.15921304
163	0x3db8986c	0.09013447
164	0xbd82ba11	-0.063831456
165	0xbe1f57ea	-0.1556088
166	0x3d8d6a9a	0.06905098
167	0x3e36dec6	0.17858419
168	0x3b26bbe8	0.002544159
169	0xbb04135f	-0.0020153148
170	0x3dab0e17	0.08352297
171	0x38f6358f	0.0001174017
172	0x3de2ee51	0.110806115
173	0xbd3edb37	-0.04659578
174	0xbf16fe74	-0.58982015
175	0x3d71ec85	0.059063453
176	0xbc7e00f3	-0.015503156
177	0x3ddb06e2	0.10694672
178	0x3f4792d9	0.77958447
179	0xbd141516	-0.03615292
180	0xbd64cb44	-0.05585791
181	0x3daaf692	0.08347811
182	0x3d13998e	0.036035113
183	0x3f1e45d2	0.6182529
184	0x3c241b00	0.010016203
185	0xbdab60f5	-0.083681025
186	0x3d95345a	0.07285376
187	0x3da27aa5	0.07933549
188	0xbd2517bf	-0.04030585
189	0xbda2c69a	-0.079480365
190	0x3d7c768b	0.06163649
191	0x3d7f877f	0.06238508
192	0x3c9a1138	0.018807039
193	0x3d28e3f0	0.041233003
194	0x3f397344	0.72441506
195	0xbcd9d338	-0.026589975
196	0xbf106330	-0.5640135
197	0x3e7ebe91	0.24877383
198	0xbd86a6c4	-0.06574777
199	0xbb49b41e	-0.0030777524
200	0xbf47c38a	-0.78032744
201	0xbfd2d1eb	-1.6470312
202	0x3dae507f	0.08511447
203	0xbdabdad9	-0.08391351
204	0xbc9e1681	-0.01929784
205	0x3cd9fd54	0.026610054
206	0x3d4448fa	0.04792116
207	0x3df35f5c	0.11883423
208	0xbd94b87c	-0.0726175
209	0x3d95350e	0.0728551
210	0xbcaf58fc	-0.021404736
211	0x3e4b6a8e	0.19864866
212	0xbcac9410	-0.021066695
213	0x3b8a6c08	0.004224304
214	0x3d5553ab	0.052081745
215	0xbd1cfce4	-0.038327113
216	0x3d854f93	0.06509318
217	0xbec71bd3	-0.38888416
218	0x3d44d5e6	0.048055552
219	0xbe14ba7e	-0.14524266
220	0x3d9f096f	0.07765471
221	0xbd8d4f3d	-0.06899879
222	0x3da57ef4	0.08080855
223	0x3c90aa35	0.017659286
224	0x3d8ca8e9	0.068681546
225	0x3e08546b	0.13313453
226	0x3f1cd0a2	0.6125585
227	0x3f05e042	0.52295315
228	0x3f05b597	0.5223021
229	0x3e6a176e	0.228605
230	0xbcf19ec2	-0.029494647
231	0x3ea2c40e	0.31790203
232	0x3e9cfae8	0.30660176
233	0xbf023613	-0.5086376
234	0xbe3bbf70	-0.18334746
235	0x3c00c2d8	0.007858954
236	0x3ce9c393	0.02853564
237	0x3d780b16	0.060557447
238	0xbeb5099c	-0.35358894
239	0xbcbe3dc0	-0.023222804
240	0xbaa856fa	-0.0012843304
241	0xbd1e7a19	-0.03869066
242	0xbd3b33ee	-0.04570382
243	0x3e1b8ad3	0.15189676
244	0x3cd95600	0.026530266
245	0x3dd15c54	0.10222688
246	0x3cf06fb9	0.029350149
247	0x3ddd802a	0.10815461
248	0xbf626920	-0.8844166
249	0x3de7acf5	0.11312286
250	0xbc4abb14	-0.012373704
251	0xbd6e3b3b	-0.058161955
252	0xbc758e40	-0.014987528
253	0x3c844518	0.016146228
254	0xbf553b1c	-0.8329332
255	0x3d11ece2	0.0356263

lin2.bias f4 [64]
0	0xbfbea087	-1.4892739
1	0xbf2370b8	-0.6384387
2	0xbe586f6f	-0.21136259
3	0xbeac7c1e	-0.33688444
4	0xbf5a81f2	-0.8535453
5	0xbf957882	-1.1677401
6	0xbe9dded2	-0.3083406
7	0xbf1b3ea0	-0.60642433
8	0xbe7b36b4	-0.24532586
9	0xbf0d863a	-0.5528294
10	0xbfa3f355	-1.2808634
11	0xbe086165	-0.13318403
12	0xbf340166	-0.70314634
13	0x3e8da9ea	0.27668697
14	0xbfd2820d	-1.6445938
15	0xbea7a0b9	-0.3273981
16	0x3f719aba	0.9437672
17	0xbf8b85d1	-1.0900213
18	0xbf764cd8	-0.96211004
19	0xbe0bef8a	-0.13665596
20	0xbebb3e45	-0.36570945
21	0xbec101ac	-0.37696588
22	0xbe827904	-0.25482953
23	0xbf5711a9	-0.8401132
24	0x3f5f11ab	0.87136334
25	0xbedc6dcb	-0.43052515
26	0xbf3c17a3	-0.73473567
27	0xbfb40da4	-1.4066663
28	0xbec943be	-0.39309496
29	0xbeb675d6	-0.35636777
30	0xbc95ae18	-0.018271491
31	0xbe88a599	-0.2668884
32	0xbeab2a8d	-0.334309
33	0xbf530f58	-0.8244529
34	0xbf82c332	-1.0215819
35	0xbfb92645	-1.4464804
36	0xbea46454	-0.32107794
37	0xbfd5addf	-1.6693686
38	0x3f8257aa	1.0183003
39	0xbf9c4a4b	-1.2210172
40	0xbfa427a1	-1.2824594
41	0xbf0bd0e6	-0.5461563
42	0xbf3df7b7	-0.7420611
43	0xbd722f03	-0.059126865
44	0xbeab87ed	-0.3350214
45	0xbddc1177	-0.10745519
46	0xbea43f10	-0.32079363
47	0xbe367126	-0.178166
48	0xc037e593	-2.873387
49	0xbe448c7a	-0.19194213
50	0xbf19679f	-0.5992374
51	0xbf0069fc	-0.5016172
52	0xbed39d5b	-0.4133099
53	0xc0326b5e	-2.7878032
54	0xbf9b39cb	-1.2127012
55	0xbf5f074c	-0.8712051
56	0xbfa97725	-1.3239485
57	0xbf3d864e	-0.7403306
58	0xbe8f64d8	-0.28006625
59	0xbf375c73	-0.7162544
60	0xbe7af3f8	-0.24507129
61	0xbf9aa2e0	-1.2080956
62	0xbf19663f	-0.5992164
63	0xbe6e46c4	-0.23269182

lin3.weight f4 [32, 64]
0	0xbe082672	-0.13295916
1	0xbed27457	-0.41104385
2	0xbc3772b8	-0.011196785
3	0x3c1e7b58	0.009672962
4	0x3da0f2dc	0.07858822
5	0xbe4724d5	-0.19447644
6	0xbe8c0393	-0.27346477
7	0x3de5c597	0.11219328
8	0xbd8a7b6a	-0.067618206
9	0xbe0f0ab2	-0.13968924
10	0x3f30ee8c	0.69113994
11	0xbcd97f54	-0.026549973
12	0xbe3b0312	-0.1826289
13	0xbf8ee956	-1.1164958
14	0x3ea0246a	0.31277782
15	0xbe388a69	-0.1802155
16	0xbf51e925	-0.81996375
17	0x3f53ad15	0.8268598
18	0x3e18d0a6	0.14923343
19	0x3d81b676	0.0633363
20	0xbe277b62	-0.1635566
21	0x3f4d18d7	0.8011603
22	0x3d0b2eec	0.033980295
23	0xbe2ba8dc	-0.16763633
24	0x3e93e855	0.28888193
25	0xbdd07100	-0.10177803
26	0xbe8da54c	-0.27665174
27	0x3ec858bf	0.39130208
28	0xbd5677fe	-0.052360527
29	0xbe5794a8	-0.21052802
30	0xbe6cf6a4	-0.23140961
31	0xbe0bcc5e	-0.13652179
32	0xbe5e8745	-0.21731289
33	0xbd988966	-0.07448082
34	0x3eb8c53d	0.3608798
35	0xbf28556d	-0.6575535
36	0xbe4b3016	-0.19842562
37	0xbc0a7828	-0.008451499
38	0xbf11423b	-0.56741685
39	0xbe092b4c	-0.13395423
40	0xbec38906	-0.38190478
41	0xbd199526	-0.037495755
42	0xbd75ca7a	-0.06000755
43	0xbf1eeefc	-0.6208341
44	0xbe065492	-0.13118199
45	0xbdf89d18	-0.12139338
46	0xbd8b9195	-0.06814877
47	0xbe2c0a2f	-0.1680076
48	0x3ed88ed3	0.42296466
49	0xbeab63f8	-0.33474708
50	0xbe43b2eb	-0.1911122
51	0xbd2d7473	-0.042347383
52	0x3c61c258	0.013779245
53	0x3f8d853f	1.1056288
54	0x3e6cc9ea	0.23123899
55	0xbdbb3fa0	-0.09142995
56	0xbf5c0c6c	-0.85956454
57	0xbe882cc0	-0.26596642
58	0xbd0b1f24	-0.033965245
59	0x3d8e5244	0.06949285
60	0x3c8620d0	0.016373068
61	0xbe83c4db	-0.25736126
62	0x3d91a436	0.07111399
63	0xbcfcb69c	-0.030848794
64	0x3e87346d	0.26407185
65	0xbf529634	-0.8226044
66	0x3c815d18	0.01579146
67	0x3e2dcdd3	0.16973047
68	0xbee1f1e7	-0.4412987
69	0xbf13d48d	-0.577462
70	0x3df9c119	0.121950336
71	0xbf243c25	-0.64154273
72	0xbd772334	-0.060336307
73	0xbe3a2ea6	-0.18181857
74	0xbee432b9	-0.44569948
75	0xbd72d048	-0.059280664
76	0x3e02fe88	0.12792408
77	0x3d16604c	0.03671293
78	0xb910c800	-0.00013807416
79	0x3d2c2270	0.04202503
80	0xbf1ff65c	-0.6248529
81	0xbf117868	-0.5682435
82	0xbe7ca82e	-0.2467353
83	0x3dce499e	0.10072635
84	0xbdaf3d71	-0.08556641
85	0xbd959041	-0.07302905
86	0xbf3f11bc	-0.74636436
87	0xbe27fad4	-0.16404277
88	0xbf4a0a34	-0.7892182
89	0x3de04f26	0.10952596
90	0xbf12abca	-0.5729338
91	0xbf333ec7	-0.70017666
92	0xbca6eae8	-0.020375684
93	0xbe100530	-0.14064479
94	0xbf18dac5	-0.59708816
95	0xbd165c47	-0.036709096
96	0xbf0989a0	-0.53725624
97	0xbe4ff75b	-0.20309202
98	0xbe0f0057	-0.13964973
99	0xbf27835a	-0.654348
100	0xbe2afe5a	-0.1669859
101	0x3f4dabd4	0.80340314
102	0xbfb8633c	-1.4405284
103	0x3f468284	0.775429
104	0xbb8f7cbd	-0.0043788836
105	0xbe29c27c	-0.16578096
106	0xbe8a5bac	-0.27023065
107	0xbf7ca9a1	-0.98696333
108	0x3d6ec63a	0.058294512
109	0x3dd6260e	0.10456477
110	0x3e83ec41	0.25766185
111	0x3e943dbd	0.28953353
112	0xbf79b123	-0.97535914
113	0xbe2030c7	-0.15643607
114	0x3f0689e4	0.52554154
115	0xbbba1b10	-0.0056794956
116	0xbefc2bb5	-0.49252096
117	0xbe4307c8	-0.19045937
118	0xbf4a5ae0	-0.79044914
119	0xbdfc54f8	-0.12320894
120	0xbf8f50d3	-1.119654
121	0x3e9701f1	0.2949367
122	0x3e36575b	0.17806761
123	0xbdea2ea3	-0.114346765
124	0xbdeb7edb	-0.11498805
125	0xbeb45c78	-0.35226798
126	0xbde07337	-0.109594755
127	0x3e59d197	0.21271358
128	0x3c41d570	0.011830673
129	0xbe5fcbd0	-0.21855092
130	0xbe2e116e	-0.16998836
131	0x3cd3ce10	0.025855094
132	0xbc03b9a0	-0.008039862
133	0xbe112aeb	-0.14176528
134	0x3d917270	0.07101905
135	0x3eaf2933	0.3421112
136	0x3d8f665c	0.070019454
137	0x3e3602f1	0.1777456
138	0x3f78e23c	0.97220206
139	0xbd35b446	-0.044361375
140	0xbd765cec	-0.06014721
141	0xbddef5b4	-0.10886708
142	0x3d11252c	0.03543584
143	0xbd58982c	-0.052879497
144	0xbe99cea5	-0.3004047
145	0xbedbd3cd	-0.4293503
146	0x3e4a36cc	0.19747466
147	0x3d74b3ac	0.05974166
148	0x3d459d72	0.048245855
149	0x3eab8c48	0.33505464
150	0xbf3cb554	-0.73714185
151	0xbe9f0982	-0.3106194
152	0xbe158b16	-0.14603838
153	0xbb35ec88	-0.0027759392
154	0xbe0ba8f0	-0.13638663
155	0x3eff29a0	0.49836445
156	0x3dbf77c8	0.09349018
157	0xbe0e2998	-0.13883054
158	0xbe4f1172	-0.20221499
159	0xbdaaa8ae	-0.08332954
160	0xbf8ca233	-1.0986999
161	0xbcee6e68	-0.02910538
162	0xbd2ce6b8	-0.042212218
163	0x3f88b8a4	1.0681348
164	0x3dd252e9	0.1026972
165	0x3e0e6350	0.13905072
166	0xbf4626f2	-0.77403176
167	0x3efe92ad	0.4972128
168	0xbedd3049	-0.432009
169	0xbe2128e7	-0.1573826
170	0x3e7a4426	0.24440059
171	0xbe2df4ca	-0.16987911
172	0x3e7fea86	0.24991807
173	0x3db46068	0.088074505
174	0xbb449b00	-0.0029999614
175	0xbdae16c6	-0.085004374
176	0x3e13af1d	0.14422269
177	0x3fa6b128	1.3022814
178	0x3d7acb1c	0.061228856
179	0xbcb979bc	-0.022641055
180	0xbd298ae4	-0.041392222
181	0x3ea98c7b	0.3311499
182	0xbb069e70	-0.0020541213
183	0x3dc5afce	0.09652673
184	0x3f2a59bc	0.66543174
185	0xbe6633f4	-0.22480756
186	0xbd92c2d3	-0.07166066
187	0xbd4a254c	-0.049351975
188	0xbddea457	-0.10871189
189	0xbe2a0ccd	-0.16606446
190	0xbce9e6b0	-0.028552383
191	0x3c951cdc	0.018202238
192	0xbd2f6eb9	-0.042830203
193	0xbeba2ac2	-0.36360747
194	0x3dbabac5	0.09117655
195	0x3d64f182	0.055894382
196	0xbe471db1	-0.1944492
197	0xbe9fed73	-0.31235847
198	0x3c98b768	0.018642142
199	0xbd3537d0	-0.04424268
200	0xbd92bdec	-0.07165131
201	0xbe8dc974	-0.2769276
202	0xbdbe42b4	-0.09290066
203	0x3e4127f6	0.188629
204	0xbdb647e3	-0.0890043
205	0xbe58e63b	-0.21181576
206	0xbe406314	-0.18787795
207	0xbe8ef3c6	-0.2792036
208	0xbdcad97f	-0.09904765
209	0xbeaadc77	-0.33371326
210	0xbcb925c8	-0.022601023
211	0x3cd617c0	0.026134372
212	0xbdffb772	-0.12486161
213	0xbd507a74	-0.05089803
214	0xbea8eef0	-0.32994795
215	0x3cc5738c	0.024102949
216	0xbf2d599d	-0.67714864
217	0x3d7cd7a8	0.061729103
218	0xbea88937	-0.32917187
219	0xbe420d4c	-0.18950385
220	0x3da4dc7e	0.08049868
221	0xbdd01c8a	-0.101616934
222	0xbe8aa2c0	-0.27077293
223	0xbe03537e	-0.12824818
224	0xbd7700a5	-0.06030335
225	0xbeaf8ea9	-0.3428853
226	0x3d2d8f70	0.04237312
227	0xbd1a1672	-0.03761906
228	0x3c423860	0.011854261
229	0x3e24e99d	0.16104741
230	0xbdf94cde	-0.121728644
231	0xbe7c1c3d	-0.24620147
232	0x3d15b0ff	0.03654575
233	0xbe019038	-0.12652671
234	0xbe938e7c	-0.28819644
235	0xbfd87da1	-1.6913339
236	0xbd1604e4	-0.036625758
237	0xbc09ae90	-0.008403435
238	0xbda6e31e	-0.08148788
239	0x3da2abbb	0.07942911
240	0x3ceefb7e	0.029172655
241	0x3e27f5ff	0.16402434
242	0xbdaad0c1	-0.08340598
243	0xbeaa7f2a	-0.33300143
244	0xbdd85cce	-0.10564576
245	0xbe9f7d68	-0.31150365
246	0xbe31b021	-0.17352344
247	0xbcb5de84	-0.02220083
248	0xbe19c288	-0.15015614
249	0x3d602918	0.05472669
250	0xbcf71920	-0.030163348
251	0xbd7a0708	-0.06104186
252	0x3d19db4d	0.037562657
253	0xbea4e8ad	-0.32208768
254	0xbe646374	-0.22303563
255	0x3c44db40	0.012015164

lin3.bias f4 [32]
0	0xc00f9399	-2.2433836
1	0xbff4a57b	-1.9113001
2	0xbf487bdf	-0.7831401
3	0xbf56f3f3	-0.83965987
4	0xbee01646	-0.43766993
5	0xbd2f1ea8	-0.042753845
6	0xbf1189ff	-0.5685119
7	0xbe187203	-0.14887242
8	0x3f94e4af	1.1632289
9	0xbf8f6a6d	-1.1204354
10	0xbe19ef18	-0.15032613
11	0xbf76f095	-0.9646085
12	0xbeb8b562	-0.36075884
13	0xbff82e1f	-1.9389075
14	0x3df3f4ec	0.119119495
15	0xbe76063e	-0.24025819
16	0xbf04a036	-0.5180696
17	0xbf7e27d8	-0.99279547
18	0xbf989367	-1.1919984
19	0x3fea101f	1.828617
20	0xbf0ee702	-0.5582124
21	0xbddbf4d9	-0.1074006
22	0x3f965259	1.174388
23	0xbee22500	-0.44168854
24	0xbe9eb3fc	-0.30996692
25	0xc0146cda	-2.3191438
26	0xc00a2863	-2.158715
27	0x3f7b547e	0.981758
28	0xbf79d540	-0.9759102
29	0xbe89c817	-0.2691047
30	0xbe13917c	-0.14410967
31	0xc02caa67	-2.6979005

lin4.weight f4 [16, 32]
0	0xbe237e68	-0.15966189
1	0xbd5ecd24	-0.054394856
2	0xbd9a365b	-0.07529899
3	0x3e0e4fd2	0.13897637
4	0xbe26b0a0	-0.16278315
5	0xbe1f495f	-0.15555333
6	0xba99aa00	-0.0011723638
7	0xbe18d45a	-0.14924756
8	0x3c41ac8f	0.011820926
9	0xbe14cb05	-0.14530571
10	0xbd689f2b	-0.05679242
11	0xbde9c949	-0.11415345
12	0xbe06cd92	-0.13164356
13	0xbc0f06b2	-0.008729624
14	0xbdeb31c2	-0.114841
15	0x3def5089	0.11685283
16	0x3dfeb3e2	0.12436654
17	0xbe447a7e	-0.19187352
18	0xbd7059c1	-0.058679346
19	0xbde3c16e	-0.11120878
20	0xbc56dfa8	-0.013114847
21	0xbe58c920	-0.21170473
22	0xbdf61643	-0.12015965
23	0xbd77052d	-0.06030767
24	0xbdd548bf	-0.10414266
25	0xbe2b3366	-0.16718826
26	0xbe4d0714	-0.20022231
27	0xbda799f5	-0.08183662
28	0xbba56862	-0.005047844
29	0xbe1e068a	-0.15432182
30	0x3d9833da	0.07431765
31	0xbe26d7ec	-0.16293305
32	0xbe0c88ff	-0.13724135
33	0xbe942daf	-0.28941104
34	0xbe225e09	-0.15856184
35	0x3d816d36	0.063196585
36	0xbdb06fc2	-0.08615066
37	0xbdeed2a6	-0.11661272
38	0x3dc7214f	0.0972315
39	0x3d2f76ac	0.042837784
40	0xbceb1794	-0.028697766
41	0x3bf3d06a	0.0074406164
42	0xbd26142a	-0.040546574
43	0xbd39c738	-0.045356005
44	0xbdd762fe	-0.10516928
45	0xbea4879a	-0.32134706
46	0xbe944dc0	-0.2896557
47	0x3e2a4ce6	0.16630897
48	0xbc13ca59	-0.009020411
49	0xbd60779f	-0.05480158
50	0xbdd76ed9	-0.105191894
51	0xbe9c8053	-0.30566654
52	0x3e51e3b2	0.20497015
53	0xbd01ec94	-0.03171976
54	0xbf0b0b41	-0.5431405
55	0xbd32fb52	-0.04369671
56	0x3db5b316	0.088720486
57	0xbe92c106	-0.2866289
58	0xbd328c00	-0.043590546
59	0xbf56ff62	-0.83983433
60	0xbda6238c	-0.08112249
61	0x3e93d64a	0.28874427
62	0xbc92fb84	-0.017942198
63	0xbd1fbb46	-0.038996957
64	0xbe9fedbd	-0.31236067
65	0x3b60cce0	0.0034301803
66	0xbdc8ae79	-0.09798903
67	0xbc893de4	-0.016753145
68	0x3d631a96	0.055445276
69	0x3caacd64	0.020849891
70	0xbd3fbb13	-0.046809267
71	0x3c8712c8	0.016488448
72	0xbe71c6ed	-0.2361104
73	0xbe12e794	-0.14346153
74	0xbde42502	-0.11139871
75	0xbd0c3f36	-0.03423997
76	0xbd2a0637	-0.041509833
77	0xbd82ad67	-0.0638073
78	0xbec88bdc	-0.39169204
79	0x3b262480	0.0025351346
80	0x3d9776b8	0.07395691
81	0xbe416ca1	-0.18889095
82	0x3e0fdb2e	0.14048454
83	0xbf16f6b0	-0.58970165
84	0xbe3e4d78	-0.1858424
85	0x3d4c2aae	0.04984539
86	0xbe3c64bc	-0.18397802
87	0x3ddd3647	0.10801368
88	0x3d4b26b8	0.049597472
89	0xbf089985	-0.5335925
90	0xbd849ed7	-0.06475609
91	0xbee195f7	-0.44059727
92	0xbd041102	-0.032242782
93	0xbe23230e	-0.15931341
94	0x3caae048	0.020858899
95	0xbe018549	-0.126485
96	0x3d4ecefe	0.050490372
97	0x3ef1aaa5	0.47200504
98	0xc0054b03	-2.0827034
99	0xbf0ea54d	-0.5572098
100	0xbd9b4281	-0.07581044
101	0xbfc44f09	-1.533662
102	0xbee6dffc	-0.45092762
103	0x3d01b522	0.031666882
104	0x3eec1a9d	0.46114054
105	0xbf4135e0	-0.7547283
106	0x3e2e54c1	0.17024519
107	0x3ef9878e	0.48736233
108	0xba377200	-0.00069978833
109	0xbe85f897	-0.26166221
110	0xbf9da88d	-1.2317063
111	0x3e092228	0.13391936
112	0xbe45a896	-0.19302592
113	0xbf5a0780	-0.85167694
114	0xbec091e9	-0.3761132
115	0xbf31629a	-0.6929108
116	0xbd559c06	-0.05215075
117	0xbe2d537e	-0.16926381
118	0xbf2f21db	-0.68411034
119	0xbf02502b	-0.50903577
120	0xbd10d960	-0.035363555
121	0xbf1cdfef	-0.61279196
122	0xbe5aa90d	-0.2135355
123	0x3ea92239	0.33033922
124	0xbf8e3219	-1.1109039
125	0x3dcbc0ae	0.0994886
126	0xbe2eeee4	-0.17083317
127	0xbfca6aed	-1.5813881
128	0xbcc3b801	-0.02389145
129	0xbf0b2f69	-0.5436922
130	0xbf01b427	-0.50665516
131	0xbf017474	-0.5056832
132	0xbb76c0a0	-0.0037651435
133	0xbea613d1	-0.32436994
134	0xbf0e482a	-0.55578864
135	0xbe6c9a9f	-0.23105858
136	0x3e6dc5a3	0.23219924
137	0xbe45ffa2	-0.19335797
138	0xbe81f0ae	-0.25378937
139	0xbf54c9bb	-0.83120316
140	0xbd2f3942	-0.042779215
141	0x3ee35c21	0.44406226
142	0xbf1e012c	-0.6172054
143	0xbe0dbaf4	-0.13840848
144	0x3e27c48d	0.16383572
145	0xbfa22c75	-1.2669817
146	0x3dc0d485	0.09415535
147	0xbe35af08	-0.1774255
148	0x3b8e71c0	0.004347056
149	0xbdfb8c87	-0.12282663
150	0xbe0390b2	-0.12848166
151	0x3d77b849	0.060478482
152	0xbe5cdb7a	-0.21568099
153	0xbedb1d54	-0.42795813
154	0xbe77f574	-0.24214727
155	0xbfb3ba9a	-1.4041321
156	0xbf17dd12	-0.593217
157	0x3e5747fd	0.21023555
158	0xbddc2b65	-0.10750464
159	0xbe9025cd	-0.2815384
160	0xbd4a9630	-0.049459636
161	0xbe49f288	-0.19721425
162	0xbe0dce7a	-0.13848296
163	0xbd7ef41b	-0.062244516
164	0xbe1464d3	-0.14491586
165	0x3ef1fd63	0.4726363
166	0xbe1848ca	-0.14871517
167	0x3e26b3b0	0.16279483
168	0xbe1409c0	-0.14456844
169	0xbd826fd0	-0.06368983
170	0xbd42f9c3	-0.047601473
171	0xbeb0372f	-0.34417102
172	0xbc25b77d	-0.010114548
173	0x3d773460	0.060352683
174	0xbcd44f64	-0.025916763
175	0x3d2d923a	0.04237578
176	0xbe7e6096	-0.24841532
177	0xbeb81257	-0.35951492
178	0xbdc996ec	-0.09843239
179	0xbede65f9	-0.43437174
180	0xbe639f2d	-0.2222869
181	0xbe001b45	-0.12510403
182	0xbe84d614	-0.2594458
183	0xbcc7acd0	-0.024374396
184	0x3d9bd1ce	0.076083764
185	0xbe4631a6	-0.19354877
186	0xbe1fda6e	-0.15610668
187	0xbeb08e00	-0.34483337
188	0x3daf6352	0.08563866
189	0xbd45b570	-0.048268735
190	0x3bdddb2b	0.0067705116
191	0xbcb8cae4	-0.022557683
192	0xbe7ef6cc	-0.24898833
193	0xbc0e48a0	-0.008684307
194	0xbda33652	-0.07969345
195	0xbd49ee9c	-0.04929982
196	0xbca7fe03	-0.020506864
197	0xbdb07ef6	-0.08617966
198	0xbe12bce7	-0.14329873
199	0xbe0119d0	-0.12607503
200	0xbe622aee	-0.22086689
201	0xbe6e9b60	-0.23301458
202	0x3dca1e4b	0.09869059
203	0xbe863a08	-0.2621615
204	0x3d75ad37	0.059979644
205	0x3bcfb470	0.0063386485
206	0xbeb77286	-0.35829562
207	0xbd58793c	-0.052849993
208	0x3ca86540	0.020556092
209	0xbe3b6fb4	-0.1830433
210	0xbdf7e72f	-0.12104642
211	0xbe86acc6	-0.2630369
212	0x3dfe889b	0.12428399
213	0x3d90deb3	0.070737265
214	0xbd46c819	-0.04853067
215	0x3d04f19c	0.03245698
216	0xbdfdc3be	-0.123908505
217	0xbcf25a02	-0.029583935
218	0x3de6dde3	0.1127279
219	0xbd5b75fe	-0.053579323
220	0xbe2d697b	-0.16934769
221	0xbda91ba1	-0.08257223
222	0x3b68f06f	0.00355437
223	0xbeb3db53	-0.3512827
224	0xbec47590	-0.38370943
225	0xbf109250	-0.56473255
226	0xbece8dad	-0.40342465
227	0x3dcc557d	0.09977243
228	0xbd9b14f8	-0.07572359
229	0x3efdb1c8	0.495497
230	0xbc6de6d8	-0.0145203695
231	0xbda33a48	-0.07970101
232	0x3eb4fb22	0.3534785
233	0x3e687880	0.22702217
234	0x3d264258	0.040590614
235	0xbf0d701a	-0.5524918
236	0xbde941c1	-0.11389495
237	0x3d16e622	0.036840566
238	0x3eaa2b44	0.33236134
239	0xbd4032e2	-0.046923526
240	0xbe2c9f4e	-0.16857645
241	0x3e872cd6	0.26401395
242	0xbe8ec4ac	-0.27884424
243	0x3d76d8c2	0.06026531
244	0xbd99f37e	-0.075171456
245	0xbd8a47d9	-0.06751985
246	0x3d84702b	0.06466707
247	0xbebc05bc	-0.36723125
248	0xbd92e8b7	-0.07173293
249	0xbdbcbc6f	-0.09215628
250	0xbcd0cfb8	-0.025489673
251	0xbf4810bf	-0.7815055
252	0x3e10dde6	0.14147148
253	0x3e1eeae7	0.15519296
254	0xbd8ac978	-0.06776708
255	0xbd20aee6	-0.039229296

lin4.bias f4 [16]
0	0xbedf5dfa	-0.43626386
1	0xbefb9e6e	-0.4914431
2	0xbe844267	-0.2583191
3	0x3b183900	0.0023227334
4	0xbd85cd40	-0.06533289
5	0xbe9c76bc	-0.30559337
6	0xbf5088d6	-0.81458795
7	0x4047a245	3.1192791
8	0xbf932c34	-1.1497865
9	0xbf6c18f9	-0.92225605
10	0xbf39cf51	-0.72581965
11	0xbf63b473	-0.8894722
12	0xbf1b9aa0	-0.60782814
13	0xbeee9bb9	-0.46603182
14	0xbe8da6dd	-0.2766637
15	0xbeb51923	-0.3537074

head.weight f4 [3, 16]
0	0xbd89af65	-0.06722907
1	0x3cac89cc	0.0210618
2	0xbd49986e	-0.049217634
3	0xbdea0199	-0.11426086
4	0xbe23dde3	-0.16002612
5	0xbd1db97a	-0.038506962
6	0xbd745f4c	-0.059661195
7	0x3ea1dd65	0.31614223
8	0xbcbcba54	-0.023038067
9	0xbd5b97be	-0.05361151
10	0xbd982475	-0.074288286
11	0x3d26e9af	0.0407502
12	0x3e669b7e	0.22520253
13	0x3e0156ee	0.12630817
14	0x3defccd2	0.11708988
15	0xbcbe35d8	-0.023219034
16	0xbe071e73	-0.13195209
17	0xbec1f086	-0.37878817
18	0x3dc6efe3	0.097137235
19	0x3daf629d	0.08563731
20	0xbece7698	-0.40324855
21	0x3ee65f38	0.4499452
22	0xbd2b9be0	-0.0418967
23	0x3d0ca132	0.034333415
24	0x3e00ea3c	0.12589353
25	0xbca17050	-0.019706875
26	0xbe765f0a	-0.24059692
27	0x3df6bd35	0.12047807
28	0xbecd37bb	-0.4008158
29	0x3eec70e9	0.46179894
30	0xbeadbb8e	-0.33932155
31	0xbbdf6c7c	-0.0068183523
32	0xbdad6b7f	-0.08467769
33	0xbd2ce9f2	-0.042215295
34	0x3d531712	0.051535673
35	0x3d6bb1cc	0.057542607
36	0x3dad4640	0.08460665
37	0x3d7ead65	0.06217708
38	0xbd345c98	-0.044033617
39	0x3e9dbc12	0.3080755
40	0xbd016b2c	-0.031596348
41	0xbceeb0b0	-0.029136986
42	0xbd9e2c03	-0.07723238
43	0x3d584c5d	0.0528072
44	0x3ebde207	0.37086508
45	0xbe144a12	-0.1448138
46	0x3dce2e55	0.10067431
47	0xbca29180	-0.01984477

head.bias f4 [3]
0	0x3f4fce5b	0.8117425
1	0x3f4d07b9	0.8008991
2	0x3f4a6d2f	0.7907285
