output/models/lstm_with_constraints_model.pth (torch, 221321 bytes, 14 tensors)

lstm1.weight_ih_l0 f4 [256, 5]
00000000: ad55 96bd 13b6 20be abba 00be c15b 8bbe
00000010: 7364 88be 8ce2 6a3d dceb d43d 3797 c6bc
00000020: 3435 f8bd f4ab eabb ef84 94be f745 23be
00000030: 8451 38be 9391 8fbe 9ad9 98be f5a0 4a3d
00000040: a0d1 e8bd d4b4 ddbb 94db ac3d dd62 e8bd
00000050: b082 81bc 494f 48bd 44ac 3b3c 2767 c23d
00000060: fcf9 f6bc 0593 40bd ae00 033e 2238 7a3c
00000070: e4e1 8c3d eb27 47bc ae2a 85bc 9d63 89be
00000080: abe8 9bbd 24fa 26be e03a 8fbe 3b9a 983d
00000090: 0a41 acbc 8292 fcbb 8e64 fdbc 279f a1bd
000000a0: 92ef 3fbd d941 f1bd 4dcd dabc cf56 ddbd
000000b0: 993d b1bc 5509 043c f0f4 e93d 5d1d d6bd
000000c0: 6168 a53d 5902 003d 9f6f e3bd 303a 5cbe
000000d0: fcc4 1abe 6250 a7bd c89c 3abe 6b07 99bd
000000e0: 7465 bfbd c719 02bd f056 fc3b 9d78 dbbd
000000f0: 5177 393c d849 f43d 267b 8d3d 7354 bbbd
00000100: d09c dcbd 603a aa3d 5ce6 de3d 81b4 073d
00000110: 872e dcbd 9cf0 2c3d 6f4c 83be bcb1 20be
00000120: ed40 43be 5954 e4bd e657 82be e146 703e
00000130: ccce 7f3d af4e 963e 5700 3d3e ac2e 183e
00000140: 6535 0abe 966c e43d 7a68 d1bc 29b3 b33d
00000150: f539 dc3c 5c8e 13bc 5540 b13d cd83 3d3e
00000160: 100b 573e f4ec 243e 847f a03e e8ea 843e
00000170: 2cb4 a23e 60a1 eb3d aae6 1b3e 385b a33c
00000180: 13a6 423d 9ec2 40bd caee a13c 59b4 ac3d
00000190: 297c 2cbe 3473 80be 4b15 cebd ee46 5fbe
000001a0: a582 a2be acaa cebd a436 bb3d 3081 cdbc
000001b0: 2ad0 f8bd 5e56 35bc 57db 07bd ff24 febd
000001c0: da93 42be 3bcd 6fbe d3ea 1dbe 199c c6bd
000001d0: 4b1b 5e3d 2409 a53d c6c0 55bd b070 be3d
000001e0: 2c53 a13d 9e66 9d3d a66a 703d effc 913d
000001f0: bbdf de3c b924 d33d aa08 b4bd 6c39 8fb9
00000200: 7f62 f93d bdb2 f6bd 7430 eabd b4d9 f2bd
00000210: d361 f5bd 955e 17bd d551 e5bd 38de a63b
00000220: a2cb 5dbe f797 34be 56b6 3bbe 1407 d5bd
00000230: 5f11 abbd f73a 94be fb3d 6fbd 7206 9fbd
00000240: 8312 eabd 3228 3fbc b1bc 473d b3a8 ad3d
00000250: 0602 f2bd 2347 fe3a 0ca9 ffbc 5273 d73d
00000260: 1cf7 633d 89e3 b13d 7304 7c3b 5443 77bc
00000270: 64ad 84bd ee8b a9bd 05f8 87ba 39ef be3d
00000280: eef7 4e3e 9a08 22bc 1017 e43d bafa 9f3d
00000290: 1152 483e ad1d dfbd 95d1 12be 9300 23be
000002a0: cf40 6abe 05da 11be 7d72 91be 8b55 0abe
000002b0: b7e8 13be 7104 20be 3cba 5cbe 71ae 09be
000002c0: b12b 93bd 329a 8b3d 6b68 8a3c fb5c cd3d
000002d0: a78a a8bc 6058 77be 6425 3cbe 6e4a acbd
000002e0: 3fea 73be 409e cdbd 4756 05bd 2a61 b139
000002f0: 4a67 97bd 7385 7e3d 1b30 5c3c a4c9 81be
00000300: 205d 85be 39a6 20be 0afa 4dbe bf59 c0bd
00000310: 0132 bebd f3ec ae3d a891 c13d be5a 57bc
00000320: b122 18be 1f4d 0ebe dc80 55be bcc3 09be
00000330: 74e8 85bd ca2d e83d a567 163d a808 d23d
00000340: 2915 fcbd 8ab3 a23d 89e1 95bd 1db9 97bd
00000350: 758d a3bc 4c48 42bd 708b ea3d d135 0dbd
00000360: f8d1 09be a4a3 df3d 70eb db3d 5b4c a1bd
00000370: 2a75 58be 77dd 95bd ebe1 0fbe b0d9 8ebe
00000380: 4ba7 51be 6156 61be 3a83 70be d0e2 53be
00000390: e315 a0bd 496d 33be 5866 0fbe 00cd 74bd
000003a0: 9339 75be f6b6 88be 3408 393b 9a2b 98be
000003b0: d4b6 2cbe bbf2 88be 0384 01be 15f4 70be
000003c0: 0621 90be c620 9abe 8e1f 30be 2573 6abe
000003d0: 061b c2bd fcf4 8bbe befb 43be 2f44 95be
000003e0: c625 a4bd 0041 fabd a106 88bd b790 b73d
000003f0: 0e9f 4cbd 521c 063d f602 85bd 5ea3 22bb
-0.0734056 -0.15694456 -0.12571208 -0.2721844 -0.26639137 0.05734496 0.10396549 -0.024242027
-0.12119523 -0.0071616117 -0.2900767 -0.15944658 -0.17999846 -0.28040752 -0.29853517 0.049469907
-0.11368108 -0.006765941 0.08440319 -0.11346982 -0.015809387 -0.048903737 0.011454646 0.09492331
-0.030148499 -0.04701521 0.12793228 0.015272172 0.06879023 -0.012155513 -0.016255703 -0.2683381
-0.07612737 -0.16306359 -0.27974606 0.07451292 -0.021027107 -0.007707895 -0.030931737 -0.07891684
-0.04685933 -0.117801376 -0.026709223 -0.10807573 -0.021635817 0.008058866 0.11423671 -0.10454819
0.08076549 0.03125224 -0.111052744 -0.21506572 -0.15114206 -0.08169629 -0.1822387 -0.07472118
-0.093455225 -0.031762864 0.0077007934 -0.107163645 0.011319951 0.11928147 0.06908254 -0.09146967
-0.10772097 0.083119154 0.10883781 0.033131126 -0.10751062 0.04222165 -0.25644252 -0.156928
-0.19067736 -0.111489005 -0.25457686 0.23464538 0.062453076 0.29356906 0.18457161 0.14861554
-0.13496931 0.111535236 -0.025562514 0.087744065 0.026883105 -0.009006109 0.086548485 0.1850731
0.21000314 0.16106015 0.31347287 0.2596047 0.31778085 0.11505389 0.1522471 0.019940957
0.047521662 -0.0470606 0.019767184 0.08432836 -0.16844238 -0.25087893 -0.10062655 -0.21804401
-0.317403 -0.10091147 0.09141281 -0.025086015 -0.12149079 -0.011067955 -0.033168163 -0.124094
-0.19001713 -0.23418133 -0.1542161 -0.09697742 0.054225247 0.08058384 -0.052185796 0.09298837
0.07877192 0.07685588 0.058695458 0.071283214 0.027206292 0.10309739 -0.08790715 -0.00027317868
0.1217699 -0.1204581 -0.11435023 -0.1185793 -0.11981549 -0.036955435 -0.11197249 0.0050924085
-0.21659711 -0.17636095 -0.18331274 -0.10401741 -0.08352923 -0.28951237 -0.05840872 -0.07764901
-0.11429312 -0.011667298 0.048763935 0.084794424 -0.11816792 0.0019399863 -0.031208538 0.105200425
0.055655584 0.08685977 0.00384548 -0.015091736 -0.06478384 -0.082786426 -0.0010373598 0.09322972
0.20211765 -0.009889746 0.11137211 0.07811494 0.19562556 -0.10894332 -0.14337762 -0.15918188
-0.22876285 -0.14243324 -0.2840766 -0.13509195 -0.14444242 -0.15626694 -0.21555418 -0.1344545
-0.07186068 0.0681652 0.016895493 0.100275 -0.020573927 -0.24154806 -0.18373638 -0.08412634
-0.23819827 -0.100399494 -0.032552984 0.00033832464 -0.07392748 0.062138986 0.013439204 -0.25349152
-0.2604761 -0.15688409 -0.20114914 -0.09392118 -0.09286881 0.08541288 0.0945161 -0.013144193
-0.14856984 -0.13896607 -0.20849937 -0.13453573 -0.065384775 0.113368586 0.036719937 0.10255557
-0.123087235 0.079444006 -0.07318408 -0.074083544 -0.019964913 -0.04743223 0.11452377 -0.03447515
-0.13459003 0.10919884 0.107382655 -0.07875892 -0.21138445 -0.07317632 -0.14051025 -0.27900457
-0.20473973 -0.22005607 -0.23487559 -0.20691991 -0.078166746 -0.17522158 -0.14003885 -0.059765816
-0.23947744 -0.26702088 0.002823365 -0.29720765 -0.16866618 -0.2674769 -0.12648015 -0.2353061
-0.28150195 -0.3010313 -0.17199537 -0.22895487 -0.094778106 -0.27335346 -0.19139001 -0.29153582
-0.08015017 -0.12219429 -0.06641889 0.08963149 -0.049956374 0.032741852 -0.064947054 -0.0024816613

lstm1.weight_hh_l0 f4 [256, 64]
00000000: 51b2 8a3d b2d9 2cbe b428 2ebe ca5a 623e
00000010: b96a 313d 7b99 753e df00 e53c b7e2 b8bd
00000020: 88f6 9d3d 7076 b23d ca4f 18be af76 64bd
00000030: 262c 9ebc d94f 5dbe f234 edbd 979f 943d
00000040: d8be da3c 3a02 f33b f9a6 813e 1cdc 8c3d
00000050: cee7 23be 3ebb 86bd 04ea 31bd 0e5e b5bd
00000060: b068 663e 563a fc3d 6fc1 54be c5fd 44be
00000070: 37eb 2abd e55d 19be 9e10 4cbd 1a28 233d
00000080: f296 0c3e 4b8f 733d 55c5 7ebd 3bc4 8bbe
00000090: cd66 1cbe b847 063e 270d 303d 3737 0d3e
000000a0: 6f68 17be f4bb 2f3e 0e52 80be 62c7 a73d
000000b0: ee9f 1c3e 86c3 22be 8b76 1ebe 925a d8bd
000000c0: c7a6 5dbb ffe2 4b3e 441f f73d 7c61 0e3d
000000d0: 1e41 d13d 0c05 b9bd b53e 8a3e 0ad8 34be
000000e0: 67f2 16bd 52e7 40be 5a3b 3fbe 2773 8d3e
000000f0: 7a3d b7bd b583 4bbe 3030 143e f3dd a5bd
00000100: 5d82 de3d 4dab 70be 5fcc 7abe 066a 9e3d
00000110: 6a8f 8a3e 1745 4bbc 74b4 2ebd 6f06 50bb
00000120: b3a3 eb3d a98c 7d3d 7687 a0bd 7f52 2abe
00000130: d268 bdbd 4104 b5bd 575d 06be bb65 433e
00000140: b1c6 6ebe 352a 4c3e 45e4 553e be74 4c3e
00000150: 5d03 963e c3fa 86be aa3a 7e3e a394 00be
00000160: b70f a23c 2903 f03d eb62 00be db12 6a3e
00000170: a9c7 72be 202c 1fbd 2e9a 92bc 4e85 39be
00000180: 68cf 243e ed27 23be d7e6 843c 9e99 aabd
00000190: 8cc9 04be d572 703e 7512 1dbe 5633 b7bd
000001a0: 0f01 0abe c97f 8cbe dc4d 733e 6ee3 543e
000001b0: 0556 64be a75f 89be 1740 423e 4316 77be
000001c0: fc31 9cbd 978a 21bd a502 df3d 088f 883c
000001d0: dbcf 49bd ab1d 1fbe 56a6 af3d 0c09 87be
000001e0: 3325 3e3d 6c8f 2ebe 0177 8cbe 9811 943d
000001f0: 32e7 773d f530 923e 42d1 e33c 2b57 343d
00000200: e204 d7bd 0a6e e6bd 0de6 7dbe eb77 a3be
00000210: 8918 8c3d 6cd2 603c 26a2 c73d 32e4 273e
00000220: be1e 3f3e 844d 843e 8e80 983b f101 89bd
00000230: c53b 02be 7225 c0bd 7ff4 5f3e ab35 bf3d
00000240: 4a8b 5f3c ca22 a43c fcfe 753c f3f2 3dbe
00000250: bfae 86be 7254 96bd 7623 0fbd f3a5 e93d
00000260: b14d 3cbe 51af 0dbe 452e a0bd d1e9 10be
00000270: de6d b13d 9843 bebd a871 acbd ea98 dfbd
00000280: 0c37 b4bd 0ce7 45bd e398 a1bd dbd1 bbbd
00000290: 0772 f1bb d347 0c3e bab3 8d3d b4aa ccbd
000002a0: e463 443e b9e3 3bbe cbbe f13d 3257 a73b
000002b0: 3a9e a8bd 1955 543e f49f 2bbd 5d73 96bd
000002c0: 88dc 5b3e c9e0 b53d e5a9 d8bc 3271 e9bd
000002d0: da8f 023e 41d0 a23d 41df 1a3e 4bca 7a3d
000002e0: 3be3 3dbe fedf b03d 5a10 9e3c d30e 603d
000002f0: ad9e eabd 95e1 003e ba94 adbd 6158 453e
00000300: b67a 80bd 1409 873d d3c9 143d 2846 9cbe
00000310: 73cc 0b3e 9641 38bd a45f 913e 6cb1 f93d
00000320: 4439 133e 1ffd a03e bf97 233d 5af8 93be
00000330: 5e4f 88be 0573 9ebe 7387 323e 3515 423d
00000340: af37 87be f2b4 28bd 9af7 9b3d 9b92 89bc
00000350: 5cba 863d 1903 2b3a 9278 563e d794 edbc
00000360: 6e2e a63c eb74 e2bd 8318 8a3e a2f4 a8bd
00000370: bb91 273d 6c7d 52be e3b2 63be cc1f 82be
00000380: 48b1 8c3d dff3 df3d 521a ab3d cf00 0dbe
00000390: 50af 8ebd b5bb a2bd f96f f1bb e5ce a93d
000003a0: 0a6b afbd 68f5 0e3d ed51 9abd d845 c93d
000003b0: 68de 14bd 6e0d 2f3d 4e28 64bd 0607 4e3c
000003c0: 39b6 67bc 542e a5bd 8942 19be a55f 733d
000003d0: 69f6 01be ce44 573d 3417 cbbd 4d7c 883d
000003e0: a836 b3bd ca35 0fbe bb38 6d3c 5de2 2e3e
000003f0: d031 aa3d 7a3a 6d3a 7b5c 1e3e d5f7 73bd
0.067722924 -0.16879919 -0.17007715 0.22104946 0.04331467 0.2398433 0.027954517 -0.090276174
0.07713038 0.087139964 -0.14874187 -0.055777248 -0.019308161 -0.2161249 -0.11582364 0.07257002
0.02670233 0.007416037 0.25322703 0.0687792 -0.16006395 -0.06578682 -0.043436065 -0.0885583
0.22500873 0.12315814 -0.20776914 -0.1923743 -0.041728225 -0.14977224 -0.049820535 0.039833166
0.13729456 0.059462827 -0.06219991 -0.2729815 -0.1527359 0.13113296 0.042981293 0.13790594
-0.14785932 0.17161542 -0.25062603 0.08192326 0.15295383 -0.15894899 -0.15474908 -0.1056415
-0.003382133 0.19910811 0.1206651 0.034760937 0.10217498 -0.09034166 0.27000967 -0.17660537
-0.036852267 -0.18838242 -0.18674985 0.27626917 -0.089472726 -0.19874461 0.14471507 -0.08098974
0.108647086 -0.23502846 -0.24492024 0.07735066 0.2706254 -0.012406609 -0.042652562 -0.0031742116
0.115058325 0.061901722 -0.07838337 -0.16633032 -0.092485085 -0.08838702 -0.13121544 0.19081776
-0.23317982 0.19937976 0.20887859 0.19966409 0.2929944 -0.2636319 0.24827066 -0.125567
0.019782884 0.11719353 -0.12537734 0.22858755 -0.23708977 -0.03886044 -0.017895784 -0.18117258
0.16094744 -0.15933199 0.016223354 -0.083300814 -0.12967509 0.23481305 -0.15339072 -0.089453384
-0.13476966 -0.27441242 0.2376017 0.20789883 -0.22298439 -0.2683079 0.18969761 -0.24129586
-0.07626721 -0.03943881 0.10889176 0.016669765 -0.049270492 -0.15538661 0.08576648 -0.2637409
0.046422195 -0.17046899 -0.27434543 0.07229918 0.06052322 0.28552976 0.027809743 0.044028442
-0.10498978 -0.11251457 -0.24794789 -0.31927428 0.06840617 0.0137220435 0.09747724 0.16395643
0.18664071 0.2584039 0.004653997 -0.066898234 -0.12718113 -0.09382142 0.21870612 0.09336408
0.013644049 0.02003612 0.015014406 -0.18549709 -0.26305196 -0.073403254 -0.034945928 0.114086054
-0.18389012 -0.13836409 -0.07821325 -0.14151694 0.08663534 -0.09290236 -0.08420116 -0.10917838
-0.08799562 -0.048316047 -0.07890489 -0.09170886 -0.0073683294 0.13699274 0.06919046 -0.099934965
0.1917873 -0.18348588 0.11803969 0.00510683 -0.08233304 0.20735587 -0.04190059 -0.073462225
0.21470845 0.08880765 -0.0264482 -0.113985434 0.12750188 0.079498775 0.15124227 0.061228078
-0.18543713 0.08636473 0.019294906 0.054701637 -0.11456046 0.12586053 -0.08475633 0.19271995
-0.06273405 0.065935284 0.036325287 -0.30522275 0.1365221 -0.044984423 0.2839328 0.12192044
0.14377314 0.31443116 0.03993964 -0.28900415 -0.26623052 -0.30947128 0.17434482 0.047383506
-0.2640967 -0.041188188 0.076155856 -0.01679354 0.06578514 0.0006523594 0.20944431 -0.029001636
0.020285811 -0.110574566 0.26971826 -0.08249785 0.040910464 -0.20555657 -0.22236209 -0.25414884
0.06869751 0.109351866 0.083546296 -0.1376984 -0.06967032 -0.079459585 -0.0073680845 0.08291415
-0.08565338 0.034902006 -0.07535157 0.09827775 -0.036344916 0.042737417 -0.0557025 0.012574917
-0.014142566 -0.08065477 -0.14966787 0.059417386 -0.12691654 0.05255585 -0.09916535 0.066643335
-0.08750659 -0.13985363 0.014478858 0.17078538 0.08310282 0.0009049546 0.15464966 -0.059562523

lstm1.bias_ih_l0 f4 [256]
00000000: 8ccf 59be aab7 743d cb03 5dbe 1dbd 2ebc
00000010: 2819 703d 0bac 483d 4e12 b4bd 8b5a 973c
00000020: c7a8 353d 24b6 d53d 5fdd 78be c69b 01be
00000030: 4341 c1bd 2d93 98bd eb1c 5fbd 5791 863e
00000040: ad60 f2bc 7652 953e 0252 453e 270c ee3d
00000050: 5ed4 d2bd 76c2 ccbd 769d 9cbe 4864 b5bd
00000060: 01e8 b03d adf6 a1bd bc3e d1bc 6efa 8bbe
00000070: 8b5a 90be 8bef 27bd 82d2 b53c bc3f 2abd
00000080: cc36 8b3d e72c e2bd 5a2d 2abe 4e83 acbd
00000090: 9e8a 88be 66ad c23c f3b7 5ebe 4c85 b6bd
000000a0: 1c83 20be c8d1 c4bd 469b 623d 0153 b8bd
000000b0: e4db 02be a791 9abe 7299 45be 96d6 60be
000000c0: e49f a0be eb2c 96be 81a0 88bd 0494 20bd
000000d0: d590 a03d 9039 42be 9310 debd 5de6 e33d
000000e0: edf0 aabd 9afd dcbd 0ece 51bc 63dc 9dba
000000f0: 099d 64be bff0 d9bc 1afc 7a3c 640a 4fbd
00000100: b762 08be b92e bb3d a370 04bb 2f89 b8bd
00000110: 457b 6fbe 6b1c 923d df72 91be 1a65 e4bd
00000120: aba5 ecbd 17f2 ad3d 70c0 b03d 00a9 133e
00000130: a9e0 d73d e654 893e 64bf 46be a411 89be
00000140: 7f74 dcbd fa48 74be 8221 81be bf81 8bbe
00000150: 8d4f b0bd a580 4dbd 09a4 c9bd 7bec 64be
00000160: 8413 f8bd a72e 9bbd 0883 f33d 9d1e 77be
00000170: c5b0 1fbe 00a8 59be b0ac c73d 62aa c9bd
00000180: 58c3 23be 9a6e 053b 6a62 b93d 0116 48bd
00000190: d81b 493d 1615 bfbd 8870 e63d 48cb 843d
000001a0: 26c1 06be b070 cfbd a9bf 27be 04ca a3bd
000001b0: 0b23 5d3d 4d9d af3d 42df f4bd c617 a4bd
000001c0: dbfe d03d e56b 18bd 7f1d 5ebe c7b0 63bd
000001d0: f088 69be 8391 d53b 0efe 40bc 0f05 ce3d
000001e0: 5871 ae3b 0082 963e 174a 19be c3ef 2abe
000001f0: 3cb9 803d 6c34 83be c7ff 51bd 8a48 d43d
00000200: 5bef c03d ab05 d73d b406 b8bd 2493 4abe
00000210: ee64 a1be 5147 8a3e f982 70be 8958 64be
00000220: 6940 473b 5a4e 28bd fede f63c 1294 e4bd
00000230: 9f6f e83c b53b 893d 3b5e d4bd 4739 e5bd
00000240: cd1d 583d b589 56be de7d c6bd a9ce 39be
00000250: 0c4c a4bb 92c0 d43d aebe d73d f9a0 7cbe
00000260: 937c 64be fb5a 9bbe 38d4 f6bd 4178 bebd
00000270: b836 3bbe 18e8 b2bd 80f7 cd3d 228c 9bbd
00000280: f97d 6cbe 0566 9abd b874 fe3d 4383 84bd
00000290: 6402 69bd efb5 25be f484 fdbd db57 453c
000002a0: 2fb1 cf3d f4c6 a0be 99e4 8cbe 9879 063d
000002b0: 3d1b d0bc e3a7 7a3b f5fa 823b 19cc 87bd
000002c0: 70eb cc3d 11ea c03d 0412 7ebe 38df eabd
000002d0: 28f9 33bd 102d c83d 9745 20bd a203 a73d
000002e0: ec62 773d ccfd 7d3d a52f 833b dd9e 56be
000002f0: e5cd edbd 8f4b ebbd 291e 8fbd e887 7bbd
00000300: a334 743c 25ee 513d a482 c6bc b3d3 b03c
00000310: 8c08 163d 615e 57be 3fc7 11be bfec cdbd
00000320: ff67 73be 231e 8dbe a3b4 563d 4678 45bd
00000330: 8bb8 9c3d a120 893c 21ef a0be 9e2e 533d
00000340: 365c a9bc 9ce6 c83d f3f3 af3d 7177 5ebe
00000350: 32a1 893d c1f5 64bd 59f8 0bbd 61a4 86be
00000360: fcc8 dcbd fddc 883c a9c6 fbbd 878f 4fbe
00000370: 880c 7ebe f1db 023e 7053 45bd 41a1 80be
00000380: 9663 24bc 94d5 873d 31ea 7ebd 4ad8 cebb
00000390: 8733 89be 440b 0cbd bc7d 0bbd 699f e03d
000003a0: dd72 a1be 9b1e 53be 116f 9cbe 5c08 bebd
000003b0: 0d41 f5bd 7ef5 17be 0d78 dbbd 493d 8e3d
000003c0: 9c90 4d3d 787e 7cbe b214 89bc b614 bf3d
000003d0: 9fba b6bd f821 913c 9aa7 c1bd 741b bc3c
000003e0: b79a 80bc 570b d43d 5cf1 92bd 55dc b7bd
000003f0: c75a 4f3b 8158 57be 52f4 38be 2570 fdbc
-0.21270579 0.05974547 -0.21583478 -0.010665205 0.05861774 0.048992198 -0.08792554 0.018475791
0.04435041 0.10435131 -0.24303196 -0.12657079 -0.09436276 -0.074499466 -0.054470938 0.2628276
-0.029587114 0.29164475 0.19269565 0.116234116 -0.10294412 -0.09998028 -0.30588883 -0.08857018
0.08638001 -0.07908378 -0.02554261 -0.273395 -0.2819408 -0.04099993 0.022195105 -0.041564688
0.06797561 -0.11043721 -0.16618863 -0.08423482 -0.26668257 0.023764323 -0.21749859 -0.08912143
-0.15675014 -0.09610325 0.05532386 -0.09000207 -0.12779194 -0.3018925 -0.19296816 -0.21956858
-0.31371987 -0.29331145 -0.06671239 -0.03920366 0.078401245 -0.18967271 -0.10843005 0.11127923
-0.08346734 -0.10790558 -0.012805475 -0.001204383 -0.22325529 -0.026604054 0.015318895 -0.05054702
-0.13318907 0.09139771 -0.0020208738 -0.09010541 -0.23386867 0.071343265 -0.28407952 -0.11152096
-0.11555036 0.084934406 0.086304545 0.14419937 0.105408974 0.26822585 -0.19408947 -0.2677127
-0.10764407 -0.23855963 -0.25220877 -0.27247426 -0.08608923 -0.050171513 -0.0984574 -0.22355835
-0.12113097 -0.075772576 0.118902266 -0.24132772 -0.15594776 -0.21255493 0.097497344 -0.09846951
-0.15992486 0.0020360113 0.09051974 -0.04884911 0.04909882 -0.09330194 0.112519324 0.06484085
-0.13159618 -0.10128915 -0.16381706 -0.07997516 0.053988498 0.085749246 -0.119566455 -0.08012347
0.1020486 -0.03721227 -0.2169094 -0.05558851 -0.22806144 0.0065175905 -0.011779321 0.100595586
0.00532357 0.29396057 -0.1496967 -0.16693024 0.06285331 -0.25625932 -0.05126932 0.10365398
0.094206534 0.10499128 -0.089856535 -0.19782692 -0.31522316 0.27007535 -0.23487462 -0.22299398
0.0030403382 -0.041090347 0.030135628 -0.11161055 0.028373538 0.06700841 -0.103695355 -0.111925654
0.052762795 -0.20950969 -0.09691976 -0.18145241 -0.0050139483 0.10388292 0.10534416 -0.24670781
-0.22313146 -0.3034285 -0.12052196 -0.0930028 -0.18282592 -0.087356746 0.100569725 -0.075950876
-0.2309493 -0.0753899 0.12424606 -0.06470349 -0.056887046 -0.16182683 -0.123788744 0.012044872
0.10141217 -0.3140179 -0.27518156 0.032830805 -0.025403613 0.003824704 0.0039972016 -0.066307254
0.10005844 0.094196446 -0.2481156 -0.11468357 -0.043938786 0.0977422 -0.039128866 0.0815499
0.060397074 0.062009618 0.0040034824 -0.20959039 -0.11611537 -0.11489021 -0.069881745 -0.061408907
0.014905128 0.051252503 -0.024232216 0.021585321 0.036629245 -0.21032096 -0.14236163 -0.10054921
-0.2377014 -0.27562055 0.052418362 -0.048210405 0.07652386 0.016739191 -0.3143244 0.05155813
-0.020673852 0.0980961 0.085914515 -0.21725251 0.06720199 -0.05589843 -0.03417239 -0.26297286
-0.10780522 0.016706938 -0.12293751 -0.20269595 -0.24809468 0.12779213 -0.048175275 -0.25123027
-0.010033509 0.06632534 -0.06223506 -0.0063124048 -0.26797125 -0.03419043 -0.034055457 0.10967905
-0.31532946 -0.20617144 -0.30553487 -0.09278938 -0.11975298 -0.14839742 -0.10716257 0.06945283
0.05018674 -0.24657619 -0.016733501 0.09330122 -0.08922314 0.017716393 -0.094557956 0.02296231
-0.015698774 0.103537254 -0.07174942 -0.08977572 0.00316398 -0.21029855 -0.18061951 -0.030937264

lstm1.bias_hh_l0 f4 [256]
00000000: 034c d8bd 8e6f b33c a0a6 a6bd 837e ca3d
00000010: 7296 33bd cd2e 913c 587f 1abe 529a d2bd
00000020: 170e 693d d1bf 6f3c 59f9 4ebe 3577 203d
00000030: 2f3d 99bd 2970 b73c a1a4 efbd b4fd 213e
00000040: dd85 f2bd 5668 d33d 83de b33d 687a bfbd
00000050: 1ab1 19be 1ce9 d53d 893e 0dbe e308 dabb
00000060: acee be3d 79c5 b9bd 3914 a23d f4f6 43be
00000070: 804a c1bd e36f 5abc b1ec 023d f470 68bd
00000080: 31dc 0d3d c58b 89be 7475 84be e1ec 58bd
00000090: 431e 8cbd f8d6 14bd f760 54be ae81 fcbd
000000a0: 9307 b7bd 5bf2 9dbc 4159 d2bd a8fc 9cbb
000000b0: 30fb 0fbe c91e 5fbe d850 c6bd f482 62be
000000c0: 5aaa b7bd c349 98bd 1340 753c 820a d13d
000000d0: f1e3 32bc 4439 edbd eaf9 4cbe 6758 813c
000000e0: 9e02 1a3d 58ef e5bd 3714 48bd 4a25 613d
000000f0: ed54 47be 81e1 003e 8d0e a23d 0c31 5bbd
00000100: d634 ff3c 673e cbbd 4210 c63d 6fe8 9ebd
00000110: b562 26be 7f23 42bc 4c4b 70be 2e55 f8bd
00000120: 2177 1abe e7e6 2f3d 9d1d 8fbb 94e5 b03d
00000130: 7c4d 593e 257b 523e 6937 e3bd ee6a dbbd
00000140: e45a cebd c9e3 30be fe48 52be 7401 6fbe
00000150: a4ba cf3d 71da 0a3d e64e 50bc 9137 52be
00000160: d262 e5bd 75c2 54be 2744 aa3d 0b3d f8bd
00000170: 1654 8dbe 1ac2 d1bd c3c2 183e 1c64 10be
00000180: 2519 7dbe 2724 9e3d c611 8fbd bb8d b7bd
00000190: 9139 b4bd 04de fcbd 5d6e adbd 3994 9e3d
000001a0: 78c1 0ebc edbd 02be 459c 87be 2e73 11bc
000001b0: c2dc 1cbe 039a ed3c f762 03be 108b aebd
000001c0: 2667 683d 55a7 d5bd 2ba2 10be 0990 97bd
000001d0: 9835 a3bd a0a9 cdbd b17d 7fbc e4f7 6d3e
000001e0: 331d a23d edbf 803e fa90 2bbe 028f 8abe
000001f0: 3d86 92bd 350d a0bd bfea a4bc 3cf8 973d
00000200: 64e4 f23d de25 b13c 94e6 0abd 4e0c 68be
00000210: d097 66be d4f7 013e 23d2 35be f36c 91be
00000220: 32f8 de3c b348 e23d 0b22 1a3d 1e79 92bd
00000230: 0b94 00bd 011a 913d d564 393d 808e 3dbe
00000240: fd6f 513d 44f1 a1be 1115 0fbe cd36 0fbe
00000250: 513b 9a3d 092b 8cbd 0a2c 803d 9697 9bbe
00000260: 5346 33be 0cbd 58be a7f4 913c 3565 2abe
00000270: c69b 43be df2e 9fbe 91e1 d93b 9a53 92be
00000280: ed62 20be 279d db3d b4d3 ccbc f46c 65bd
00000290: 494f 983d 53d4 9ebe 9be5 a2bd 8a0c 343d
000002a0: 8533 a0bd 173f 4dbe bd00 f4bd a9e3 94bd
000002b0: 34e7 133c 68ed afbc e0ea bdbd f0c2 05be
000002c0: 3c22 f93d 3362 dc3d 003c c1bd 59a5 23bd
000002d0: ab90 9d3d 5443 843d cb47 f2b9 6ade f9bd
000002e0: 07e3 c93d 93a2 d03d 862c 5f3d 7f5c 41be
000002f0: 8327 213d 0e24 63be bf97 ad3c e81a 7bbd
00000300: 5751 123d 8922 f93d 0075 883c aaee b9bd
00000310: f50a 80bc 0da8 49be 0f37 53be 8b7f f53d
00000320: 71a6 8abe 50fd edbd ff5a bbbd 92f0 3b3d
00000330: d4a4 4ebd 1c75 bcbd 1b49 8dbe 5a61 343d
00000340: 8c96 b4bd 1b5e 623e 7178 9e3e 2994 84be
00000350: 1cfe 473d d6ee 903c 8db4 e5bd ae8a 90be
00000360: 834f c9bd 819f d2bd e9e0 ed3b 5e42 5fbe
00000370: 2350 a1bd 0b4c 3b3c 5237 94bb d673 37be
00000380: a2a4 53bd 82c9 b5bd 4ed4 f4bd 3227 00be
00000390: 3f8c 8cbe 5f10 693b 3868 d4bd 1dab 2abd
000003a0: 2691 5dbe e2f4 88be 1476 9abe dc98 8abd
000003b0: 4489 9bbe e783 ecbd 0e28 963d 9665 043c
000003c0: 2094 8f3b 605b 5dbe 50bb 1d3d 05bf cc3d
000003d0: 3c2e 64be 626d 47bd eea7 a4bd e367 0fbd
000003e0: 5b99 b63d 3df6 cabd 7911 cc3d 7833 563d
000003f0: 58f8 a73d 76af 0ebe 7837 6bbe e36b 563c
-0.10561373 0.02190378 -0.0813725 0.098874114 -0.043844648 0.017722512 -0.1508764 -0.102833405
0.056898203 0.014633135 -0.20212306 0.039176185 -0.07482373 0.02239235 -0.11701322 0.15819436
-0.11841939 0.10322635 0.08782675 -0.09349519 -0.15008965 0.10444853 -0.13793387 -0.0066538914
0.09322867 -0.09070868 0.079140134 -0.19137174 -0.09438038 -0.01333234 0.031964008 -0.056748345
0.03463382 -0.26864448 -0.2587086 -0.05296028 -0.068417095 -0.036337823 -0.20740114 -0.12329422
-0.089369915 -0.019280603 -0.1027093 -0.004790861 -0.14060664 -0.21789087 -0.096833885 -0.22120267
-0.08968039 -0.07435944 0.01496889 0.10207082 -0.010918603 -0.11583188 -0.2001721 0.015789224
0.037600152 -0.11227292 -0.048847403 0.054967202 -0.1946599 0.12586023 0.079129316 -0.05351357
0.031153124 -0.09924012 0.0967107 -0.07759177 -0.16248591 -0.011849283 -0.23466223 -0.12125622
-0.15084507 0.042944815 -0.004367544 0.086375386 0.21220964 0.20554788 -0.11094553 -0.107137546
-0.1007593 -0.17274393 -0.20535657 -0.23340398 0.10143021 0.03389973 -0.012714123 -0.2052901
-0.11200489 -0.20777304 0.0831378 -0.12121018 -0.27603215 -0.102421 0.14918046 -0.14100689
-0.24716623 0.07721739 -0.06985812 -0.0896258 -0.088000424 -0.123470336 -0.08468316 0.07743115
-0.008713119 -0.12767763 -0.26486412 -0.008877559 -0.15318587 0.029004103 -0.12830721 -0.08522618
0.056738995 -0.10432307 -0.14124362 -0.074005194 -0.079692066 -0.10042119 -0.015593932 0.23239094
0.079157256 0.25146428 -0.16754523 -0.2706223 -0.0715451 -0.07815019 -0.020131467 0.07420394
0.11859968 0.021624502 -0.033911303 -0.22660944 -0.2251885 0.12692195 -0.17755942 -0.28403434
0.027217958 0.110490225 0.037630122 -0.071520075 -0.031391185 0.07085038 0.045262177 -0.1851139
0.05113219 -0.31629384 -0.1397288 -0.13985749 0.07530845 -0.06844146 0.062584 -0.30389088
-0.17507295 -0.21165866 0.017816855 -0.1664017 -0.19102392 -0.31090447 0.006649204 -0.28579408
-0.15662737 0.10723334 -0.025003292 -0.05601211 0.074369974 -0.31021366 -0.0795395 0.04395727
-0.078223266 -0.20043598 -0.11914203 -0.07269985 0.009027291 -0.021475509 -0.092733145 -0.13062644
0.12164733 0.107609175 -0.09435272 -0.03995261 0.07693609 0.06458154 -0.00046211327 -0.12200625
0.09857755 0.101872586 0.05448582 -0.1888294 0.039344322 -0.22181723 0.021190522 -0.061304957
0.035722103 0.1216479 0.016657352 -0.09078725 -0.015630225 -0.19693013 -0.20626472 0.119872175
-0.2708011 -0.11620581 -0.091482155 0.045883723 -0.05045016 -0.09202024 -0.27594838 0.044038154
-0.08817777 0.22106211 0.30951265 -0.25894287 0.048826322 0.01769201 -0.11216078 -0.28230804
-0.09829619 -0.10284329 0.0072594774 -0.21802661 -0.07876613 0.011431704 -0.0045231963 -0.17915282
-0.051670678 -0.08876325 -0.119545564 -0.12514952 -0.2745075 0.0035562736 -0.10371441 -0.041667093
-0.21637401 -0.2674933 -0.3016821 -0.06767437 -0.30378163 -0.11548596 0.073318586 0.008080861
0.0043816715 -0.21616888 0.038508713 0.099973716 -0.22283262 -0.0486883 -0.080398425 -0.035011183
0.08915969 -0.099102475 0.0996427 0.05229518 0.08201665 -0.1393412 -0.22970378 0.013087246

lin1.weight f4 [256, 64]
00000000: c8c5 413d 2cdd 883e e167 67be 7530 24bd
00000010: 5ca0 f9bc 0b7f e03e 0244 9bbe f30f 60be
00000020: c950 d1bc 3b50 713d f74b 00be 517e cebe
00000030: fbea 2b3f 9dce 6a3e eba7 1bbe 21fd 30be
00000040: 0fa5 113d 629b c0bc 40bc f83d 90a2 3a3a
00000050: f149 343e 3c82 9e3e 2782 72be 6823 61be
00000060: 8686 0dbe 6adb 22be edf3 9bbb b121 12be
00000070: ddcb ac3d 2286 cebb ece3 39be 6010 013e
00000080: 3323 13be a47d a73e 8ec0 cfbd 0fbc fbbd
00000090: 626b 473e cabe 20bd bf31 1a3d 1702 f23d
000000a0: dfd2 923e 1c29 35be 5890 02be 3e07 51bd
000000b0: 844c 99bd e8cc f93e ab75 973c 6845 3d3d
000000c0: 9433 b3be 5777 0a3e 5876 afbc 320d 1fbe
000000d0: 62fe 06bb b81d 56be 5af5 83bc 2b6e 833e
000000e0: 49f8 20be 8b62 ba3d 7070 b6be d959 a3bd
000000f0: 43c6 7c3d d0ae 70bd 47d9 003e 7008 933e
00000100: 400d f2bb 86a3 e5bd 58ab 28be 70ad 833c
00000110: e3af a8bd 6a37 85bd 9c82 cfbd f4fc 973c
00000120: 9640 103d 0c57 b7bc 6d18 9fbd 5a96 64be
00000130: 5c0f 883d c868 a93d 84f5 efbc 9673 06be
00000140: 87ed d6bd e0fc 05bd 05f8 0fbe 55a6 17be
00000150: 1c8b 04bd 5063 32be 7232 62bd 02b5 07bd
00000160: 2a6f 1cbe e3b1 f6bd c03f a13a 121c a33d
00000170: c0a0 7e3c ae10 00be aaf4 01be 6ed8 10be
00000180: 1ab9 3f3d 3290 39be e950 26be 0cf0 a9bd
00000190: 468e 293d 8b5f adbd a4a0 0c3d f538 2cbd
000001a0: 0005 903c d899 5ebe 6887 1ebe a633 dabd
000001b0: b959 59be 8045 55bb 083b 74bd e2bc d6bd
000001c0: 8e8e 1abd 8012 4bbc 6a03 2fbd c078 42be
000001d0: f4ce a6bd ec64 32be 5299 8cbd d2df e1bd
000001e0: 2679 a1bd 04f6 56be f65f 10be dd76 28bd
000001f0: 47fc 12be 505d 51bd 7c39 aebd ca0c 3bbe
00000200: a239 60be a189 7cbd 952e cebd d1d8 ed3d
00000210: 1a6d b9bd 2cc3 81bd 0dd7 4c3d 7a94 2ebd
00000220: c056 00be fac3 86be a712 31bd 683b 0c3d
00000230: e441 d7bd e295 e6bd 7478 81be cde2 e63d
00000240: df96 853d e64c e43d 20e8 bfbb 5ab2 133d
00000250: 593e 99bc a758 7ebd 4d64 b3bd 1c51 86bc
00000260: 8d9d a3bd fda7 183e 49ec 41bd dcc7 d2bd
00000270: 1590 f3bd 74fe 343d 1ab5 11bd 7a82 48be
00000280: c426 bebc 0718 9fbe f447 ca3d 414e d8bd
00000290: 446d dcbd 227a a23c cc61 3abe 4e1b 58be
000002a0: a0ad 80be a8ed b3bc c891 09bc f1d0 babd
000002b0: 5d80 28be e2fd babd 19e5 893d 42a3 af3c
000002c0: ef42 e4bd 114b eebd 3858 5fbd 05c7 acbd
000002d0: d39e ea3d 18e5 f1bd 5829 933d 4538 743d
000002e0: 1794 e3bc 532b abbc 9c35 33be 70ce 033d
000002f0: b821 c93d 68a2 603c 100d 8dbd ef36 cbbc
00000300: 78be fb3d 1278 a2bd 0eca 64bd dac2 0ebe
00000310: 2c5a cc3c 629e cfbd 805c 19bc aa66 23be
00000320: ba2b 2abe d03a 84bc 7957 4ebe f050 f6bb
00000330: 9eef 00be 5833 54be f0fa 0c3d b008 02be
00000340: 092a 2cbe 47a6 65be 4181 9abd 3216 1cbd
00000350: a0ce 7cbd a26d 64bd 45db 39be c867 12bc
00000360: c2a6 f3bd 002c 9f3c e488 ab3c a6de 62bd
00000370: 3eea 5fbd 2074 c3bb 3e05 d1bd 6c8d a63c
00000380: f82c 403c 8a7e 02bd f9ea 22be fd4b d93d
00000390: 407b 57bd 885b 25be ac5b f0bd ea8d 323e
000003a0: a27d 1c3e 200c 34bd 585c 0b3c 96b0 44bd
000003b0: 42ef 073e 6853 a43b 10f8 a7bb c997 84bd
000003c0: 54f3 adbd e859 05be 47d7 fabd 78a0 1fbc
000003d0: f5d2 d0bd 055e 54be 509d 5bbc 16e0 12be
000003e0: 8b95 d4bd b8e4 aebc f800 24bc 68ef 37be
000003f0: 969b 41bd 61e6 c8bd 2636 49be d702 2ebe
0.04730776 0.2673124 -0.2259822 -0.040085275 -0.030471973 0.43846926 -0.30325323 -0.21881084
-0.025551217 0.058914404 -0.12528978 -0.40330747 0.67155427 0.22930379 -0.15200774 -0.17284061
0.035557803 -0.023511592 0.12145281 0.00071195606 0.17606331 0.30958736 -0.23682462 -0.21986163
-0.13820848 -0.15904012 -0.004759303 -0.14270665 0.08437321 -0.006302611 -0.18153352 0.12603903
-0.14368896 0.32713044 -0.10144149 -0.12291729 0.19474557 -0.03924445 0.037645098 0.11816805
0.28676507 -0.17691463 -0.12750375 -0.051032297 -0.07485297 0.48789144 0.018488726 0.04620877
-0.35000288 0.13522087 -0.021418735 -0.15532377 -0.0020598401 -0.20909774 -0.016108204 0.2566999
-0.15719713 0.09100827 -0.35632658 -0.079761215 0.061712515 -0.058760464 0.12582885 0.28717375
-0.0073868334 -0.1121283 -0.16471612 0.016073912 -0.08236673 -0.0650471 -0.10132334 0.018553235
0.035217844 -0.022380374 -0.07768331 -0.2232298 0.066435546 0.082719386 -0.029291876 -0.1313003
-0.104945235 -0.032711864 -0.14059456 -0.14809544 -0.032359228 -0.17420697 -0.05522389 -0.033131607
-0.1527678 -0.12045648 0.0012302324 0.07964338 0.0155412555 -0.12506363 -0.12690988 -0.14145061
0.046807386 -0.18121412 -0.16241802 -0.082977384 0.04139545 -0.08465489 0.034332886 -0.042046506
0.01758051 -0.21738374 -0.15481341 -0.106543824 -0.21225633 -0.0032542646 -0.05962661 -0.10485245
-0.037733607 -0.012394547 -0.042727865 -0.18991375 -0.08144942 -0.17421311 -0.06865181 -0.110290185
-0.07884435 -0.20992285 -0.14099106 -0.04112898 -0.14354049 -0.05111438 -0.08507058 -0.18266597
-0.21896985 -0.06165469 -0.100674786 0.1161362 -0.090540126 -0.06336054 0.050009776 -0.042622067
-0.12533092 -0.26321393 -0.04323068 0.03423634 -0.105106145 -0.11259057 -0.2528721 0.112737276
0.06522917 0.1114748 -0.005856529 0.03605876 -0.018706487 -0.062096264 -0.08759365 -0.016396098
-0.07989035 0.14907832 -0.04734448 -0.102920264 -0.11892716 0.044187978 -0.035573103 -0.19581023
-0.023211844 -0.3107302 0.09877005 -0.10561801 -0.10763028 0.019833628 -0.18201369 -0.21104166
-0.25132465 -0.02196391 -0.008396573 -0.09121884 -0.16455217 -0.091304556 0.0673315 0.021440152
-0.11145579 -0.116354115 -0.05452749 -0.084363975 0.114560746 -0.11811274 0.0718562 0.059623975
-0.027780576 -0.020894682 -0.17500919 0.032179296 0.098208845 0.013710596 -0.06887257 -0.024806468
0.122921884 -0.07933058 -0.055856757 -0.13941517 0.024945341 -0.10137631 -0.009360433 -0.15957132
-0.16618243 -0.016141325 -0.20150556 -0.0075169727 -0.12591407 -0.20722711 0.034419 -0.12698627
-0.1681291 -0.22426711 -0.075441845 -0.038107105 -0.06172049 -0.055768616 -0.18150051 -0.008935876
-0.11897041 0.01943016 0.020939298 -0.055388115 -0.05466675 -0.005964771 -0.10206078 0.020331107
0.011729471 -0.03185896 -0.15909947 0.10610197 -0.052607775 -0.16148198 -0.11736235 0.17436948
0.152823 -0.043956876 0.008505903 -0.048019968 0.13274863 0.0050148256 -0.005126007 -0.06474263
-0.08493677 -0.13022578 -0.12248092 -0.009742849 -0.10196487 -0.2073899 -0.013404205 -0.14343295
-0.103800856 -0.021349296 -0.010009997 -0.1796242 -0.04726752 -0.09809566 -0.19649562 -0.16993271

lin1.bias f4 [256]
00000000: 12a1 603e 24f9 bfbd e430 b7bc c035 32be
00000010: 754c de3d 38bc d43c 62e7 52be b7bd babd
00000020: 6f7d 60bd ee44 cdbd 72ed c13c 2f35 bebc
00000030: a89f dfbc 6911 f9bd 85a0 33be 3863 dfbc
00000040: 84ed 58be b77d 9abc 5c1e c33d f979 3b3d
00000050: 6c18 42be 4353 e53d 57cd b8bc 1f29 c9bc
00000060: 73d7 3f3d d437 27bd 836c a8bd 4828 52bd
00000070: 852a bf3d 6fa7 92bd 10f7 4abe 5c76 b6bc
00000080: aa8d 58bd 5b3c 34be fb3d 323d e2f6 253e
00000090: a0b9 b93d f6d7 1fbe c6bb 03bc f6fc 7c3d
000000a0: 7dc3 23be c15a fdbd 0a39 17be 7ad1 20be
000000b0: 7cb2 14bc 0006 2bbe 0eca a9bd 103d 26be
000000c0: f771 cfbd a80c b7bb 70ed 7db9 0473 5fbd
000000d0: f44d 38be 5844 4dbe 67de b6bd 6690 1ebd
000000e0: 8cf7 be3d 426a 3abd 906f 77bd a0fe 7bbd
000000f0: 1e26 83bd 546b 1e3c f8e0 62be b583 153e
00000100: 1445 973d 3649 6abd 12b0 3c3d 0fa1 943c
00000110: 8a4e 63be 96d8 26be c909 33be f098 95bc
00000120: 410e 4bbe 3a52 8b3d 9b33 d03d 23a9 34be
00000130: 282b 4a3d 805f bdbd 0824 12be 564f f5bd
00000140: c87c 93bc a6ad fbbd e766 8ebd 1056 e5bd
00000150: 35b4 5f3b 9f4b d9bd 4a17 b2bb 14af 70bd
00000160: 4841 353d 2a4d 53bc 10ed dfbd 5c1f 32bc
00000170: ad30 cf3d f935 d7bb df86 313d ae84 1bbe
00000180: 6e8e 53bd 0cbc 9dbc 29de eabd 0ce2 9ebd
00000190: 7f63 4c3e 2fa9 513d ed3d 863d 505b 8dbd
000001a0: 8f3c b1bc b79b 56be aa4d a2bd 1fdd 5cbe
000001b0: e7d3 36be c2b5 e03d d823 debd bd08 22be
000001c0: 303a 32bd c801 aebd 9a9f 1abe 0286 c63d
000001d0: 806f a43d ca98 873d 1ca2 adbd fbc0 b4bd
000001e0: 1e46 e9bc 7acd 75bd 653a 46bd e7a6 e6bd
000001f0: e0f9 1abe b21a 9dbd e277 bfbd 6c07 6dbd
00000200: 8338 03be 7e54 1bbe 8547 d6bd 1ed1 b6bd
00000210: 9b1d a53d 1c4e 1fbe 0160 d63d 3e83 c9bd
00000220: 1277 5cbe 6a49 b53d b5db d6bd d900 51bc
00000230: b5cf 683c 92d5 a2bd af10 abbd 5c16 943d
00000240: 023f c73d 6062 39be ea1f 0fbe 426b 203d
00000250: d3a6 0fbd 1646 59bd 62b7 73bd 5d54 673c
00000260: bd5b 8a3d 6046 20be 507b 17be 9ad2 5ebd
00000270: 1cad 4bbd f931 14bd 342e 143d 9946 d6bc
00000280: 3620 1bbe e672 1bbe 0d81 8ebd f4be 39be
00000290: 46ec 283d 8ee4 f1bd 039b 22bd cab9 a0bc
000002a0: ed6a cdbc ce7c 10bd a85f 52be 689b 86bc
000002b0: 3bfa 2bbe 27b2 65be 798d 66bc 9adb cb3c
000002c0: b62e 11be 66d1 343a 9697 4dbe 4fa5 d5bd
000002d0: c94d 3dbe 3771 2fbd 1773 cb3d 507f 84bd
000002e0: b64d 923c 5b07 97bd 9bcf 1abe 0b87 9cbd
000002f0: fd8a 24be ace2 d73c 98a1 1ebe c742 12be
00000300: fc43 c7bd 6ee5 15be 822a b6bd 5c65 c7bd
00000310: 53d5 5a3d 4a73 58be 5fdc 2dbc ec66 d1bc
00000320: f6cb 1bbd 2d1b 0ebd 0338 2f3d 4a04 edbd
00000330: 5570 c7ba 1edc 61bd 721e 44be a185 2abd
00000340: 17bd ccbd 2e0e 84bd 3c93 41be 6e1d 203c
00000350: 83bd e43d 81b2 80bd 457e dd3b 52cd 39be
00000360: 86d8 5dbe 9449 5bbb 983a 2c3e 8aab 9d3d
00000370: 037b 6bbd 0a5b 76bd 2373 3fbe 6eb2 1fbe
00000380: 53ea b13d c28b 08be 30fc 02bd 722f febd
00000390: e0bb 64bb d17c eebd 2e08 63be a5b8 0fbd
000003a0: 1169 653c 5bf5 b9bd c68d 54be f8d5 4cbd
000003b0: d3e0 773d b752 e7bd bd0b 9d3d 1e80 01be
000003c0: 2429 5ebd 804f fabd bf61 fbbc d501 7bbd
000003d0: 2201 62be ab05 08be 6484 233d b970 463c
000003e0: 08d6 dd3d e58f 73bd 3b8b 1cbe 6925 5a3d
000003f0: 1ce9 37be db2d c9bd d8d3 7fba e096 86be
0.21936443 -0.09373692 -0.02236218 -0.17403316 0.10854427 0.025968656 -0.20596078 -0.091182165
-0.054807123 -0.10022913 0.023672793 -0.02321872 -0.02729781 -0.12161524 -0.17541702 -0.02726899
-0.21184355 -0.018858774 0.09527275 0.04577062 -0.18954629 0.111975215 -0.022558851 -0.02455574
0.046836328 -0.040824726 -0.08223822 -0.051307946 0.09334282 -0.07160842 -0.1982081 -0.022273235
-0.052869476 -0.17601149 0.04351614 0.1620746 0.09068608 -0.15609726 -0.008040374 0.06176468
-0.15992542 -0.123708256 -0.14767852 -0.15704909 -0.009075757 -0.16701508 -0.08290492 -0.16234231
-0.10129159 -0.0055862255 -0.00024216413 -0.054553047 -0.17998487 -0.20045602 -0.08929139 -0.038711928
0.093245596 -0.04551149 -0.06040913 -0.061522126 -0.06403755 0.009669144 -0.22156131 0.14601023
0.073862225 -0.057198726 0.04606635 0.018143205 -0.22197929 -0.16293558 -0.17484201 -0.018261403
-0.19829656 0.06802793 0.10166093 -0.17642646 0.049357563 -0.09246731 -0.14271557 -0.11978023
-0.018003836 -0.1228898 -0.06953221 -0.11198056 0.0034134511 -0.10610127 -0.005434905 -0.058760718
0.04425171 -0.012896815 -0.10933888 -0.0108717345 0.10116706 -0.0065677133 0.043341514 -0.15187332
-0.051649503 -0.019254707 -0.11468155 -0.07757959 0.1995983 0.051186737 0.0655478 -0.06902182
-0.021635322 -0.20957838 -0.079249695 -0.21568726 -0.17854272 0.109721676 -0.108466804 -0.15823646
-0.043512523 -0.084964335 -0.15099946 0.09693529 0.080290794 0.06620939 -0.084781855 -0.088258706
-0.028475817 -0.06001041 -0.048395533 -0.11262303 -0.15134382 -0.07671107 -0.09349038 -0.057868406
-0.12814526 -0.1516895 -0.1046286 -0.08926605 0.080622874 -0.1555714 0.1046753 -0.098394856
-0.21529797 0.08851893 -0.104911245 -0.01275655 0.014209677 -0.079508916 -0.083527915 0.07230827
0.09728815 -0.18103933 -0.13977018 0.03916479 -0.035071205 -0.053045355 -0.05950106 0.014119235
0.06755779 -0.15651846 -0.14793134 -0.054400064 -0.049725637 -0.03618047 0.036176875 -0.02615671
-0.15149006 -0.15180549 -0.06958208 -0.18139249 0.041240953 -0.118111715 -0.039698612 -0.019619841
-0.0250754 -0.035275273 -0.20544302 -0.016431525 -0.16794674 -0.22431241 -0.014071816 0.024884988
-0.14177975 0.0006897658 -0.20077357 -0.10431921 -0.18486704 -0.04283258 0.09934061 -0.064695954
0.017859321 -0.0737445 -0.15118258 -0.07642945 -0.16068645 0.026353203 -0.1549133 -0.14283286
-0.09729764 -0.14638302 -0.088948265 -0.0973613 0.053426098 -0.2113773 -0.010611623 -0.025561772
-0.03803631 -0.034693886 0.042778026 -0.11573084 -0.0015215973 -0.05514156 -0.19152239 -0.041631345
-0.099970035 -0.06448017 -0.18903822 0.009772642 0.11168959 -0.06284047 0.0067594373 -0.1814473
-0.21664628 -0.0033460604 0.16819227 0.07698734 -0.05749036 -0.060145415 -0.18696265 -0.1559541
0.08687272 -0.13334563 -0.031978786 -0.12411393 -0.0034902021 -0.116449006 -0.22171089 -0.0350882
0.014002101 -0.09080001 -0.20757207 -0.050008744 0.060517143 -0.112950735 0.076682545 -0.12646529
-0.054238454 -0.12222195 -0.030686257 -0.061281044 -0.22070745 -0.13283412 0.03992118 0.012111836
0.10831839 -0.0594634 -0.15287487 0.053258333 -0.17960018 -0.09823199 -0.0009759045 -0.26286983

lin2.weight f4 [64, 256]
00000000: 3fdf 00be a8d0 36bd 7cfc b9bd 9ac2 20bd
00000010: a49c 23be eaaa 09bd fd4a d8bd fe96 aabd
00000020: b956 11be 72d0 7bbd 8c55 24be 38c5 81bc
00000030: 7532 e6bd 7722 bebd ec3e c4bd f66b edbd
00000040: f815 18bd c7c8 d0bd 1631 a8bd 6e1a 65bd
00000050: 246c d6bd 9a11 26bd 9677 93bd 3176 bebd
00000060: 6ad3 1dbd 31c0 febd 203e d7bd bc64 03be
00000070: 10ae 13be adb8 c8bd a4ee fdbd 20c0 8bbd
00000080: 3ccb 8bbd 2c23 5cbd ebdb 9dbd 72e0 1abd
00000090: e100 9bbd b473 143d 1221 c3bd 09b5 adbd
000000a0: adea 9cbd 9083 c6bd 3e31 aebd 8090 37bb
000000b0: 84cc 6cbd b695 11be 8b96 09be 7c59 04be
000000c0: 69d2 04be e026 48bd 56bd cfbd a4ec a5bd
000000d0: c0e1 933a ea6f 293d 5935 12be b63f ecbd
000000e0: bdc5 fbbd 013a f4bd a00b 1cbe b6b2 f8bc
000000f0: 7004 bcbd 867b 05bd 9bbb 22be dcf9 8bbd
00000100: f8e2 fcbd 447b e1bd 98fd b0bd cd76 febd
00000110: 1721 e5bd 8486 33bd 482a 50bd cd72 aabd
00000120: a47e 50bd 18ce 15be 7b17 f2bd 1c23 dfbc
00000130: 8227 21bd e5ef 80bd b88f ff3c 3680 06be
00000140: 8251 50bd a02f 0abd 501f 3dbd d28d 14bd
00000150: 0196 00be 3aa7 21be 1e57 3fbd e8b4 0fbe
00000160: 0f6a 1abe b26e 94bd ba76 8ebd d939 eebd
00000170: 179c e1bd 3803 53bd 00a2 09be c9d8 9abd
00000180: a776 16be 0298 e1bd eb3a 0ebe fa77 2cbd
00000190: d803 b3bd dd59 1cbe e0b5 ffbc 3684 6ebd
000001a0: b493 4abd a13b 12bd 3253 05be 34f9 9ebd
000001b0: 387d ccbd 7608 34bd 17e8 f6bd f011 f03c
000001c0: 2218 8dbd 9eef bdbd 0add 42bd 7c87 19be
000001d0: fabe a2bd fa3b 23be 8498 febd aabb cabd
000001e0: c8de 6fbd 0087 46bd fe2b a03b 61df c8bd
000001f0: 08a2 d8bd b66f 01be c097 bcbd 386c 00be
00000200: 7ee3 6bbd b2cc cdbd 27b9 a4bd 5564 98bd
00000210: c634 22be 249a 343d 40e7 1cbe e85e 10be
00000220: 50bc 16bd 9fd3 cbbd e8ea f6bd e234 e6bd
00000230: f655 a1bd e3de a3bd 73f8 d7bd 1f82 e8bd
00000240: e88d 5f3c 4c8c c4bc 8128 f7bd e036 43bd
00000250: fefc 9fbd 93c5 e5bd c81a 92bd 1f03 f5bd
00000260: fc6d 30bd e6b8 18be e2d8 33bd 38e5 22be
00000270: bb61 d2bd 9cfd 28bd 9c75 01be 0fba 0fbe
00000280: e405 18be 10ee 1ebd 483f 3fbc cd0b f1bd
00000290: 5ab2 cdbd 9600 a33c 26e0 f1bd 38dd 3bbd
000002a0: 2d29 d7bd caab b7bd 5875 183d 7e4e 8ebd
000002b0: 4e3f 08be c866 5cbc 790a 83bd 195a b1bd
000002c0: e2df c1bd 8917 d6bd 6a71 f6bd fd90 82bd
000002d0: 4cd8 2a3d e850 8dbd 6ed4 0ebe 8b9e dabd
000002e0: 9ed6 1cbe 2e28 c8bd de67 7ebd 9ade 4ebd
000002f0: b0bd 07be 9a71 21be 9c50 02be 408c eb3a
00000300: 927a 90bd 64c5 00be e98c 23be 9cbf 1bbe
00000310: a4ab babd 5c08 24bd 010c d1bd 6932 dcbd
00000320: 4246 1bbd a093 ffbd 6c26 1fbe 2a8b 87bd
00000330: eea4 6abd 2c9e 0ebe eefa 4fbd 9047 25be
00000340: 8c6e 7ebd ccf6 4dbd 00a1 95bb a729 21be
00000350: e865 4cbd 7280 d9bd 9648 7cbd a6ef 14be
00000360: 8ed8 57bd ce2c f6bd 5f21 88bd 8bc3 09be
00000370: 8818 1bbd 7ea2 1dbe a716 24be 60da 743b
00000380: 6c98 b1bd 6527 debd 0be9 f4bd 4051 183c
00000390: 267a 07be 2afc 01be 5190 0fbe b034 98bd
000003a0: e47e 06be 002e 8138 a08b 28bd d23f 20bd
000003b0: 3226 38bd 3e2b 0ebe 7ab1 08be b626 5fbd
000003c0: 8d07 fcbd 1196 ddbc 63dc a6bd 6c20 10be
000003d0: 965d 0fbe 15e2 b5bd 9206 f7bd 27d9 14be
000003e0: 75ab d2bd 7319 22be 4e58 273d 7eeb e9bd
000003f0: 28a5 7ebd a02e 03be d881 2fbd 130f d6bd
-0.12585162 -0.044632584 -0.09081361 -0.039248087 -0.15977722 -0.033610262 -0.10561178 -0.08329581
-0.14193238 -0.061478086 -0.16048259 -0.015841112 -0.11240093 -0.092839174 -0.09582314 -0.115928575
-0.037130326 -0.10194545 -0.082124874 -0.05593341 -0.10469845 -0.04054413 -0.072005436 -0.09299887
-0.0385317 -0.12439001 -0.10509896 -0.12831396 -0.14421868 -0.09800849 -0.12399033 -0.06823754
-0.06825873 -0.05374448 -0.07707962 -0.037811704 -0.07568527 0.036243156 -0.09527792 -0.08481795
-0.07661948 -0.09693062 -0.08505486 -0.0028009713 -0.05781223 -0.14217266 -0.13436334 -0.1292476
-0.1297089 -0.0488652 -0.10143535 -0.08101776 0.0011282489 0.041366495 -0.14278163 -0.115355894
-0.12293575 -0.11925126 -0.1523881 -0.030358654 -0.09180534 -0.032588504 -0.15891878 -0.06834766
-0.12347978 -0.11009839 -0.08642119 -0.12425003 -0.11187952 -0.043829456 -0.050821573 -0.08322678
-0.050902024 -0.146294 -0.11820885 -0.027238421 -0.03934432 -0.06295756 0.03119646 -0.13134846
-0.050858982 -0.033736825 -0.04617244 -0.036268063 -0.12557222 -0.15786448 -0.04671394 -0.14033854
-0.1507952 -0.07247676 -0.06956239 -0.11632127 -0.110161 -0.05151674 -0.13440704 -0.0756088
-0.146937 -0.11015321 -0.13889663 -0.042106606 -0.087409675 -0.15268655 -0.031214654 -0.058231555
-0.049457267 -0.035701398 -0.13020018 -0.077623755 -0.09984821 -0.04395338 -0.120559864 0.029305428
-0.068893686 -0.09274219 -0.04757408 -0.1499309 -0.07946582 -0.15940848 -0.12431434 -0.09899075
-0.05856207 -0.04846859 0.004888057 -0.09808231 -0.1057778 -0.1264027 -0.092086315 -0.12541282
-0.05759 -0.10048808 -0.080431275 -0.07441012 -0.15840444 0.044092312 -0.1532259 -0.14098704
-0.036800683 -0.09952473 -0.120565236 -0.11240555 -0.07877724 -0.08001497 -0.10545435 -0.11352944
0.013644673 -0.02399268 -0.120682724 -0.047659755 -0.07811926 -0.11219325 -0.07134014 -0.11963486
-0.04307364 -0.14914283 -0.043908007 -0.15907753 -0.10272547 -0.041257486 -0.1264252 -0.1403582
-0.14845997 -0.038801253 -0.011672802 -0.11769829 -0.100437835 0.01989774 -0.11810331 -0.045865268
-0.105059005 -0.08968313 0.037221283 -0.06948565 -0.13305399 -0.013452239 -0.06398482 -0.08659763
-0.094665304 -0.10453708 -0.12033351 -0.063753106 0.041710183 -0.06900197 -0.13948223 -0.10674771
-0.15316245 -0.09773289 -0.062110774 -0.05050526 -0.13255954 -0.15765992 -0.12726063 0.0017970875
-0.070546284 -0.12575299 -0.15971722 -0.15209812 -0.09114769 -0.040047035 -0.10207368 -0.107518025
-0.0379088 -0.12479329 -0.15542 -0.0661834 -0.057286195 -0.13927525 -0.050776415 -0.1614058
-0.062117144 -0.050284192 -0.004566312 -0.15738545 -0.049901873 -0.10620202 -0.06159266 -0.14544544
-0.052696757 -0.120202646 -0.0664699 -0.134535 -0.03786519 -0.15394017 -0.16024266 0.0037361607
-0.0867165 -0.10847358 -0.11958512 0.009296715 -0.1323019 -0.12693849 -0.14019896 -0.07431924
-0.13134342 6.1597675e-05 -0.04114878 -0.039123364 -0.0449583 -0.13883683 -0.13348952 -0.054480277
-0.12306128 -0.027049096 -0.08147504 -0.14074868 -0.14000544 -0.08881012 -0.120618 -0.14535962
-0.10286609 -0.1583002 0.0408557 -0.1142187 -0.062169224 -0.12810755 -0.042848438 -0.10452094

lin2.bias f4 [64]
00000000: afe7 39be 287d 09be 2468 52bd e909 5d3c
00000010: cada 7cbd 74f7 8abd 439a e0bd c818 47bc
00000020: fc65 5cbd b063 28bd 78a6 19be 91eb 9ebd
00000030: fc16 f6bd d8cd 30bd 6a52 893c 206d 693d
00000040: 4862 dcbd d450 6fbd 9c1f bcbd 94b1 f03c
00000050: f608 4abd 0640 1cbd ae38 25be dcb3 f43c
00000060: c234 d8bc cd02 bc3c 8e74 76bd 7a9a 87bd
00000070: baf4 06be 25dd dcbd ef64 fbbc 3123 86bd
00000080: f8e8 09be 8337 04be 24ae 0fbe da26 11be
00000090: 042a b1bc b407 40bd b07c 4fbc 0825 e0bd
000000a0: b2ee 13be f48d 54bd 24a2 5fbd aac4 4fbd
000000b0: e824 55bd 36b6 04be 3c66 8ebd 8545 f5bd
000000c0: 76f1 34bd 56c1 9abd 04c1 3abd 5696 97bd
000000d0: aaf3 8fbd 341c 253d e592 8fbd 14a1 c5bd
000000e0: f2ae fabd f6ff 07be 1c54 b7bc cfe2 bbbd
000000f0: ae8d 43bd c82a 22bc c47b 41bd 1880 73bc
-0.18154787 -0.1342665 -0.051368847 0.013491132 -0.06173209 -0.06785479 -0.10966923 -0.012151904
-0.053808197 -0.041110694 -0.15004909 -0.077597745 -0.12016103 -0.043165058 0.01676293 0.056988835
-0.10760933 -0.058426693 -0.091857165 0.02938155 -0.049324952 -0.038146995 -0.16134903 0.02987092
-0.026392344 0.022950554 -0.06016975 -0.06621261 -0.13179293 -0.107843675 -0.030687777 -0.06549681
-0.13467777 -0.12911801 -0.14031273 -0.14174977 -0.02162648 -0.046882346 -0.012664005 -0.10944563
-0.14446524 -0.05189319 -0.05459799 -0.050724663 -0.05203715 -0.12960133 -0.069530934 -0.119761504
-0.044175588 -0.07556407 -0.04559423 -0.07401721 -0.07028897 0.0403101 -0.0701044 -0.09649864
-0.122403994 -0.13281235 -0.022378974 -0.0917412 -0.04774254 -0.009897895 -0.047237173 -0.014862083
