output/models/lstm_without_constraints_model.pth (torch, 224645 bytes, 14 tensors)

lstm1.weight_ih_l0 f4 [256, 5]
00000000: c4ec 35be a01f acbe 72fc efbe beda 84bd
00000010: 303e d3be 5f56 2bbe 1647 03bf c12e f4be
00000020: 490c 79be 408c 06bf a7b4 8dbe 822f 00bf
00000030: b58d a1be c157 1cbe 9195 b4be f87e 713e
00000040: ba1b bf3d 9309 c93c c942 10bd e663 5a3e
00000050: dcab 013d b1d6 a6bd 9e68 d33d be30 11bd
00000060: cefc 09be 068e 7ebe b29c 59be 9932 d2bd
00000070: 7f92 ddbd b68a 85bd 970c d73e 0c64 2e3c
00000080: c2a4 a43d 4008 c43e 072f fe3c a7eb 8c3e
00000090: 30fa c7bc a14b d2bd 4b60 6e3e 1245 10be
000000a0: 3951 223d 1f6a 4cbd 4d08 633d 5284 7eba
000000b0: 8790 993d e7cb c13c 2b4f fcbb 8542 acbe
000000c0: eced 87be 8a72 dfbc d2f2 8b3e 0ac2 a23e
000000d0: 8fb0 f23e 0619 523e 4052 c53e 45f7 ac3d
000000e0: d65f 98bb 2848 4b3d 2150 f93c f04a cdbd
000000f0: 9905 44be c40e debd 743d 9d3e 8295 94be
00000100: 0ffa ca3d b66b 3cbe e760 0fbe aa6e babd
00000110: 0b2a 1dbe 0e10 6abd b8c0 373e 78b7 dd3c
00000120: d741 98be 6c8d 29be 8edc f0bd 15dc 9bbe
00000130: 74c3 50be 823c bcbd 78c5 9cbe a8f5 5dbe
00000140: 781a 0dbd 9e39 77be 0b52 f5bc 428a 5d3b
00000150: db1b 86bd ed8d 143e 15c2 133e c340 3b3e
00000160: 44e7 2e3e 347b ec3d 05c9 30bc 9882 033e
00000170: 8ad0 533e 0724 583d 04ab e13d 9067 84be
00000180: c444 363d ef25 39be 02fa dcbe 61bc 063e
00000190: 92b7 3ebd 1dc1 77be eddc 4cbe 02db fabd
000001a0: 9241 37be 2ed1 4abe 0626 bcbe 0205 cfbe
000001b0: bb3b dabe 5afe cfbe 64b9 573e 4852 303e
000001c0: 2ccb bc3d e109 743c 9ae4 aabd 1154 3c3b
000001d0: 2d3c c0bd ee94 f0bd e428 33bd e430 bf3c
000001e0: 0451 2bbd 15a5 36be 6660 84be 05e3 2abe
000001f0: 4003 62be 2b59 c63d e616 b3bd 61af 843d
00000200: 1ae0 e1bd a76e db3c 0981 e03e 8b94 c03e
00000210: e060 a93e 97f2 993d 624b 753e 5b22 94be
00000220: 7582 85be 8004 cd3c 7c9a 02be 06ea ccbb
00000230: a205 aebd 22fc 80be 78d7 c4be d6d7 3fbe
00000240: 27c2 b0be 4e17 623e 71b0 a23d 7eb0 83bc
00000250: ded9 c33d 359d 523d ff5a 1dbd a4eb 99be
00000260: cc6d 4abe 1540 febd cba3 09be 8f11 19be
00000270: 5279 063e 48da 61be a8df eb3d 39f3 c7bc
00000280: ad48 aebd 48e8 543d 2c8e 2c3d 21c3 bcbe
00000290: 4589 6e3e 2b91 d5bc 5d26 be3d 25ad bc3c
000002a0: 596a c3bd a20d 81bd d2a2 a43d 72c2 c03e
000002b0: ec74 273e c07c 8a3d 020f 273e c998 abbd
000002c0: b6b6 ae3d aaa2 b83d 9371 f3bc 1076 123e
000002d0: 7500 663e 04db 973d 9c69 f53d c1cd 78bd
000002e0: a90c 82bd 6159 3dbe 666c 003e 12ae 55be
000002f0: b007 b6be 484a 86bd a4a0 bdbe 3d32 48be
00000300: 3e97 cebd 23cd 33be 553c 30bd a13c 2d3d
00000310: 93a6 be3c 8274 5bbc ca9a f23c 742c 07be
00000320: 99e8 a53d bbaa b9bd d9e7 2d3e fe89 193d
00000330: 920e a7bd cd6d 073e 2b36 f03e c611 433e
00000340: 1bcd 723e ca29 6f3e 7b2f 7fbe 1c51 913e
00000350: 5a72 f43d 93cf 5fbe 6f11 ba3e 286d 3abe
00000360: a3e2 96bd cdd3 c5bd 9868 95bd 2b9d d7bd
00000370: eb4e 973e 8467 803e eb33 7d3e 419c ad3e
00000380: 042d c43e 7f79 8abe bc37 95bd ff7c abbd
00000390: e854 05bd 3e73 383d e930 b93d 3bdf c63e
000003a0: 30f9 1a3f 7b9b ed3e b3e3 8f3e f7ca 053d
000003b0: b560 16bc a4eb 043e 9e55 33be f603 d1bc
000003c0: 8474 973e 8716 5f3e 9f17 fcbc 87a1 633d
000003d0: 3d8d 323e 8190 cb3b 6c0f b4bd 08e0 fabc
000003e0: 4b8a 05be cc46 2cbd 86c6 c5be 4d85 8cbe
000003f0: bba3 64be 0cc7 ddbd c700 d0bd d006 913c
-0.177661 -0.33617878 -0.46872288 -0.06487034 -0.41258383 -0.16732167 -0.51280344 -0.4769192
-0.24321093 -0.52557755 -0.2767689 -0.5007249 -0.31553426 -0.1526785 -0.3527036 0.23583591
0.0933146 0.024540698 -0.03521994 0.2132717 0.03165804 -0.08146418 0.103226885 -0.035446875
-0.13475344 -0.24858865 -0.21251181 -0.10263557 -0.108189575 -0.06520598 0.42001793 0.01064397
0.080392376 0.38287544 0.031028284 0.27523538 -0.02441129 -0.10268331 0.2327892 -0.14088848
0.03962824 -0.049905892 0.055427838 -0.00097090483 0.074982695 0.023656799 -0.0076998672 -0.336445
-0.26548707 -0.027276296 0.27333695 0.31788665 0.4740033 0.20517358 0.38539314 0.084456004
-0.0046500964 0.04962936 0.030433716 -0.10024059 -0.1914276 -0.1084266 0.30710948 -0.29020315
0.09910976 -0.18400463 -0.14001809 -0.09103139 -0.1534807 -0.057144217 0.1794461 0.027065024
-0.29737732 -0.16557854 -0.117608175 -0.30441347 -0.2038706 -0.091912284 -0.30619407 -0.21675742
-0.03444907 -0.24143073 -0.029946348 0.0033804332 -0.06548282 0.14507265 0.14429505 0.18286423
0.17080408 0.11546937 -0.010790114 0.12842786 0.2068502 0.052768733 0.11018947 -0.25860262
0.044499174 -0.18080877 -0.4315949 0.13157798 -0.046561785 -0.2419476 -0.20006151 -0.12248804
-0.17896107 -0.19806358 -0.3674776 -0.40433508 -0.42623696 -0.40623742 0.21066815 0.17218888
0.092184395 0.014894933 -0.083443835 0.002873663 -0.093864776 -0.11747156 -0.04374017 0.023338743
-0.04182531 -0.17836411 -0.25854796 -0.16688164 -0.22071552 0.09684976 -0.08744602 0.06478763
-0.11029072 0.026786162 0.43848446 0.3761333 0.33081722 0.075169735 0.23954538 -0.2893246
-0.26076093 0.02502656 -0.12754244 -0.0062534837 -0.08497168 -0.25192362 -0.3844564 -0.18734679
-0.34523126 0.22079203 0.0794381 -0.016075369 0.09563039 0.051419456 -0.03841686 -0.30062592
-0.19768447 -0.124145664 -0.13441388 -0.14948104 0.13132218 -0.22055924 0.115172684 -0.02440797
-0.085099556 0.051979333 0.042127773 -0.36867622 0.23294552 -0.026070198 0.09284661 0.02303178
-0.095417686 -0.063014284 0.08038868 0.3764835 0.16353196 0.067620754 0.16314319 -0.08378751
0.08530943 0.09015401 -0.029717242 0.1430285 0.22461112 0.07414821 0.11983034 -0.060743097
-0.06350071 -0.18491127 0.1254135 -0.20867184 -0.3555274 -0.06557137 -0.37036622 -0.19550414
-0.10087441 -0.17558722 -0.043026287 0.04229415 0.023272788 -0.013394477 0.029614825 -0.13200551
0.08101005 -0.090657674 0.16982974 0.037485115 -0.08157076 0.1322548 0.46916327 0.19049749
0.23711054 0.23355785 -0.24920456 0.28382194 0.11935873 -0.21856527 0.36341426 -0.18205702
-0.07367446 -0.096595384 -0.0729534 -0.10528024 0.29552397 0.25078976 0.24726836 0.33908275
0.38315594 -0.2704582 -0.07286021 -0.083734505 -0.032551676 0.04503178 0.09042532 0.38842186
0.6053648 0.46407685 0.28103408 0.032664265 -0.00917833 0.12980515 -0.17513129 -0.025514584
0.29581082 0.21785937 -0.030772982 0.055573966 0.1743669 0.0062122946 -0.08792004 -0.030624405
-0.13041036 -0.042059705 -0.38628024 -0.2744545 -0.22328083 -0.10828981 -0.10156398 0.017703444

lstm1.weight_hh_l0 f4 [256, 64]
00000000: 7a3c 9c3e 90da 573e 4d50 45be 2307 65bd
00000010: f3c9 41be a079 eebd abe9 013e 51b0 103e
00000020: c977 fabd de43 76bd 398b e4bd bd0c d7bc
00000030: c863 7e3c 7c2b 1abe 43e3 d2bd 6e25 a9be
00000040: 299c 9e3d f26e 00bf 83eb 7a3e 9aac a73e
00000050: 6910 843d 91cf 1cbf 9813 8abe 2d50 8c3e
00000060: 2caf a73d 8ba9 2dbe 240e 94bd 28b8 85bc
00000070: 2687 d2bb 4cb1 b5bc 33a6 0d3e 7d53 55bd
00000080: 34aa 053e 67a9 093f 0329 b2bc 4cf8 a4be
00000090: acc1 b8be 722c 0fbe bd3b 05be 48a4 a0be
000000a0: 28e8 58bd 5f63 03be e803 9c3e 07ef 01bf
000000b0: 250f 543d d5e6 053e 77d1 adbe 869a 743e
000000c0: 6c86 023d a5da 263e 0cc1 ab3e ec07 50be
000000d0: 8e9b 3f3e d00d c3bd 6095 5dbd 012a 613e
000000e0: 628f c33e 3960 a13d 5c82 73be fa1c f43e
000000f0: 1e82 42bc 961a 9d3e 84d1 bebc 0922 ab3d
00000100: 8ef5 5abd ee82 e4bc b00b 45be 5581 9cbd
00000110: 5e3d af3c d44f c93d 3af6 12bd ade3 4a3e
00000120: 46d1 413e 8e20 ec3c c431 cd3d 8a1e 24be
00000130: 71b2 c9be 5927 95be 6a5c a33d 6269 0fbc
00000140: aff2 663d 02d7 413d 581f 823e d168 a03e
00000150: 055f e23d 1cdd 11be c868 0d3c 7f6d 2fbd
00000160: c41c 03be 06bc a33d caa3 3ebc 9e31 b23a
00000170: 3113 a4be 15fc 1fbe 05d0 a43e 853b dd3d
00000180: e526 3c3e e964 adbd ceb6 aabe 80d2 55be
00000190: 8199 8ebd ebab b8be 74b9 04bd 6253 1cbe
000001a0: 3bac 64be 3db4 503e 9502 40be cefc 383e
000001b0: 360c 0abf 1dd2 c53e 147d c53d 999e cdbe
000001c0: dcf4 b2bd 545e de3d e47d 37be 0bfe 41bd
000001d0: 5066 383a cc60 64be 1644 90bd dbb8 94be
000001e0: 2fa3 29bd 2914 463d 5537 993c 8fd4 b5be
000001f0: 908c db3d af86 9d3e 0c31 49be dec4 4bbd
00000200: 489e 473e 0cd6 b43e 0693 823e bebd 85be
00000210: 927a 493e a6cf c9bc d660 953e 130d a8bd
00000220: 04ac ccbb 8fc1 e8be c07c e2be 352c d63e
00000230: 0dba 1ebf fe5e e63c 4d4c 0d3c e8ae 5d3e
00000240: 141c c73e e6f4 233d 5ff7 cebc 8cee 57be
00000250: 7fde a53e c253 0b3d 436e 843e b3f7 8f3e
00000260: bab1 863e de18 59be 90ed c3bb 5193 5a3e
00000270: f85c 893b f404 d63c dffc ac3e 8921 833c
00000280: d740 083e 814c c4bd 8c0d 1dbe b095 5abd
00000290: 5c07 73bd aaae 303e e13e 66bd 59f3 bdbd
000002a0: 8d97 c2be f2ec abbd b209 6c3e 8354 7ebd
000002b0: 01f4 69be 72b0 70be 2355 833d 94b1 32bc
000002c0: eca3 1abc fed5 53be 3a6e a23e 0fcd c7be
000002d0: f795 9e3e d239 123e 969e 783d 9095 e33d
000002e0: d860 3cbd 2eab 9a3e 4ec1 86be 7d93 a43e
000002f0: 319f 01be 4fdb 8dbe 5d2e 043e 205b f03d
00000300: 1dca a33b 04f3 163d baf7 e8bd f288 3a3c
00000310: 0a12 a63e e6d2 f53d abbd 3a3e c9e0 25be
00000320: fff2 abbe daa6 bbbe 0286 7dbd c583 0ebe
00000330: 0d01 d2be b7fc 903e b3ef 86be 7666 3fbe
00000340: e6fd 8e3d 52aa dcbe 9835 453d e5ff 64bd
00000350: 02fc 3e3e 73f1 e73d e5bc 9c3d 91c1 4fbe
00000360: f4fe 88be 463d 9cbc 6a91 083e 7d59 68be
00000370: c7e5 b43e b10c f5be 422f 423e 52f0 dc3d
00000380: c508 853b efc5 933e fbac b8bd 16ae f9be
00000390: 294d 26bf 058e 2cbe f36c 043e 5445 cfbd
000003a0: 3e9b 8abe 2ddd 903e 26fb 1cbe 1f19 873a
000003b0: 7e03 7ebe 40f4 133d ddd0 5f3e ccd0 4cbe
000003c0: 30fb 873e d831 c73d 6b2c 643e b9bd 783e
000003d0: 2056 9f3d 7936 5cbd 7b97 69bf 0258 733e
000003e0: cd61 81be 63dd cc3e 3f38 4a3d b433 a6be
000003f0: 86d6 23be 4c5a 433d 4b72 863d f88f ae3e
0.3051489 0.21079469 -0.19268914 -0.05591501 -0.18924694 -0.11644292 0.12686794 0.1412976
-0.122298785 -0.060123317 -0.11159367 -0.026251191 0.015526719 -0.1505565 -0.10297253 -0.3303637
0.07744629 -0.5016929 0.24503903 0.32748872 0.064484425 -0.6125422 -0.26968074 0.2740492
0.08187708 -0.16959207 -0.072292596 -0.016323164 -0.0064248024 -0.022179268 0.13832931 -0.052081574
0.13053209 0.5377411 -0.021748072 -0.32220685 -0.3608526 -0.13981798 -0.1301107 -0.31375337
-0.052955776 -0.12830876 0.3047173 -0.5075535 0.051772255 0.13076337 -0.33948871 0.23887071
0.031866476 0.16294344 0.3354572 -0.20315522 0.18711683 -0.09524119 -0.054097533 0.2198868
0.3819533 0.07879681 -0.23780197 0.47678357 -0.011871843 0.30684346 -0.023293264 0.08356101
-0.053456835 -0.027894463 -0.1924274 -0.076418556 0.021391567 0.09829679 -0.03587935 0.19813414
0.18927488 0.028824117 0.10019258 -0.16027275 -0.39393952 -0.29131582 0.07976611 -0.008753153
0.056383785 0.047324188 0.25414538 0.3132997 0.1105328 -0.14244503 0.008630939 -0.042829033
-0.12803942 0.07994847 -0.01163573 0.0013595109 -0.32045892 -0.15623505 0.32189956 0.10802368
0.18374212 -0.08466513 -0.33342594 -0.2088108 -0.06962872 -0.36068663 -0.032403424 -0.15266183
-0.22331326 0.20381255 -0.18750985 0.18065187 -0.5392488 0.38636866 0.096429974 -0.40160063
-0.087381095 0.108578354 -0.17919117 -0.047361415 0.0007034289 -0.2230255 -0.07044236 -0.29047284
-0.04141539 0.04835907 0.018703142 -0.35513732 0.107201695 0.30766818 -0.19647616 -0.049748294
0.19493973 0.35319555 0.25502795 -0.26121324 0.19675663 -0.024635147 0.29175442 -0.08205619
-0.006246092 -0.45460173 -0.44235802 0.41830602 -0.6200264 0.028121468 0.008624149 0.21648753
0.3888861 0.040028475 -0.02526444 -0.21087092 0.32396314 0.034015425 0.25865373 0.28118667
0.2630747 -0.21200892 -0.0059792474 0.21345259 0.004191991 0.026125409 0.33786675 0.016007202
0.13305984 -0.095849045 -0.15337199 -0.05336541 -0.05933319 0.17254129 -0.05621231 -0.092749305
-0.3800625 -0.08394803 0.23050573 -0.062092315 -0.22846986 -0.23504809 0.06412723 -0.010906596
-0.009438496 -0.206871 0.3172472 -0.39023635 0.3097379 0.14279869 0.060698114 0.11112511
-0.045990795 0.30208725 -0.26319355 0.32143775 -0.12658383 -0.27706382 0.12908311 0.11736131
0.004998459 0.03685285 -0.11375375 0.011385189 0.32435638 0.12003116 0.18236415 -0.1619903
-0.3358383 -0.36650735 -0.061895378 -0.13917454 -0.41016427 0.28317806 -0.2635475 -0.1869143
0.06982021 -0.43098694 0.048146814 -0.055908103 0.18650821 0.1132535 0.07653216 -0.20288683
-0.26757014 -0.019072186 0.13336721 -0.22690387 0.35331556 -0.47861245 0.1896334 0.10788025
0.0040598833 0.2886195 -0.090173684 -0.4876563 -0.6496149 -0.16851051 0.12932186 -0.10120645
-0.27071565 0.28293744 -0.1533018 0.0010307169 -0.2480602 0.036121607 0.21857019 -0.20001525
0.26558828 0.09726304 0.22282569 0.24291123 0.07780099 -0.053762887 -0.91246766 0.23764041
-0.2526993 0.40012655 0.049370047 -0.3246132 -0.15999803 0.047693536 0.065647684 0.34094214

lstm1.bias_ih_l0 f4 [256]
00000000: 5c5f 8abe 71ae 0dbf 49e0 e4be 1a17 583e
00000010: 9d39 0dbd a449 5b3d fadf 7e3e 9c91 01bd
00000020: 7271 5d3d b365 7ebd 8f86 b63e beff bebd
00000030: 1bb1 253d 5e1f 3bbc d1b5 11be 8976 a9be
00000040: 7981 2cbe 14b2 5f3e 9a54 263e 7b57 6ebc
00000050: fa33 3dbd 311f 9dbe 7196 113e 3c94 d0bc
00000060: 3570 84be 431c a43d 0391 243e 73d4 20be
00000070: 5091 cebe dee7 df3d a9db 12be 48b4 533d
00000080: 2639 6fbb 1abf 32bc 9b18 4c3e 5966 933d
00000090: 633c fc3b ca17 18be 7782 1abe 41e0 7b3b
000000a0: 187d 913c 3fae 813e 9565 833e 532c 17be
000000b0: 329d d43e ce5a 2abe dc08 f33e 66fe fdbd
000000c0: 3b8b 2b3d 5695 e7bd 16a7 88be b9ef 94bd
000000d0: 08d5 c93e 9377 92bd c85b 9e3d cad0 9abe
000000e0: 06c2 293e 8706 6dbd ba79 9e3c cb15 af3c
000000f0: c0b6 493e c50a 803d d963 fabe c297 83bc
00000100: 0bb5 70be 1c73 17be 114c 603e 5873 90be
00000110: 0ee4 3dbe e699 ffbe 222f 1fbe 9e9d 3bbe
00000120: 89c4 4e3e 55f7 ee3d 0d06 1fbf 0adf 313d
00000130: aa92 75be 6cfc 1cbd d6b4 bbbe 7229 3dbe
00000140: 4d71 f33b 4b49 0bbe bc9e b1be 6847 613d
00000150: 5d2f 11be 6430 b23d 1a06 52be 4639 093d
00000160: 5c7c a23d 9470 983b 16cc 88be a083 76be
00000170: e816 7d3f 1dbb 6abd b338 24be 9ee3 25be
00000180: 53e5 9cbe b9c5 28be e945 7bbe f261 d1be
00000190: ca2f c53d 53f7 10be cce3 8bbe 8656 c3be
000001a0: ce0e 1fbe 9e73 83bd c210 b6bd 9a51 793e
000001b0: b4d0 5dbe 325b d53c c2e0 143c e2d0 da3d
000001c0: 352f 7abe 05ed d1bd 07c5 fabd 081b 23bd
000001d0: 9dda 97be 27ad b5bd 695e 833e 48b9 933e
000001e0: aadd cfbc 6688 903e 6ec1 3dbd 00e2 e1bc
000001f0: e60b a5be 876a 85bd 28fd 153e 8b3c 583e
00000200: 17b3 3fbe ddc5 993e f5eb 44be 837c 043d
00000210: c243 50be 64fb 053c 6b87 8abe 48e2 c0be
00000220: 019a d93c 5191 8bbc a2c4 8ebe f40e a2be
00000230: b2ff 15be 8746 2fbe bd1d 4abd fe00 74bc
00000240: dad4 eabc fc6d cebe c0d9 a5be 08ba 61be
00000250: 0ab4 33bd 87b4 bebc 056d 9abe b4b6 61be
00000260: ad39 66be 87ad 85bb 216e a2be 550d cebd
00000270: 087c bfbd 0342 b0be 86cd fdbd 225c 0abe
00000280: d33a f23c d504 85be c9b0 f8be 70fc f7be
00000290: 4bed 403e db58 33be f308 ebbc b8ce f9bd
000002a0: 5ce4 063e 06ba c4be 4ab2 e93d 3cab f7bc
000002b0: 97cd d6be bc1c 02be 555c 18bf 2668 01be
000002c0: 0687 7abe b9ad b7bd cca8 0a3d b056 143a
000002d0: 14b9 dabd 62ae aabb 6b7d a0bd c48d 7cbd
000002e0: ce69 85be ff2f 8abd c832 83be db8d 92bd
000002f0: 8ef0 98be 5dc3 b2be 119d 223e 7509 023e
00000300: 7944 babe 7649 4cbe 70df 7ebe a76b 83be
00000310: 02ae f53c dcad 5cbe abbb 42bc 5444 3fbe
00000320: 948c 81bd cea3 8ebd 04f5 f43d db4f 9ebd
00000330: 20a1 1b3e 8bd2 c8bd ab16 58be f4e1 59be
00000340: 5d5a 55be db4d 2f3e 948b 8ebd d700 4ebe
00000350: 5996 333c 15d4 fabd a758 f5bd 09fb 09be
00000360: 71b6 d6be 6981 59be 496e 673e 72f3 3bbe
00000370: 4cd4 cb3c e158 7dbd 01b1 85be c0d7 3e3d
00000380: 2d4a 3cbe 9cb3 5fbe 9240 c63d 391b 7fbe
00000390: 01f9 93be 8c37 403c 0568 ecbe 5645 06bf
000003a0: 4e6c 10bf 9231 003e 4969 34be 5d67 ccbd
000003b0: 5c88 983e 0e37 23be cd8e a2bd 3933 4dbe
000003c0: 49f6 d2be cfc5 e8bd cbab 42be 16fa 5ebe
000003d0: eea4 733e 3f16 88be 2928 4abd 90de d1bd
000003e0: 97e8 f13d b921 97be e253 a9be fb6c 3bbe
000003f0: 7005 8fbd c5f5 4abd 75d2 f4bd 19e3 92bd
-0.27025878 -0.553443 -0.44702366 0.21102563 -0.034478772 0.053537026 0.24890128 -0.031633005
0.054063268 -0.062108707 0.35649535 -0.09326123 0.040452104 -0.011421053 -0.14229514 -0.33098248
-0.16846265 0.21845275 0.1624321 -0.014547224 -0.046192147 -0.3068786 0.14217545 -0.025461309
-0.25866857 0.08013203 0.16070943 -0.15706043 -0.4034524 0.10932897 -0.14341606 0.0516856
-0.003650257 -0.01090982 0.19931261 0.07197256 0.0076976283 -0.14852825 -0.15088831 0.0038433226
0.017759845 0.25328252 0.25663438 -0.14763002 0.4152618 -0.16636202 0.47467697 -0.12402038
0.041880827 -0.113077804 -0.26689976 -0.07272286 0.39420342 -0.07151713 0.0773235 -0.30237418
0.1657792 -0.057867553 0.019345153 0.021372696 0.1969862 0.06252054 -0.48904303 -0.016063575
-0.23506562 -0.14790004 0.21904017 -0.28213 -0.18544027 -0.49922103 -0.15545323 -0.18321845
0.2019216 0.116682686 -0.6211861 0.043425597 -0.23981729 -0.038326666 -0.36661404 -0.18472841
0.007429278 -0.13602178 -0.34691417 0.05499974 -0.14178224 0.08700636 -0.2051014 0.033501886
0.07933876 0.0046520922 -0.26718205 -0.24073648 0.9886308 -0.05730735 -0.16037254 -0.1620011
-0.3064371 -0.16481675 -0.24538387 -0.4089504 0.09628256 -0.14156847 -0.27322233 -0.3815195
-0.15532991 -0.064185366 -0.08889915 0.24347535 -0.21661645 0.026044462 0.00908679 0.106843725
-0.2443207 -0.10250286 -0.12244611 -0.0398207 -0.29658976 -0.08870917 0.25657967 0.28852296
-0.025374252 0.28229064 -0.046327047 -0.027573586 -0.3223564 -0.06514459 0.14647353 0.21116845
-0.18720661 0.3003377 -0.19230635 0.032345306 -0.20338348 0.008177612 -0.2705644 -0.3767264
0.026562693 -0.017037066 -0.27884394 -0.31652033 -0.14648321 -0.17116748 -0.049344767 -0.014892815
-0.028665949 -0.40318286 -0.32392693 -0.22043622 -0.04387287 -0.023279442 -0.301613 -0.22042352
-0.22482939 -0.004079524 -0.31724647 -0.10061137 -0.09349829 -0.34425363 -0.12392716 -0.13511708
0.029569065 -0.2598025 -0.48572376 -0.48434782 0.1884052 -0.17514364 -0.02869079 -0.121976316
0.1317305 -0.38423175 0.11410959 -0.030233018 -0.41953728 -0.12706274 -0.5951589 -0.12637386
-0.2446557 -0.08968682 0.033852383 0.00056586694 -0.10679832 -0.0052087763 -0.078364216 -0.061658636
-0.26057285 -0.06747436 -0.2562468 -0.07155963 -0.2987103 -0.34914675 0.15880229 0.1269892
-0.36380365 -0.19949898 -0.24889922 -0.2566807 0.0299902 -0.21550697 -0.011885564 -0.18678409
-0.06325641 -0.06964837 0.119607955 -0.07730075 0.15198183 -0.09805783 -0.21102397 -0.212776
-0.20835252 0.17119543 -0.06960216 -0.20117508 0.010961139 -0.12247483 -0.119798 -0.13474669
-0.41936067 -0.21240772 0.22600664 -0.18354586 0.024881504 -0.06185234 -0.26111606 0.046592474
-0.18387671 -0.2184586 0.096802846 -0.24912728 -0.28900912 0.011731993 -0.4617311 -0.5244955
-0.5641526 0.1251891 -0.17618288 -0.099806525 0.29791534 -0.1593897 -0.07937393 -0.20039071
-0.41203526 -0.11365854 -0.19010846 -0.21775088 0.23793384 -0.26579472 -0.049354706 -0.102475286
0.11811941 -0.29517916 -0.3307181 -0.18303291 -0.06983459 -0.04955079 -0.11954204 -0.07172222

lstm1.bias_hh_l0 f4 [256]
00000000: 423a 9ebe 2f75 25bf ce9a afbe 1e8c 093e
00000010: 674e 80bd b86a 02be 8658 493e 90b6 bebd
00000020: e8cc 4cbd 27d0 a2bd ab12 ed3e 80b0 05be
00000030: 08f2 5c3e be27 d1bd 270f 07be 628c 06be
00000040: bb78 52be c108 223d 9e09 003e b684 6c3d
00000050: f6b1 48be e4fc dcbe 6cc6 4b3d e2a0 8bbd
00000060: 0c4b 61be 7742 153e 6aa3 b33e 8e3a 5ebe
00000070: 0e2a ccbe e6dc f4bd 41b5 3dbe fdff 96bd
00000080: e2d8 8d3d b11f fd3d d2ff 8b3e 7add 143c
00000090: 97da b8bd 1e93 4bbe f397 efbd af8c e73d
000000a0: ef70 a03d 0396 763e bccc ae3e 4e9e 5abe
000000b0: 6fe5 663e 92fb 093d 5819 a13e 19df 7dbd
000000c0: 7132 813e 896e 2ebe 781f 99be 54b4 8abe
000000d0: 56de c73e fa71 7fbd 8588 823d a8c3 1bbe
000000e0: 92ca 013e 5f83 4dbc 0828 0b3d 2c98 9bbd
000000f0: 5dbd a73e ed1a 963d bc52 01bf 90dd ed3c
00000100: 3f7f 4fbe 6506 49be 91e1 d93d bdce c7be
00000110: f072 bbbe 77e1 c8be 90ee 86bd 535d ebbd
00000120: 8ab5 6d3e f818 123e 42fd 04bf e67f 823d
00000130: 503c 49be 587e 12bd 78e7 b5be 1208 3ebe
00000140: 5ae4 693c 3034 9cbd 20bb 77be 1e64 9dbd
00000150: 3a87 9bbd 72db 09bc f519 e9bd 44d3 e4bd
00000160: b058 c53d a7b4 2c3e 242d 9bbe 6480 70be
00000170: aae4 8d3f 6de0 1cbd b2bb edbd 40cf 47bb
00000180: 85cb c1be a15d 3ebe 42da 84be a8ee cebe
00000190: f491 0fbd ca50 553d 900b ebbd c8aa 83be
000001a0: b2ae 55be 2752 60be 0325 ecbd 428e 6d3e
000001b0: 08b4 80be 74af 0abe e1c0 793d 3cc7 0c3c
000001c0: d704 c7be 7bd1 04bd 0281 09be 96e4 943d
000001d0: d326 babe 79df 11be b0e2 263e e0c6 3d3e
000001e0: 4d7f 28be 7025 633e c49a f2bc a9ce 213e
000001f0: 0a77 f0bd 1b2e d1bc aa75 683e 7c87 913e
00000200: b87c a4bd 0cf7 8e3e 543e 39be b10d f5bd
00000210: 5485 12be 4847 3a3e a02f aabe 54ca c1be
00000220: 465b 36bd dbde 823c e1c7 5cbe 88f8 8bbe
00000230: dc43 31be b203 81be 00d7 b7bd af8a ebbd
00000240: 83b0 e4bd a808 f4be 07ec 06bf 9703 94be
00000250: 1645 4e3c 9cd0 b5bd d30a 8bbe 6b90 a5bc
00000260: 4927 27be caf8 f5bc 495d c5be 0982 d5bd
00000270: 0c76 a6bc a772 bebe 0441 a63d f057 93bd
00000280: 1847 91b9 8276 02be d931 fdbe 949b ecbe
00000290: 2967 1bbd 1155 01be 0512 683d a397 e6bd
000002a0: fecf 763e d244 d6be dd61 9d3e 3b5b 5cbd
000002b0: 9d63 b9be acc0 93bd 5e4e 33bf 5805 cbbd
000002c0: 8b93 6dbe 22e0 313d aed5 d03d a0d2 cdbd
000002d0: 17e7 95be 63a2 aebd 83ca aabd 16ff 6fbd
000002e0: 14aa ccbd e3b3 003d 8111 5dbd ead5 2fbe
000002f0: 14d8 bbbe 3148 b8be 4a94 283e 2696 37bd
00000300: 49cb cebe 1273 32be 246f e8bd 8502 a1be
00000310: 5a9c 09be f474 66be 63d6 a1bd a63b ae3c
00000320: 68cc 57bd cd09 0cbd f5b4 703d 3763 84be
00000330: b8ba 8f3e 1e16 50be beab b1be fefe 76be
00000340: 6691 87be 2e2d 273d a7ce 593d 8c82 19be
00000350: e098 483d c679 48bd 145b a8bd 6727 7abe
00000360: c9ba 91be 3321 c9bd 4302 0a3e 0b06 67be
00000370: 8a8b ce3d 272f c3bd 48fb 87be 1c25 91bd
00000380: aae7 9bbe a418 78be 013b 5e3d 981b f7bd
00000390: d230 0bbe 204f 9e3d 88f7 cabe b401 c2be
000003a0: 9097 f2be e6d2 433e 5804 d8bd 16a8 a9bd
000003b0: d3e3 983e 432d 86be 9c60 35be 8a14 41be
000003c0: 5d7d bfbe c12b 0f3d 5029 74be 86c3 c4bd
000003d0: 0295 6a3e 116e c8be 253d fa3d d39d 1cbe
000003e0: 947a ecbc 6c98 94be 27ae 97be 8547 63bd
000003f0: a086 673c cfe0 52bd ab16 58bd 573f 903c
-0.30903822 -0.6463193 -0.34297794 0.13432357 -0.06264954 -0.12736022 0.19662675 -0.09312165
-0.0500001 -0.07949858 0.46303305 -0.1305561 0.21576703 -0.10212658 -0.13189374 -0.1313949
-0.20553868 0.03955913 0.12503669 0.05774375 -0.19599137 -0.4316169 0.049749777 -0.06817795
-0.22001284 0.14576136 0.35085613 -0.21702024 -0.39875835 -0.119561955 -0.18526174 -0.07373045
0.06926133 0.1235956 0.27343613 0.009086007 -0.09026068 -0.1988034 -0.11698904 0.1130613
0.078340404 0.24080662 0.34140575 -0.21349451 0.2254846 0.03368718 0.31464648 -0.06198034
0.25233796 -0.17034353 -0.2990682 -0.27090704 0.39036816 -0.062364556 0.06373695 -0.15211356
0.1267493 -0.012543528 0.033973724 -0.07597384 0.3276166 0.073293544 -0.5051687 0.029036313
-0.20263384 -0.19631346 0.106387265 -0.39024916 -0.36611128 -0.39234516 -0.06588471 -0.114924096
0.23213783 0.14267337 -0.5194894 0.06372051 -0.19651914 -0.035765022 -0.3552816 -0.18557766
0.014275635 -0.076271415 -0.24192476 -0.076851115 -0.07594152 -0.008414136 -0.11381904 -0.11173108
0.096360564 0.16865788 -0.30307877 -0.23486477 1.1085408 -0.038299967 -0.11608066 -0.003048852
-0.37850586 -0.18590404 -0.25947767 -0.40416455 -0.0350513 0.052079 -0.11476815 -0.25716233
-0.20867422 -0.21906339 -0.11530497 0.23198798 -0.25137353 -0.13543493 0.06097496 0.008592423
-0.3887088 -0.03242634 -0.13428119 0.07270162 -0.36357746 -0.14245404 0.16297412 0.18532896
-0.16454811 0.2218225 -0.029614814 0.15801491 -0.11741455 -0.02553468 0.22701135 0.2842368
-0.08031601 0.27922857 -0.18090183 -0.11965502 -0.14308673 0.18191254 -0.3323946 -0.37849677
-0.04452064 0.015975406 -0.21560623 -0.27338052 -0.17311043 -0.25198132 -0.08976555 -0.11501061
-0.111664794 -0.47662854 -0.527039 -0.2890899 0.012589714 -0.0887768 -0.27156696 -0.020210465
-0.1632358 -0.030025858 -0.38547733 -0.10425193 -0.020319961 -0.37196848 0.081178695 -0.07194507
-0.00027709524 -0.1274052 -0.49452093 -0.46212447 -0.037940178 -0.12630107 0.05665781 -0.11259391
0.2410278 -0.4184938 0.30738726 -0.05379794 -0.3620881 -0.072144836 -0.70041454 -0.099131286
-0.23200814 0.04342664 0.10197006 -0.10049939 -0.2927787 -0.085270666 -0.08339407 -0.05859288
-0.09993377 0.031421553 -0.05397177 -0.17171445 -0.36688292 -0.35992578 0.16462818 -0.044820927
-0.4038947 -0.17426708 -0.113493234 -0.31447235 -0.1343855 -0.22505552 -0.07902219 0.021268677
-0.05268517 -0.034189034 0.058766324 -0.25856945 0.28072143 -0.20320937 -0.3470134 -0.2412071
-0.26478118 0.04081457 0.053175595 -0.14991206 0.048973918 -0.048944257 -0.08220497 -0.24429093
-0.28462818 -0.098207854 0.13477425 -0.22560899 0.10085209 -0.09530478 -0.265589 -0.07087156
-0.30450183 -0.2422815 0.05425549 -0.1206581 -0.13592842 0.07729936 -0.39641976 -0.37891924
-0.47381258 0.1912342 -0.105477035 -0.08284013 0.29861316 -0.26206407 -0.17712635 -0.18855491
-0.37400332 0.034953836 -0.23843884 -0.09607606 0.22908404 -0.39146474 0.12218694 -0.1529458
-0.028867044 -0.2902254 -0.29625055 -0.05548813 0.014131218 -0.051483925 -0.052755993 0.017608328

lin1.weight f4 [256, 64]
00000000: a02a 983c 073f a1be 72fc d5bd 965d 3fbe
00000010: 1769 8a3d 3c8d 223e ed9a ebbd 87f9 c8bd
00000020: b8a5 cf3c 5c23 86be 2ac7 32bd 3e18 69be
00000030: 3874 9ebd f865 f1bd ec4f 62be a8f1 eabc
00000040: 96b2 d23d 6acc 6fbe fc9f 34be 40a3 3bbe
00000050: 8e0c 2b3d f6ab 35bd 5b42 d7bd 1257 8ebe
00000060: eca3 be3d 0c8d 35be ffd3 36be 255c a1bd
00000070: 8cac 8dbe 327e 40be f7a7 ffbd 98ea acbd
00000080: 6aeb 8fbe 9e6e 473d 9905 70be 0235 ea3d
00000090: 0047 fc3b 9b15 963d 4a00 a63d 124d a3be
000000a0: f862 d6bd 266e 2c3d e2db 08bd 5053 d23b
000000b0: 66a8 d73d b15d 3cbe 9d15 843d 6b5c c7bd
000000c0: 60c4 7cbe cc59 1e3d b650 0fbe 1bcb 06be
000000d0: 008c 9ab9 a6e9 7bbd bc46 b83c e270 94be
000000e0: 3ac7 0dbe a8ad eebd da22 433d 9fa0 b0bd
000000f0: db1f 2ebe 1755 62be 2091 f1bd 4ab4 b2bd
00000100: e367 363d 8cab aabb 012b 80bd dfbc 5cbe
00000110: 99f8 80bd ba3c a53d d0eb 97be 8805 ce3d
00000120: db95 53be 6cd8 bc3d 089b 253e 36f2 3dbe
00000130: 6ca2 b4bc ea29 db3c 4bff 8dbe d278 d13b
00000140: ea19 f7bd 08e4 c13d e280 19be 62ab 09be
00000150: 825b d3bd 140a 2dbe cd3e 8a3d e786 05be
00000160: c0eb 01be a850 753d 32eb 8d3d dea9 15be
00000170: 283b 7b3c bca6 e8bd de3e 01be 5d96 62bc
00000180: b437 6b3d 9de7 94bc 1e87 4e3c f335 fa3d
00000190: aa68 e9ba a354 87bd 44dc 8f3d 3cea bebd
000001a0: fb39 51be 2175 f9bd 485f 92be 45ef 40be
000001b0: 9e22 8dbd 06fa 15be 9646 8fbd d126 1fbe
000001c0: 3f62 ab3d faa6 63be dd7a dabc d31f 8fbe
000001d0: b2d6 5fbe 1c17 ebbd 2a72 22bd 7541 09bd
000001e0: 624d 323c 4245 f8bc b38a 63be 7d30 aebe
000001f0: 5ec6 863d 9fc2 dbbd e7f5 dbbd c71c 4abe
00000200: be2c 603e 3c76 90be ccbb 42bb 1cb1 4abd
00000210: 2b36 f0bd 445f 6dbe 864a 02be 5a32 2fbd
00000220: 6842 09be 5a82 60be c8b5 1fbe 6033 cebc
00000230: 6a94 b2bd 3035 3b3e 821e e23c 5a73 233e
00000240: fc0b 37bd 013a 2dbd 13ba 7a3d 5e3b 9ebd
00000250: 6d27 fbbd a22a 06be aba4 9ebc f334 05bd
00000260: 2006 6ebd a0fe 45be 9704 cfbd 6744 08bc
00000270: aa08 edbd fa6d 86bd 74f9 f93d 0fe8 9abe
00000280: a4e1 a23c e323 20bc 669f b33c 0d0f 91be
00000290: 00d0 0e3c 42b4 7fbe b01d 51be 3f9a 923c
000002a0: 2ae8 d0bd 0233 e0bc 9435 03be 3946 91be
000002b0: 0cb0 11bd 064a 5c3d 050f e4bc 6490 0a3e
000002c0: 18fc b33d 3b9e 86be 3cf2 57be 405e 14be
000002d0: d45e 363e fb6c 903e dae3 68bc c2e5 04be
000002e0: 582d e8bc d8ff 54bd 043a 83be f16e 29bc
000002f0: e61b 50be 2d99 6b3c 1615 22be d3af a7be
00000300: 30f4 dd3b 2cd0 c73c 67ab 9e3d 60eb 40be
00000310: 1faa dabd 60f1 043b a68a 923d a4dd 263e
00000320: d8db 3abe 5487 fbbc 9ef5 26be e818 143e
00000330: 048d 99bd 8bde 83be d75d 85be fcf0 debd
00000340: f99a 0dbe 5445 e6bd 06ee 6b3d 907e 61bc
00000350: fbf3 97bd 3054 bdbd b95b 82be 6f14 a0be
00000360: ce49 debd 6a13 37be e6e6 5a3e c286 96bd
00000370: 281e e4bd dcbc 56bd e00a 47bc 1b12 e93d
00000380: 5b28 84be ed0c a4bd 729c b5bd 70a4 563d
00000390: dfe1 b5bd 04e4 84be b0e6 91be b06d 23be
000003a0: 987b 57be 9b58 03be 6826 fb3c f0f2 8dbe
000003b0: 8ccc b8bc 38fe 5bbc 6fb9 f93d 441f 24be
000003c0: 10d4 41bc a55f c8bd 9caf c7bd 761a 51be
000003d0: 7da6 4cbe 211c c53d 3eb0 a0bd cb41 61be
000003e0: b847 82bd c0af b6bd 9fab 0a3d 429b e5bd
000003f0: 0495 42bd fc54 45be 1f2f 0cbe 9e66 41be
0.018575013 -0.314934 -0.10448541 -0.18688044 0.067583255 0.15874189 -0.11504159 -0.098132186
0.025347576 -0.26198852 -0.04364697 -0.22763154 -0.07737011 -0.11787027 -0.221008 -0.028679684
0.10287969 -0.23417822 -0.17639154 -0.18323994 0.04176002 -0.044353448 -0.10510703 -0.27800804
0.09308609 -0.17729586 -0.17854308 -0.07878903 -0.27670705 -0.1879814 -0.124832086 -0.08443183
-0.28109294 0.048689477 -0.23439635 0.11435892 0.0076988935 0.0732834 0.08105524 -0.31894737
-0.104680955 0.042097233 -0.03341282 0.006418623 0.10530166 -0.18395115 0.06449435 -0.09734424
-0.24684286 0.038659856 -0.13995633 -0.13163416 -0.00029477477 -0.06150212 0.022494666 -0.28992373
-0.1384553 -0.11654216 0.04764066 -0.08624386 -0.1700434 -0.22102772 -0.117952585 -0.08725794
0.044532668 -0.0052084383 -0.06258202 -0.21556424 -0.06297416 0.08068223 -0.29672098 0.10059649
-0.20662634 0.09220967 0.16172421 -0.18549427 -0.022050105 0.026753385 -0.27733836 0.0063925767
-0.120654896 0.09467322 -0.14990571 -0.13444284 -0.10320188 -0.16898376 0.067502595 -0.13039742
-0.12687588 0.059891373 0.069296256 -0.1461558 0.015333928 -0.11359927 -0.12621638 -0.013829795
0.05742617 -0.018176848 0.012605457 0.12217321 -0.0017807682 -0.0660794 0.07024434 -0.093220204
-0.20432274 -0.12180544 -0.2858832 -0.18841274 -0.06891368 -0.14646158 -0.06995885 -0.15542151
0.08368348 -0.22231665 -0.026669914 -0.27953967 -0.21859244 -0.11479017 -0.039659657 -0.03350969
0.010882707 -0.030306462 -0.22220878 -0.3402137 0.06580804 -0.107304804 -0.107402615 -0.1973754
0.21892068 -0.28215206 -0.0029713986 -0.04948531 -0.11729082 -0.23180872 -0.12723741 -0.04277263
-0.13404238 -0.21924725 -0.15596688 -0.025170982 -0.08719714 0.18282008 0.027602438 0.15961972
-0.044689164 -0.042291645 0.06121261 -0.07726167 -0.12263379 -0.131022 -0.01936563 -0.0325212
-0.05811131 -0.19335413 -0.10108297 -0.00831709 -0.11573918 -0.06563945 0.122057825 -0.30255172
0.019882984 -0.009774181 0.021926593 -0.28331795 0.008716583 -0.24971107 -0.20421481 0.017895816
-0.10200532 -0.027368072 -0.12813407 -0.28373888 -0.035568282 0.05378153 -0.027839193 0.13531643
0.087883174 -0.26292595 -0.21088499 -0.14489079 0.17809612 0.28208145 -0.01421448 -0.1297827
-0.028341934 -0.052001804 -0.256302 -0.010341392 -0.20323142 0.014379782 -0.15828356 -0.3275133
0.006773494 0.024391256 0.07747536 -0.18839788 -0.10676979 0.0020285472 0.07155351 0.16295487
-0.18247926 -0.030704178 -0.16304633 0.14462626 -0.074976 -0.25755724 -0.26048157 -0.10885808
-0.13828649 -0.11243692 0.057600044 -0.013763085 -0.074195825 -0.09244573 -0.25460604 -0.3126559
-0.10853921 -0.178785 0.21377143 -0.07349922 -0.11138564 -0.052426204 -0.012148589 0.113804065
-0.2581204 -0.08010278 -0.0886773 0.052402914 -0.08880972 -0.25955212 -0.28496313 -0.15959811
-0.21043241 -0.12826769 0.030657962 -0.2772441 -0.022558473 -0.01342731 0.12193572 -0.16027552
-0.011830345 -0.09783868 -0.09750292 -0.2042025 -0.19985385 0.09624506 -0.078461155 -0.21997754
-0.063613355 -0.089202404 0.033855077 -0.11211254 -0.047505394 -0.192707 -0.1368985 -0.18886802

lin1.bias f4 [256]
00000000: f087 ecbd 4a76 c5bd e361 49bd d7d6 2fbe
00000010: 0d76 59be 12cc 23be 156d c1bd b2c1 63bd
00000020: 5f4e babd f2fa 9dbd 4501 c3bd b64b 0fbe
00000030: 63e5 99bd e1e2 d2bd a49b 893d cac5 10bd
00000040: bfa0 18be bf01 59be 7070 67be 84b2 74bd
00000050: 4238 d1bd 902f c0bd 3e24 c4bd 6a28 3dbe
00000060: 9c7d 17be 94de 0dbe cc0c 9dbd 428e dbbd
00000070: 3c08 b8bd 0bed 5fbe 0907 e2bd 4add 833b
00000080: 9e2a 18be 6e7d 45be 2cfb 5abe 38bb 89bd
00000090: 15a9 15be 602b 1ebe 9960 20be 4095 06be
000000a0: e162 42be d15a 20be 061d c2bd 6c22 37bd
000000b0: 3c0e 11be e88c f3bd 34ba e0bd aedd 56be
000000c0: 8ed1 b5bd deb2 e3bd d8a0 3abe ebe6 cdbd
000000d0: ae53 26be c267 93bd d8d6 19bd 08ea efbd
000000e0: f00d 7bbe d1b2 5abe dc00 66be 0c33 a5bd
000000f0: e249 8ebd 8c56 91bd 0a11 c1be 11f0 35be
00000100: 1500 cbbd a87a 48be b76c 9dbd d658 93bd
00000110: 77ae 80be e8c6 1ebe 8ec7 2bbe 6a3a f4bd
00000120: 0606 88be da50 e0bd 0933 10be 16d0 0fbe
00000130: 5361 90bd f20d 31be 9fe4 99bd 6965 85bd
00000140: 5692 2dbe bfc7 13be 2a03 bcbd f088 8fbd
00000150: 26fb 51bd d2f7 95be b81d a2bd d60e 59be
00000160: 0f62 e4b9 c25c 483c c24e 3fbe dd2b 82be
00000170: 0a9f 4ebe 857d 4bbe 6aee 59be d509 9cbe
00000180: 97be 21bd 2b8b aabd 2d3c 31be 8e0a 1bbe
00000190: 7da5 0fbd d8cf 05be de5f 20be 7a4f c1bd
000001a0: 5947 28be ba56 acbd 027e 82bd d268 8abd
000001b0: 9833 7fbe accc 5bbe 968f 3cbe 47b6 bebd
000001c0: ecb2 54be f330 e2bd 763c 1dbe f097 84bd
000001d0: f50b 16be 70ab 493e bebe 00be cbbc 87bd
000001e0: 7342 d4bd e319 73bd 5264 cabd c158 afbb
000001f0: a65b 24bc 3541 86bd 6252 b7bd c02f 8ebd
00000200: eda5 a0bd c86e 2cbe 8609 2cbd 98b2 81be
00000210: 348d 3bbd 296c aabd 2c81 91bc ca53 62be
00000220: 9b58 89be 57d6 1ebe a40c 64be f602 99bd
00000230: 0a58 44be 4cd6 04be d149 25be cf89 44be
00000240: 9a4a 56be 4b79 55be b809 29bd fef7 69bd
00000250: 85c7 e5bd 90a5 9bbc fa81 0bbe 5255 32be
00000260: 8c43 093e 9a2d f4bd 237a 11be b872 21be
00000270: a0b9 50be 1879 64be 2222 2ebe 0b12 80bb
00000280: a496 163d dd51 e2bd faf6 01be 7b7b 0fbe
00000290: e019 48be 884c 43be 609d d4bd 2a60 f1bc
000002a0: 4baf 1ebe bcf5 03be e970 3cbd 0854 0dbe
000002b0: 2973 12bd 7101 a4bc 76f5 1e3d 7781 17bd
000002c0: 892d 0ebe 327e f2bd 6421 18be 1a34 27bd
000002d0: 22b3 d5bd c941 47be a5e2 4dbe f9ab 56be
000002e0: 44bb 3cbe 8e49 13be bdfb 91bd 9b2f 5dbd
000002f0: f29e 6bbe a26d 28bd c695 54be c4e7 2dbe
00000300: 58ed 22be e455 f6bd 426f 49bc d20a 2abe
00000310: 667a f0bd 502d 45be 7ebb 07be f2cc 78bd
00000320: 05d8 66bc ea96 debb c077 41bd f79e babc
00000330: 0866 2fbe a0f8 e1bd 4d38 d3bd c611 24be
00000340: 3a8f 2bbd a41c d2bd 6eae 81bd f6f3 1d3d
00000350: 7215 f8bd 7a7f 48be d279 29be ece3 0abe
00000360: d020 50be 2e32 9dbd feaf b2bd 1860 31be
00000370: f383 45be c25b 17be 323b 10be 88bf a7bd
00000380: 9c92 fabd d5f2 25be c0ca 2fbe 40f9 5fbe
00000390: aae8 d8bd 5a8d f9bd e725 15be b7a8 05be
000003a0: c0a4 fabd 3f29 a5bc da03 eebd b6b5 02bd
000003b0: f2a5 37be 4db1 a6bd 3b26 46be 7b20 ab3d
000003c0: cc29 0cbe 090c 1abe aa56 78bd fa6c 9fbd
000003d0: 624c c8bd 4f0e 6abe fb3c 13be 20bf 4cbd
000003e0: c6ba 06bd 8210 3bbe 5f54 5dbe 2278 2cbc
000003f0: 414a 2abd 1c8f 60be 1c5f 75be 72de bdbd
-0.115493655 -0.096417025 -0.049165618 -0.17171799 -0.21236439 -0.15995815 -0.09444634 -0.055604644
-0.09096979 -0.0771388 -0.095217265 -0.13993725 -0.07514455 -0.1029718 0.06719139 -0.035344876
-0.1490507 -0.21192072 -0.22601485 -0.05974056 -0.102158085 -0.09384072 -0.09577225 -0.18472448
-0.1479401 -0.13854438 -0.076684564 -0.10720493 -0.089859456 -0.21867768 -0.11036498 0.0040241824
-0.14860007 -0.19286129 -0.21384877 -0.06725162 -0.14615281 -0.15446234 -0.15661849 -0.13142872
-0.18983032 -0.15659644 -0.09478192 -0.04471056 -0.14165586 -0.1189211 -0.109730154 -0.20983002
-0.0887786 -0.111181006 -0.1822542 -0.1005381 -0.16242859 -0.071975246 -0.037558407 -0.1171456
-0.24517035 -0.21357276 -0.22461265 -0.08066377 -0.06947686 -0.07096586 -0.37708312 -0.1776736
-0.09912125 -0.1957804 -0.07686751 -0.071946785 -0.25133106 -0.15505564 -0.16775343 -0.11925204
-0.26567096 -0.10952921 -0.14081968 -0.14044222 -0.07049813 -0.17290476 -0.07514309 -0.06513483
-0.16950354 -0.14431666 -0.09180291 -0.07008541 -0.051264904 -0.29290634 -0.07915825 -0.21197066
-0.00043560608 0.012229146 -0.18682387 -0.2542409 -0.20177856 -0.198721 -0.21282354 -0.3047625
-0.0394884 -0.083273254 -0.17308111 -0.15140745 -0.03506993 -0.13067567 -0.1566157 -0.09438987
-0.16433467 -0.08414979 -0.0637169 -0.06758274 -0.24922025 -0.21464795 -0.18414149 -0.093121104
-0.20771378 -0.110444926 -0.15355095 -0.06474292 -0.14652999 0.19694304 -0.12572762 -0.06627806
-0.10364237 -0.05935086 -0.09882416 -0.0053511565 -0.010031616 -0.06555406 -0.0895126 -0.06942701
-0.07844148 -0.16839135 -0.04200127 -0.2533157 -0.04578896 -0.08321411 -0.01776179 -0.22102275
-0.26825413 -0.15511452 -0.22270447 -0.07471268 -0.19174209 -0.12972373 -0.1614144 -0.19193195
-0.20926896 -0.20847051 -0.041269034 -0.05712127 -0.11219696 -0.018999845 -0.13623801 -0.1741536
0.13404673 -0.1192276 -0.14206748 -0.15766418 -0.2038331 -0.22311819 -0.17005208 -0.003908401
0.036764756 -0.110507704 -0.1269187 -0.14011948 -0.1954112 -0.19072163 -0.103815794 -0.0294648
-0.15496556 -0.12886709 -0.046006117 -0.13801587 -0.035754357 -0.020020219 0.03880831 -0.0369887
-0.13884558 -0.11840476 -0.14856488 -0.040821172 -0.104345575 -0.19458689 -0.2010599 -0.2096404
-0.18430811 -0.14383528 -0.071280934 -0.05400048 -0.23009852 -0.04112018 -0.20760259 -0.16982943
-0.15910852 -0.12028101 -0.012294592 -0.1660569 -0.11742096 -0.19255567 -0.13255116 -0.060742326
-0.014089589 -0.0067928927 -0.047233343 -0.022780878 -0.17128766 -0.110337496 -0.10313473 -0.16022405
-0.04188464 -0.10259369 -0.06332098 0.038562737 -0.12113465 -0.19579878 -0.16550377 -0.13563508
-0.20325017 -0.07675587 -0.08724974 -0.17321813 -0.19288616 -0.14781097 -0.14085081 -0.081908286
-0.12234995 -0.16205914 -0.17167187 -0.21872425 -0.10591252 -0.12185164 -0.1456524 -0.13052641
-0.12238455 -0.02016127 -0.116218284 -0.031911574 -0.17934397 -0.08139286 -0.19350521 0.083558045
-0.13687819 -0.15043654 -0.060629524 -0.077844575 -0.09780194 -0.22857021 -0.14378731 -0.04998696
-0.032892965 -0.18268016 -0.21614216 -0.010526689 -0.04157472 -0.21929592 -0.23962063 -0.09270944

lin2.weight f4 [64, 256]
00000000: 664d 20bd 8295 08bc 7542 7d3a 32cb 083d
00000010: 7486 203d 98f0 b53c 7648 46bc b430 df3d
00000020: 902b 593b d62b 5dbc 5b70 8a3d 2cf0 d7bc
00000030: c0b2 92bb 4805 0d3e c704 c3bd cad7 1b3d
00000040: 21d8 87bc d466 503d 34bc 87bc 549c 753d
00000050: d1d5 6bbe 7017 d33d 7028 0e3e 50be 1e3c
00000060: b815 1abe caca 823d b186 61bc 4a1e 053d
00000070: 1c7c fabc b0fe 773c 749b 683d 0241 b03d
00000080: 64ad 3bbd c4e6 1b3d f225 bbbd 3a02 07bd
00000090: 71a9 ebbd 988d 783d d03e ab3b 1eea 2d3d
000000a0: 092f 0c3e 07a2 e23d 964a 1dbe a442 f03c
000000b0: 40e7 363c 1537 2c3d 6476 353d 5639 2f3d
000000c0: 1418 293d 9215 18be 6cb6 b33c 1809 803d
000000d0: 58c7 8ebc cee7 473d 5dc9 823c 768a 4f3d
000000e0: ec5c 05be 988f 04bc fa99 6dbd 1079 5c3d
000000f0: ae4c e53c c504 333d 34ae 153e 20b9 183d
00000100: dc8f eebc 32de 823d f272 183d 9a50 29bd
00000110: fb65 05bd 9f3b 173d 7c9e f0bc d8e6 403c
00000120: 890a 87bd 21dd 713d 42d6 c63c 2ce4 fa3c
00000130: 20b4 4bbd 9a1c 1e3e ede0 48be c38f 373d
00000140: bf87 09bd 201c 70bb b824 15bc 2615 7d3d
00000150: 6450 bcbc fed2 09be 40f9 1f3e ae27 f43d
00000160: 94b6 4c3d 8b85 9dbe 26de 483d 0fe9 99bd
00000170: 9820 e1bc ea49 033e 1a40 17bd 7336 973d
00000180: 28dc 1fbd ecfe 23bd a223 d4bd 5834 ffbc
00000190: 0122 1b3d 7838 23be 4cd4 783d ebaa 3d3c
000001a0: 0071 ca3c 525c 58bd a91c 24bd 186e 8b3c
000001b0: 7d8d 8e3d c749 e23d 7017 42bd e608 613d
000001c0: 75a7 f3bc 0804 6abd 2749 623d ba89 413d
000001d0: b718 c43c a4db 273d 9a30 75bd 4fd1 eb3d
000001e0: 4067 8dbc f466 453d a0d3 41be 6b5b e0bd
000001f0: 3815 34be 75ac 783d a843 0cbd b2fb 2dbd
00000200: 007f d03d 9e48 113e 0d9e 363d 95a4 fe3d
00000210: 6afd 26bd 2f05 bebc f1a5 2b3d a261 153e
00000220: ea79 0a3d 1495 6a3d 78fa 2cbd a487 9a3c
00000230: 88c8 603d e0d7 cfbb 20e2 ce3c 8a9b 273d
00000240: 30ed e63c b0ec 4bbc 7f7b 233d 9091 07bc
00000250: 7090 c0bc 38f1 19bc 3e20 643d 90a2 0dbe
00000260: 2fc2 6fba 9cfa 31bd 48cf 46bc bcea 243d
00000270: d626 043e be70 5f3d de74 3b3d f024 553d
00000280: 8256 e23d 18bf 88bc 54bd 75bd db0b c83d
00000290: 5426 6e3d 42fa 53bd 4179 dcbc 84a5 c83d
000002a0: 72cb 663d ec1c d53d e1c1 15be 3311 d8bd
000002b0: 674a 1f3b 0b22 a83a 3705 42bd 0bbd b1bc
000002c0: e5bf 5ebc 9813 bfbc 144d bd3d 9b60 07bd
000002d0: 6910 51bd 37a6 00be 4827 c33c f5ec d23d
000002e0: 3c3d 73bd 24ef 4ebe 6f65 223a a042 a13c
000002f0: f1a7 a53d cd4f 91bc 7344 103d 1d96 bb3d
00000300: 4e61 96bd 305d 113d c2c9 a63d 68c5 9e3c
00000310: 0913 dc3d 4538 fd3d 5204 4a3d 5214 da3d
00000320: 8fd2 fc3d 1188 233c 4e83 84bd 9f25 7bbd
00000330: e2c8 21bd 90f2 173e f39d e43d af94 f1bd
00000340: ecbc a63c 1e6b 55bd 93b8 123d ec87 e3bd
00000350: d38b cabd acc1 9ebc 00ac 74b9 84b8 ea3c
00000360: 149f 5a3d 6c4f db3d 2a24 fabb ab6d 013e
00000370: 7a30 223e 694f b03d b45a de3c 1e61 2fbc
00000380: 77a1 213d ee29 413d 8b94 cb3d 9d25 97bd
00000390: be51 4c3d f20b d23d 883a fa3d 9083 6a3c
000003a0: f40d a2bd 48fa 233d 0f9f c33d ef3d 333d
000003b0: c2b7 7c3d d10b 103d 9103 b93d bb66 66bd
000003c0: 1a71 e43d d0d4 a0bc b5ec 743d dbac f83d
000003d0: a3ee 0dbc 2aba 3a3d d794 ab3d f9da d0bd
000003e0: 0ef8 cf3d a054 f8bd 3ecd fdbd e065 e4bc
000003f0: d28d 1d3d 74be 433d 72e5 4c3d 080c ac3c
-0.039136313 -0.008336427 0.0009661087 0.033396907 0.039190724 0.02220945 -0.012102237 0.10897961
0.0033137538 -0.013499221 0.06759711 -0.02635964 -0.004476875 0.13771546 -0.095223956 0.03804759
-0.01658255 0.050879315 -0.016569234 0.05996354 -0.23030783 0.10307205 0.13882613 0.009688929
-0.15047348 0.06386335 -0.013765023 0.03249959 -0.030576758 0.015136406 0.056788877 0.08606149
-0.045819655 0.038061872 -0.09138097 -0.032961108 -0.11506928 0.06068191 0.0052259937 0.0424596
0.13689817 0.110660605 -0.15360484 0.029328652 0.011163533 0.042044718 0.04430236 0.04277929
0.04128273 -0.14851978 0.021937571 0.062517345 -0.017429039 0.04880505 0.015965158 0.050669156
-0.13023728 -0.008090876 -0.05800817 0.05382639 0.027990665 0.04370572 0.14617234 0.037285924
-0.029121332 0.06390037 0.037218995 -0.041336633 -0.03256796 0.036922093 -0.029372446 0.011773787
-0.06593806 0.059048776 0.024272088 0.030626379 -0.049732327 0.15440598 -0.19617052 0.044814836
-0.033576723 -0.0036637858 -0.009102993 0.061787747 -0.022987552 -0.13459393 0.15622425 0.11921631
0.049978808 -0.30765948 0.049039982 -0.075151555 -0.027481362 0.12821165 -0.036926366 0.07383432
-0.039028317 -0.040038034 -0.10358359 -0.03115289 0.037874226 -0.1593951 0.060749337 0.011576395
0.024712086 -0.05282242 -0.040066395 0.01702027 0.069605805 0.11049228 -0.047385633 0.054940127
-0.029742936 -0.05713275 0.055245545 0.047250487 0.023937566 0.04098095 -0.059860803 0.11514532
-0.017261147 0.048193887 -0.18928385 -0.109549366 -0.1758622 0.060711343 -0.03424421 -0.042476363
0.10180473 0.14187858 0.044584323 0.12433735 -0.04076902 -0.023195831 0.0419063 0.14588025
0.033807673 0.05727108 -0.042231053 0.018863507 0.05487874 -0.006342873 0.02525431 0.040919818
0.028189272 -0.012446567 0.039912697 -0.008274451 -0.023506373 -0.00939589 0.05569481 -0.13831544
-0.0009146062 -0.04345189 -0.012134381 0.040262923 0.1290544 0.05455088 0.04576575 0.05203718
0.11051656 -0.016692683 -0.05999501 0.09767886 0.05814202 -0.051752336 -0.026913287 0.097971946
0.056346364 0.10405907 -0.1462474 -0.105501555 0.0024305822 0.0012827528 -0.047368255 -0.021696588
-0.013595556 -0.023324773 0.09243217 -0.033051115 -0.05104104 -0.12563406 0.023822442 0.10299102
-0.05938457 -0.20208412 0.00061949244 0.01968509 0.08088673 -0.017738247 0.03522153 0.09159491
-0.07342778 0.03548926 0.08143951 0.01938124 0.10745818 0.12364248 0.049320526 0.10648407
0.12344848 0.009981171 -0.06470357 -0.061315175 -0.039498217 0.14838624 0.11162939 -0.11795937
0.020353757 -0.052104108 0.035820555 -0.111099094 -0.098899506 -0.01937946 -0.00023333728 0.028652437
0.053374365 0.10708508 -0.0076337056 0.12639491 0.15838805 0.08608896 0.02714286 -0.010704307
0.039460625 0.047159128 0.09940442 -0.07380221 0.049882643 0.10256185 0.12218195 0.0143135935
-0.079128176 0.04003361 0.095518224 0.043760236 0.061698683 0.03516752 0.09033883 -0.056250315
0.11154385 -0.019632727 0.059796054 0.121423446 -0.008662852 0.045587696 0.08377998 -0.10198016
0.101547346 -0.12125516 -0.123926625 -0.027880609 0.03846533 0.047789052 0.050023504 0.02100183

lin2.bias f4 [64]
00000000: 8972 e0bd 0faa abbd 3666 cabd a300 8ebd
00000010: 0d82 0dbe 504d c6bd 43ea c2bd daf4 e5bd
00000020: 927c 22be 456b 4cbe 0a08 79bd 3a34 5f3c
00000030: f372 cebd 0e9e 5c3c 28b1 03be 5bd1 893c
00000040: 816f 7ebd bab8 dbbd 7647 afbe 304c 17be
00000050: 8a76 3fbe 8a7e 00be 6dcc 22be 9281 22be
00000060: 1c5f 1cbe 9081 f1bb b688 0cbe 98ce 36bd
00000070: a11b 8ebd acd8 ad3d 23de 04be 52a0 7bbd
00000080: fcb5 b1bd 9c24 883e c22c 37bd 3cdd 45be
00000090: 0236 0abe ab32 94bd 7a15 c1bd 4c1c 15be
000000a0: 0f45 b9bd 9234 20be 339c b93d 68bc 04be
000000b0: c971 13be a668 29bd 27fd 94bd 603c 7dbd
000000c0: a512 29be 9532 f1bd 10c8 323d 7259 f3bd
000000d0: bf6a 96bd bd85 a7bd c06c 14be 12c4 0fbe
000000e0: 729d a7bc 5afb d7bc bad2 883d cedd 88bc
000000f0: 0a67 eabd d6ba 9f3e 1cc9 55be 705f 2fbe
-0.10959346 -0.083820455 -0.098827764 -0.06933715 -0.13819142 -0.09682715 -0.09517338 -0.11228342
-0.15867832 -0.19962795 -0.060798682 0.013623292 -0.100805186 0.013465418 -0.12860548 0.016823461
-0.062118057 -0.10728593 -0.34234208 -0.14775157 -0.18697563 -0.12548271 -0.15898295 -0.1586974
-0.15270656 -0.0073701814 -0.13724026 -0.044630617 -0.069388635 0.084885925 -0.12975363 -0.06143219
-0.08677289 0.2659043 -0.04472042 -0.19322675 -0.13497165 -0.07236227 -0.094279245 -0.14561576
-0.09046375 -0.15645054 0.09062996 -0.12962496 -0.14398874 -0.041359566 -0.072748475 -0.061825156
-0.16511019 -0.11777226 0.043647826 -0.11882295 -0.07344579 -0.081798054 -0.1449461 -0.14039639
-0.020460818 -0.026364971 0.06680818 -0.016707327 -0.114454344 0.31197232 -0.20877498 -0.1712625
